model_chkpt/ensemble_networks.pt (torch, 990161 bytes, 40 tensors)

linear_1.weight f8 [150, 8]
0.15004159780602797 0.0049183653868382264 -0.013442622566425264 -0.16181444197835176 -0.14771755272271678 0.33223838666042976 -0.3829547735216966 0.020768197972851416
0.5287378821576001 0.01647467214173606 -0.30475567085608724 -0.4658338816514167 -0.5236255410009804 -0.5248941331847872 -0.13503239271938441 0.010547305409937506
-0.8254942599321101 0.2373595485539111 -0.6867108068068583 -0.47161805667961487 -0.13476305885359274 -0.03648974146394554 0.32190144095170004 0.057146208814706986
0.4303761028026387 0.5142416291498955 0.34077675003624847 -0.3058512323851257 -0.3620144216874538 -0.08359466652884018 0.33688982816779534 0.12346221535991307
0.47936804644430264 0.11808388764967964 0.5661658732783004 -1.0860777745443566 -0.6079418501833165 -0.12191830317260839 0.17673000166996933 -0.012959392794852661
0.04322029550982197 -0.28761648455515093 -0.03673099859413725 0.042057347418225026 0.5255972800698754 -0.11411786434662914 -0.25391479986017246 0.04229976795916275
-0.4071227327331807 -0.23757841915288175 0.1930376463797369 0.162065297307348 -0.4849853019410156 -0.036046547175674605 -0.3064447223818418 -0.49090192264716015
0.14231973650994717 -0.2802842792469215 0.08734403800182414 0.2140454134800285 0.39993027360727207 -0.07686298973248587 0.2923899363896238 0.6322597390927513
0.31325301168661074 0.0994334446044157 -0.09603402174263273 -0.18650088088214503 0.38233934072959475 0.2548191643465698 -0.3366522795591153 0.16291675667304412
-0.4364368067875762 -0.02613582190794902 -0.24755040324698444 -0.6138471890162892 -0.45938780079043023 0.18141908923604752 0.20633615398882058 0.1836046206945601
0.24440624266164407 -0.3853422305119638 0.06433075716652245 -0.24849594627234223 0.1621990707026396 -0.04860713391937278 -0.4347482227675004 -0.7858364634057157
0.06494476383431963 0.021994034750647613 0.0490860167105033 0.04067574127435359 0.011640882690315935 0.02048217650630067 0.07342353538033242 -0.02861785581393697
0.13762797122358628 0.4226952658557194 0.39923140438549887 -0.026702959747570684 0.21051001981798081 -0.30641909744886764 -0.5473266837305629 -0.0459742948765194
0.008078132720638316 -0.17348190295942736 -0.09254551645226441 0.5937956688274054 0.4491870174774296 0.2501667328818863 0.018892102578721356 -1.094772069736611
-0.12747212156691487 -0.17802387556008878 0.009565390513814392 0.05512311295137299 0.8095777743791309 0.2388811029512932 0.03475619929269932 0.272809519737382
-0.12454799570908279 0.1720817891812775 -0.061862514417034595 0.2983530870459191 -0.5105209803901232 0.13078257236100083 0.24767745115109868 -0.6838452505932451
-0.02189807805335397 0.38150151203385 0.4207377826352813 -0.37307378551651593 -1.0222718324991986 0.12013925758075626 -0.10070550092324869 -0.25892334438976045
-0.6435026551697504 -0.6162161347367805 -0.43153716042900514 0.2969518492880184 0.45757446743492275 0.06090999958547878 -0.042848769228002175 -0.05632267592872593
-0.09461357503609087 0.371004380887163 -0.3955303765091799 0.6302466840194809 0.014359566066354613 -0.6539581932761079 -0.4296591915214452 0.0022542710512988124
0.4492048935113928 0.4213865618796249 0.18389321226269542 -0.3017718860662627 -0.4662278630818216 0.1988281962862762 -0.05547921210087806 -0.053925341936499074
-0.594288403194403 -0.4260143668950085 -0.28738764735934424 -0.13634244643962576 -0.13191857361794077 0.4870219639043895 -0.5635163728742729 -0.16150767856729611
0.006575953919770836 0.07141954892781714 -0.01947819019828273 -0.02499738217481143 -0.07217228455156471 0.1059434957309233 -0.014661366354979076 -1.4147136244977545
-0.016909146676635036 -0.11164037334145623 -0.2712345537018857 -0.07178952576410245 0.11908872323517596 0.0032179093833946027 -0.12686789946849802 0.08334273585490949
-0.15847354033277355 -0.18688444738549267 -0.19546408737998747 -0.6414220829719841 -0.7393767414459449 0.06172677239547769 -0.00919037251108954 0.1418493622973876
0.19064779702007237 -0.4840832713549442 0.1647531163092752 0.5814383724796317 0.22365734322043385 -0.1209778726478502 0.5207656912346378 0.15374822588860482
-0.08758996367723003 -0.17648465278515782 -0.4099054542025168 -0.6046296173120494 -0.3696399524350019 -0.2577674792976179 -0.7655019069342905 -0.06677788602217183
0.10099794360634289 0.12374194986748306 0.15327161808033518 0.07131024451169007 0.1696721287668216 0.11260417404730524 -0.033831959412081586 -0.18892208380504735
0.10563963976264418 -0.14217610519444104 -0.05605798253721944 -0.273269694023888 0.4879733354165133 -0.3731642520125126 0.06458663533512146 0.2189170307394537
-0.3932992888132727 -0.11184147414252428 0.18489925863719628 0.3379997567458887 0.5027029147347949 0.10265731016223834 -0.7226120976306412 0.0521857587578229
-0.40548976575391665 -0.3759919403848988 -0.4378698336683745 -0.46238778699644617 -0.27441608204767254 -0.25368847289753527 -0.5789700459747592 -0.2053432633323729
0.2909964930345802 0.26429322527622623 -0.31512101307407747 -0.32247973579352973 -0.19725939420544894 0.10604905856286924 0.37551013086145396 0.21409001705130376
0.3279480083545282 0.13784932027823654 0.013971848255061653 0.2813258192690588 0.12291250895623665 0.1716480515289255 -0.5639302084752733 -0.02023927936293434
00000000: abe8 ce25 9034 c33f 95ac c7a7 4725 743f
00000010: 85b5 5c42 ce87 8bbf 2ea4 28ec 55b6 c4bf
00000020: e79e fea4 68e8 c2bf 99ab 4bcb 6443 d53f
00000030: 86db 07bd 5482 d8bf 956a 5c2c 4244 953f
00000040: 02be 00b5 6beb e03f 678b 3e88 bcde 903f
00000050: 603c e6ed 1d81 d3bf c0f0 c3e9 38d0 ddbf
00000060: 7362 be59 8ac1 e0bf 7e82 fcc7 eecb e0bf
00000070: 71b0 50cf bd48 c1bf af72 5f5e d399 853f
00000080: 5d36 2ef0 726a eabf f957 3735 cc61 ce3f
00000090: 8772 21f1 88f9 e5bf dc16 6980 fd2e debf
000000a0: e417 3e79 ea3f c1bf dc4b 748c c8ae a2bf
000000b0: 980f 5b80 089a d43f de2b e693 4442 ad3f
000000c0: e81a a135 488b db3f 1419 6edc aa74 e03f
000000d0: 8524 2949 49cf d53f 2c44 220c 1193 d3bf
000000e0: 6afd 7489 3e2b d7bf 5884 dcc6 7566 b5bf
000000f0: c67c 955a 9a8f d53f 8735 4341 389b bf3f
00000100: b071 8e50 f7ad de3f 4cd1 a3e3 be3a be3f
00000110: 3aee bae4 071e e23f 9e49 a916 9360 f1bf
00000120: c406 8d77 4274 e3bf a500 e9b4 0936 bfbf
00000130: 6880 b2b4 169f c63f 2bdb d641 748a 8abf
00000140: 9eed 7977 f820 a63f 771c bdf8 4e68 d2bf
00000150: d727 6ccb 67ce a2bf b781 6f67 8a88 a53f
00000160: 8a88 1863 b1d1 e03f 3d15 420f d436 bdbf
00000170: 3bab 57dc 2340 d0bf faa6 06b0 50a8 a53f
00000180: ab04 a381 4c0e dabf ee9d 3f3a f868 cebf
00000190: 2584 0c25 75b5 c83f a933 e03f 8ebe c43f
000001a0: 7526 b8ca ff09 dfbf 25a9 816a b174 a2bf
000001b0: 175b 2a53 ca9c d3bf 6a09 d4e5 ef6a dfbf
000001c0: 0a5a f17a 8837 c23f 8fb3 3c79 2df0 d1bf
000001d0: 1aea b7ca 2d5c b63f e1b4 6011 d765 cb3f
000001e0: 4cb5 7425 7598 d93f da7e 2cfb 4aad b3bf
000001f0: e344 9e47 84b6 d23f 3463 bfc6 783b e43f
00000200: e751 245c 560c d43f 3660 b460 7874 b93f
00000210: 2e1e b086 af95 b8bf 4d31 08c8 42df c7bf
00000220: 9019 1a6d 3f78 d83f e4cd 500a f54e d03f
00000230: cf22 b500 b68b d5bf 5ac8 f0ce 74da c43f
00000240: 8517 fba4 94ee dbbf 3717 6551 59c3 9abf
00000250: 3959 074b bbaf cfbf b520 32dc a2a4 e3bf
00000260: 75e1 2417 9c66 ddbf 73c8 919f bd38 c73f
00000270: cda4 ae1c 3969 ca3f 1189 a330 5b80 c73f
00000280: 9ac2 9529 b448 cf3f d042 7475 72a9 d8bf
00000290: c639 2802 fb77 b03f fad1 3615 b7ce cfbf
000002a0: c301 0e6c f0c2 c43f 626e 12c5 08e3 a8bf
000002b0: 51f4 b135 ead2 dbbf 839e ca82 9225 e9bf
000002c0: 2c00 b754 38a0 b03f 952f d8af 9a85 963f
000002d0: 93cf ec68 cd21 a93f b11e 0765 73d3 a43f
000002e0: 40a1 9cd3 2cd7 873f 1b5a fb98 47f9 943f
000002f0: 1819 3783 e2cb b23f 48c3 35cb ff4d 9dbf
00000300: e4c6 b519 cb9d c13f cb8e c171 700d db3f
00000310: b2cc 57e0 018d d93f 2cf4 494b 0558 9bbf
00000320: f19c 4c09 fef1 ca3f 106a 9ad8 5e9c d3bf
00000330: 993a db3f b383 e1bf 4212 e759 f189 a7bf
00000340: 117a c89e 448b 803f 8d4c d4ad a734 c6bf
00000350: c2cc 8d1e 10b1 b7bf 4bd8 43c6 5f00 e33f
00000360: 229d 76e7 7abf dc3f 7697 1154 bb02 d03f
00000370: acc3 e98a 7358 933f d47c c1b7 2f84 f1bf
00000380: a30c a4a8 0151 c0bf 5b08 b881 7cc9 c6bf
00000390: e341 71fb 0497 833f 257d c2be 1839 ac3f
000003a0: d3db 10a6 0fe8 e93f 8973 67ee a793 ce3f
000003b0: eb3e 9786 90cb a13f 36cf 530f b675 d13f
000003c0: f654 5aa0 60e2 bfbf 0da8 62ac c606 c63f
000003d0: defa 8988 71ac afbf 9a76 e18b 3718 d33f
000003e0: 6651 5618 3056 e0bf 32b0 96bb 7bbd c03f
000003f0: 1247 530c e5b3 cf3f 4c55 5a6f 0fe2 e5bf
00000400: be6f 5624 736c 96bf ffd5 6351 856a d83f
00000410: b60b 272a 5eed da3f 6674 f2de 70e0 d7bf
00000420: f94b 83b5 395b f0bf df6a 4646 72c1 be3f
00000430: 5f1e fef0 d5c7 b9bf 3fcc 1438 3392 d0bf
00000440: d9fb 5ae1 9297 e4bf b8c8 3ee6 0ab8 e3bf
00000450: 3648 c309 4e9e dbbf cd70 4b54 4201 d33f
00000460: ed86 476b e648 dd3f 6a21 7070 982f af3f
00000470: 5f28 041d 46f0 a5bf ea2f 4666 53d6 acbf
00000480: 95a3 8962 9838 b8bf 6351 a528 89be d73f
00000490: 9a9d eba3 5e50 d9bf f2d5 0818 fb2a e43f
000004a0: 5432 1e55 8c68 8d3f e54e a2bb 39ed e4bf
000004b0: 85aa 0044 897f dbbf dbfa 218e 8c77 623f
000004c0: 006a b5e1 c5bf dc3f b5cc 8f57 fff7 da3f
000004d0: f5f4 4f12 d089 c73f 0270 6007 3b50 d3bf
000004e0: aae7 1a64 add6 ddbf ab3e 49cc 3373 c93f
000004f0: 6588 2973 c567 acbf 7af4 1538 1a9c abbf
00000500: b195 031d 6904 e3bf 582c 5cc3 d143 dbbf
00000510: 69b2 ab28 8f64 d2bf c3e5 4156 ab73 c1bf
00000520: 6b46 b633 b5e2 c0bf 7fcb d92b 5e2b df3f
00000530: 6a2d 087d 5308 e2bf e5ec bf9a 48ac c4bf
00000540: 7d1d 6830 63ef 7a3f e3a6 f032 8d48 b23f
00000550: 702d 8c37 17f2 93bf a9a9 b4eb e998 99bf
00000560: 849a d301 e279 b2bf 1f63 63e9 1c1f bb3f
00000570: 0c11 1348 c706 8ebf 93c6 e6c0 aaa2 f6bf
00000580: a7eb ea9f a150 91bf 552f 6aa8 7694 bcbf
00000590: dd76 6c2c e85b d1bf c727 5a61 cc60 b2bf
000005a0: e912 9e3b 997c be3f e97f 05f2 715c 6a3f
000005b0: aa90 9013 353d c0bf 0123 db14 f355 b53f
000005c0: 525b 8168 dc48 c4bf af6b d35e d4eb c7bf
000005d0: cd75 6b9b f704 c9bf f67f a99a 8786 e4bf
000005e0: 42de 7d69 f9a8 e7bf 18d2 73c9 a69a af3f
000005f0: 7349 fcea 66d2 82bf 4a4b 03b2 1e28 c23f
00000600: 5fb9 a0a2 2567 c83f c6a6 c066 38fb debf
00000610: 9e30 3b4f a116 c53f 4210 4ea5 249b e23f
00000620: 682d 52c7 cda0 cc3f 58ea 8fe6 67f8 bebf
00000630: 4b69 97cf 1caa e03f dc39 0199 05ae c33f
00000640: 8797 73bd 4b6c b6bf 41a5 fa91 0c97 c6bf
00000650: 121e 1016 e43b dabf 3f8b 1136 2059 e3bf
00000660: 8a36 c054 2ea8 d7bf 608f 632b 437f d0bf
00000670: 86de e9da fd7e e8bf a8ad 8f04 5b18 b1bf
00000680: 83a3 c050 00db b93f f5f8 d26b 8dad bf3f
00000690: 74af 8785 679e c33f 2627 0c60 6341 b23f
000006a0: 4550 0cfa d0b7 c53f e61f ed8c a0d3 bc3f
000006b0: 0c0f 782e 6c52 a1bf 27a9 b74d 992e c8bf
000006c0: 5c18 f10d 330b bb3f 8998 0a9d d332 c2bf
000006d0: 68ac 5ac3 a1b3 acbf 7e83 b42b 407d d1bf
000006e0: 0dc6 3b83 f43a df3f d685 9b50 ece1 d7bf
000006f0: f2e4 85ee bf88 b03f d91c c827 7905 cc3f
00000700: 608e bfc7 d02b d9bf 7550 c791 a4a1 bcbf
00000710: 3161 7366 c7aa c73f 1be4 51bb c9a1 d53f
00000720: 6979 4c6c 2416 e03f a096 d7dd bf47 ba3f
00000730: e08f e067 a31f e7bf 3a14 5d7e 17b8 aa3f
00000740: 43a6 b158 8bf3 d9bf 70d0 e07f 4010 d8bf
00000750: 22ae e031 0f06 dcbf 1d0d cef1 c297 ddbf
00000760: 8609 7978 0890 d1bf e8e4 9d93 6e3c d0bf
00000770: 1968 9a30 ec86 e2bf e2b4 3b24 b048 cabf
00000780: c263 35c1 af9f d23f 7c68 c721 2eea d03f
00000790: 12e0 5b53 f12a d4bf 92c7 b60b 82a3 d4bf
000007a0: 6d78 78bb cb3f c9bf 9d92 4cf6 0726 bb3f
000007b0: c976 d7a4 5b08 d83f d655 d13a 4d67 cb3f
000007c0: 36f2 aaa4 19fd d43f 3278 2fe9 0ba5 c13f
000007d0: 63b2 8fba 459d 8c3f 23fc 5102 3e01 d23f
000007e0: 0281 3cb6 3177 bf3f e592 de37 90f8 c53f
000007f0: 9e16 545d b70b e2bf 9e69 d50b 9bb9 94bf

linear_1.bias f8 [150]
-0.8082790998857238 -0.19566303560424567 -0.6980318512803224 0.2970108318609385 -0.864101409582962 -0.4873633179875662 -0.1775602960532633 -0.832870211333633
0.14937104967875253 -0.6630131005739214 -0.7503677847400997 -0.3407373960853352 -0.5904009487375741 -0.4803423191078151 -0.6091998211291818 -0.4689511268044338
-0.808714207787066 -0.3599536578447372 -0.6085932264287032 -0.5064446590081811 -0.5071461429884766 -0.5814817267169917 -0.7532121307676689 -0.25165739999327885
-0.5290351222801778 -0.5711176510097521 -0.7034644059292855 -0.8782566228594509 -0.9236158237716687 0.05365465315285464 -0.5686623043632705 -0.5856346150327459
-0.16467800363176996 -0.12745347634919138 -0.7373790165980885 -0.6655826960328958 0.30607315694829235 -0.6663457704712259 -0.6742811279211237 -0.46650768942115695
-0.39537924996033585 0.00027112354863499254 -0.6081306721300861 -0.6528048323496097 -0.26769454440315327 -0.87365272184606 -0.1336162020474591 -0.5448659565885884
-0.9075771243898236 -0.43249469787377504 -0.21498146537563373 -0.0748638574780395 0.4479526243689934 0.1265620629943828 -0.37568786742394794 -0.7870279758438421
-0.7191425087358145 -0.33166743261524767 -0.47497742448377894 0.09688711795295718 -0.8065364163850611 -0.33664802658940973 -0.3292958517359278 -0.44696922815490026
-0.24486785611216505 -0.9956493329952446 -0.370303812341574 -0.13744553798017342 -0.39470156022832115 0.12255735624082287 -0.471949003199108 -0.84846408768169
-0.3260061421138049 0.07225241522376397 -0.3266113358422458 -0.20831390772332145 -0.46893245680995893 -0.14880694302140648 -0.5744090383411317 -0.6572038886208221
-0.5880880701778328 -0.7149429147053392 -0.5764819611290334 -0.5571470893891117 -0.4419493919560625 -0.633271465432412 -0.5499605118135432 -0.3653875985956898
-0.7700605403231686 -0.31152069401458715 -0.4797290015117474 -0.4063502055254706 -0.1650761345078846 0.3911099605349447 -0.5580174561820787 -0.09500929101296315
-0.2861397350076768 -0.7424593535386714 -0.4778565772581315 0.6305420393867437 -0.5330409565255396 -0.34181916829594716 -0.2833207281593189 0.2862642508889735
-0.5093226202159944 -0.40814265151005863 -0.5072917267509734 -0.8972684948068348 -0.5861898572357022 0.48188286340206515 0.2969650121603189 -0.7137445342150488
-0.21607328127733474 -0.6857061634987 -0.6983251867392547 -0.05625536256014649 -0.3984401475326829 0.3671365869524056 0.4564744502135697 -0.8053086623570769
-0.7762586901355392 -0.16814745446948834 -0.2653535010267014 -0.5185762706685043 -0.6945306858197662 -0.717939136423525 0.307028333102293 -0.4237510455543739
-0.5262022097750313 -0.6323422866713132 -1.0345647173525745 -0.1697739472997971 -0.6358311060109518 -0.6336363217036233 -0.7481467526701158 -0.35362317350024125
0.10755824190565472 -0.17942208307531407 -0.7846826591660767 -0.0580121007662307 -0.5587551352542878 -0.6202343047203714 -0.5586800770879264 -0.33599512772708184
-0.636151613062813 -0.2090208798978431 -0.4372017784086183 -0.29897914759413613 0.06696953266379455 -0.31524450865115555
00000000: 8395 8121 6cdd e9bf a768 7a81 7c0b c9bf
00000010: 1b17 9ae4 4656 e6bf 8fa1 59b8 3902 d33f
00000020: 28c3 d2ff b7a6 ebbf 8fb4 01ea f530 dfbf
00000030: bcf4 4eb8 4bba c6bf b0b2 ef6d dfa6 eabf
00000040: 8e72 ab2e 971e c33f 0b1b f93f 6737 e5bf
00000050: 43c8 ed4c 0303 e8bf 537c 2d39 a4ce d5bf
00000060: 3c5e cb87 90e4 e2bf b0fb dcb5 edbd debf
00000070: 0853 8f9f 907e e3bf 7908 4396 4b03 debf
00000080: 2131 489e fce0 e9bf b632 2111 7b09 d7bf
00000090: 4782 8280 9879 e3bf 7d91 f56d cb34 e0bf
000000a0: 8fb2 4d8c 8a3a e0bf 2913 ef90 7f9b e2bf
000000b0: a61f 9353 501a e8bf 1a1f b1a3 271b d0bf
000000c0: 831e 9410 dbed e0bf d12a 2886 9846 e2bf
000000d0: 23b9 2bc9 c782 e6bf eba7 15a2 ad1a ecbf
000000e0: 7a5b a5c5 428e edbf 2cb4 2369 9f78 ab3f
000000f0: f1a9 f649 7b32 e2bf 0514 dfcd 84bd e2bf
00000100: e308 fc37 2b14 c5bf 6534 5740 6550 c0bf
00000110: 2c74 21e1 9b98 e7bf 5fd5 0715 744c e5bf
00000120: 63b0 d1dd b396 d33f 0e0f 805d b452 e5bf
00000130: 2566 1704 b693 e5bf 865e 5911 43db ddbf
00000140: 8b2f 06c5 e44d d9bf b4be 49c6 b2c4 313f
00000150: 72c8 8f74 ce75 e3bf 4398 b3f5 c6e3 e4bf
00000160: cfdd 614c e821 d1bf 9f7c 8c8d f6f4 ebbf
00000170: 6e39 01f1 551a c1bf 470e 08bb 8a6f e1bf
00000180: b843 7b2e df0a edbf c2eb c33d fead dbbf
00000190: 9a6a 843d 8384 cbbf 0a45 851b 472a b3bf
000001a0: ea9e f47b 41ab dc3f 3dd2 bc88 2f33 c03f
000001b0: f1bf 0520 450b d8bf 062a 294b 552f e9bf
000001c0: 04e1 8526 3703 e7bf fac4 0e0a 0a3a d5bf
000001d0: c3c0 1fb6 0766 debf 34fb 021b 98cd b83f
000001e0: 2105 6d75 25cf e9bf 9ab9 1d2a a48b d5bf
000001f0: 7a83 7ae8 2e13 d5bf 1c98 4fd2 249b dcbf
00000200: f6f3 eb74 d457 cfbf 15f6 6ffd 5bdc efbf
00000210: ebd5 e5c2 0eb3 d7bf 7390 4dbd d097 c1bf
00000220: 9217 3755 ca42 d9bf 3045 f03c eb5f bf3f
00000230: 8fad 8797 6934 debf f68b 8d28 9e26 ebbf
00000240: 8321 abdd 48dd d4bf 9c6d 7160 227f b23f
00000250: 1880 7c3b 33e7 d4bf d39f 7cb6 07aa cabf
00000260: 7907 8247 fd02 debf 27eb d81c 1b0c c3bf
00000270: 8b76 4610 8f61 e2bf 4fc6 0d73 d007 e5bf
00000280: 049c 9212 9ed1 e2bf bc52 a5f6 cfe0 e6bf
00000290: 7f0f 394c 8a72 e2bf 409c ff21 26d4 e1bf
000002a0: 510e 3c1a e648 dcbf e5b5 3085 c243 e4bf
000002b0: 3194 8ac9 4699 e1bf 1447 95aa 8262 d7bf
000002c0: 6219 9400 56a4 e8bf d478 347e f4ef d3bf
000002d0: 57e2 1b45 e1b3 debf 071b dd4a a401 dabf
000002e0: f8dd 87fb 3621 c5bf c9cb 6812 f207 d93f
000002f0: c3c5 9c6c 47db e1bf be81 b765 8752 b8bf
00000300: c76b fc08 1d50 d2bf 48da 411e 3ac2 e7bf
00000310: 9723 e0c0 3395 debf 276a bd7f 662d e43f
00000320: 8295 76e8 ab0e e1bf 6287 3e81 5de0 d5bf
00000330: 9948 6e43 ed21 d2bf cd40 e54a 2752 d23f
00000340: 6a1a 9ef3 5e4c e0bf c9a8 155b 021f dabf
00000350: 57a8 fddb bb3b e0bf e6a5 1d6b 6cb6 ecbf
00000360: 4160 423b 11c2 e2bf 2124 b438 2bd7 de3f
00000370: 5c3a d289 7901 d33f 5ce0 04c7 fed6 e6bf
00000380: 6912 500e 4aa8 cbbf bb8f 5c0d 4ef1 e5bf
00000390: 0795 e00f ae58 e6bf 7c45 d7bc 80cd acbf
000003a0: 113e c41a 0b80 d9bf 860a 8874 2a7f d73f
000003b0: 821e c89c e036 dd3f f84a 00ac 16c5 e9bf
000003c0: 27c6 eb76 1cd7 e8bf a911 ed14 db85 c5bf
000003d0: 747b 3240 8dfb d0bf 8317 6043 2d98 e0bf
000003e0: 5442 b56a 9839 e6bf 06a4 ee7e 5bf9 e6bf
000003f0: dda9 672a 5aa6 d33f 6151 93b4 bc1e dbbf
00000400: 5522 4204 a6d6 e0bf 5b32 24e4 253c e4bf
00000410: 25ff a9bb 938d f0bf 44c7 ae17 27bb c5bf
00000420: ea16 c379 ba58 e4bf 23cb e8ad bf46 e4bf
00000430: b874 6a75 d1f0 e7bf 2ba4 5217 c3a1 d6bf
00000440: 4469 66db ef88 bb3f b58c 7e85 4df7 c6bf
00000450: 6269 dbce 1e1c e9bf 085e 2017 c3b3 adbf
00000460: 8374 0c73 52e1 e1bf 8f33 d49c f5d8 e3bf
00000470: f39e 800a b5e0 e1bf 9000 4db5 f180 d5bf
00000480: b1e0 aca0 5a5b e4bf 1bd3 ab39 32c1 cabf
00000490: ce27 012b 1dfb dbbf d093 466f 7922 d3bf
000004a0: 1691 9e50 ea24 b13f 8d9e b94d f72c d4bf

linear_2.weight f8 [150, 150]
0.011243462927507827 0.0872902729044298 -0.0345239924216565 -0.15135564228179443 -0.06278273343636728 -0.23406779937706518 -0.04249555266393941 -0.03686975474821833
0.008292776997798216 0.021493373264218015 -0.04390873355190066 -0.12422594460533475 -0.028986543838693316 -0.032816104793065175 0.02543434139340559 -0.1020642416317186
0.05999563918919037 -0.17051944910568903 -0.06811413166852202 -0.04895533122674022 -0.011633832343031496 -0.12628416286387667 0.04918240011667555 -0.027178193958194683
-0.024176267842651335 0.002833025296637914 -0.015070296081264251 -0.003728861353587542 0.07423032491717657 0.009765710186047457 -0.035397993654906194 0.014698317615416954
-0.1628561528465103 -0.04915895281191786 -0.037423677775624595 -0.005071625797264068 -0.014128790590273268 -0.14759440694034215 -0.1334695047232257 -0.012882821038644939
-0.05965895897747766 -0.10046119031825619 -0.17647164505707771 0.031185119183143144 -0.023300517557230855 -0.20060825930284182 -0.29477051799949494 -0.14042647130859404
0.0549020593701795 -0.16899101444528553 -0.035384379070237885 -0.04578502626276458 -0.11357396722784362 -0.03289244737985698 -0.08507431016607535 0.008196393830260986
-0.20932549635840603 -0.031313842535000476 -0.12202337070164464 -0.061036510742369286 0.02284298427120523 -0.13770180372571356 0.04432587220864427 -0.038751139984943464
-0.04569922803591551 -0.04777423125416484 0.04127057451102379 -0.20446534163071362 0.03614147634561831 0.09515205072669689 0.005450663249186717 -0.15787066404860525
-0.06268069811572784 -0.1806262433973623 -0.021551460011880512 0.008133750092138386 -0.017140182547117654 -0.03966752072783928 -0.0350567514322031 0.005955715548151188
-0.0895952077983607 -0.12150933677881322 -0.09966961453414742 -0.13173496642400082 -0.10664793693202435 -0.0851546105702131 -0.017023606087563817 -0.09955495552156911
-0.026548635644826575 -0.24739655899337934 0.08395984935762636 -0.20354076653552514 0.024340953111087627 -0.094325440457241 -0.10596626391750337 0.06068921233654702
-0.05755411693538689 -0.031757167691713065 -0.04660432382551723 -0.08313343759391016 -0.049163839688971776 -0.04183137670895524 -0.04724168019806237 -0.07700793446291399
-0.009752191449317837 -0.03537704170665482 0.030926332048147848 -0.21712784856626893 0.018740944227545228 -0.22413764626908067 -0.11716076429041067 -0.012740423074676613
-0.03829606723420269 -0.14617521406170067 -0.12955246029278664 -0.13172353735321293 -0.09068919162630301 -0.1685084896062259 -0.06903880479829397 -0.1940080836822776
-0.10319749928557524 -0.015898232746082628 0.08551860472027716 -0.1784004853461432 -0.11273329104381731 -0.04041873628577114 -0.043501261713114726 -0.02835707204389332
-0.04518102746846454 -0.10201512744794891 -0.047186699952743716 -0.1547993203396111 -0.07648841609613732 -0.15948054433638184 -0.057282275059733635 -0.008353606286123253
0.02388258552627226 -0.07740827524282527 -0.19035089516443457 -0.05082400672657131 -0.01744725886154966 -0.0835474538135752 0.025624585787841048 0.006233774311853466
-0.15198765624855698 -0.20187547428756836 -0.11911546729085204 -0.04553506967428305 -0.018845935602496238 0.025196553923777225 -0.06985786896172624 -0.0449422161403912
0.003295266585887915 -0.108141643137185 -0.02680862153950984 -0.201359372612389 -0.05616442668498377 -0.14312211234007427 -0.11118007596621722 -0.12930591082161547
-0.04442990919481686 -0.13026115301918093 -0.1609098685463085 -0.13015757277228737 -0.11062896685369247 -0.06696779136933612 -0.03298002362154617 -0.022403746165665588
0.09824277621630205 -0.052935200932004975 0.007527183595450206 -0.33380565234685994 0.0004260677611668579 -0.7078992917803313 -0.07755767953702072 -0.23709188150527272
-0.08871574236730621 -0.1519271074045566 -0.18818527645761696 -0.018508605720423094 0.005143281519849483 -0.11512308532085096 0.05523406148946519 -0.29575334002535864
-0.2202525679590273 -0.10862440621078898 0.004727285914512037 -0.1732680985760413 -0.06686256498846807 -0.1442981454952779 -0.08647853001563685 -0.04877580513962986
-0.007559852386840964 -0.15286587729488726 -0.05959904827047309 -0.16443255990878 -0.058577876982921454 -0.0935395522943446 -0.1646864870342208 -0.10012668728742358
0.004214722463979685 -0.06340901645830943 -0.1109970651065272 -0.08770601795443636 -0.09164587924580252 0.17182740025217955 -0.08272770439122831 0.020111009737630782
0.04161316234504629 -0.041983131359170554 0.04663506089843546 -0.14698222966060281 -0.07572200912894358 0.029634219859055785 -0.015270762996468146 -0.2773167449811498
-0.011280637884059648 -0.1194698928104726 -0.06848165650582441 -0.08379520461292982 -0.0809055809865748 -0.08462641233469476 -0.21154657734249416 -0.09965170500569251
-0.13779978541604115 0.03240687741306182 -0.08027976003069313 0.07882563051829368 0.09897085436078111 -0.33167577491319483 -0.015231586918713345 -0.17079828578207085
-0.02474682469456525 -0.04858777912926501 -0.06578164044399615 -0.0753854231268056 -0.05573747755010309 -0.08481896775371116 -0.20173203044750992 -0.09922181471463058
0.0005275898604926279 -0.024508315879449797 -0.18094526585208995 -0.0018252012707035098 -0.24293521622053696 0.04685824290863628 0.05329744526209768 -0.12082830674786345
-0.08092425904410255 -0.00345551386389051 -0.11944387356500019 -0.09215439813896485 -0.01495640896379769 -0.12150912789185794 -0.02591319698919551 -0.02756916997045179
00000000: 1e1b 8a0c d006 873f 2f29 62c3 a758 b63f
00000010: 41b9 c1f4 20ad a1bf 3c2b d526 9f5f c3bf
00000020: ced8 dc7a 8712 b0bf f682 af03 eff5 cdbf
00000030: 9a89 d521 fac1 a5bf b5d4 b5ad 97e0 a2bf
00000040: 550f fdaf cdfb 803f cf8c 00dd 5b02 963f
00000050: 4777 3a9d 347b a6bf d705 6581 45cd bfbf
00000060: 71ba 3e07 a6ae 9dbf ef94 bcc1 45cd a0bf
00000070: d97e ebc1 750b 9a3f c236 e6d3 e120 babf
00000080: 8fbc 7098 bfb7 ae3f dbd4 9ed0 94d3 c5bf
00000090: cb67 e97f ed6f b1bf 4fda 2a55 ac10 a9bf
000000a0: bc13 868b 7ad3 87bf 3065 c056 142a c0bf
000000b0: d56e 1480 6f2e a93f 29f2 dbb8 99d4 9bbf
000000c0: 77e3 e4de a9c1 98bf 66fb eddf 4835 673f
000000d0: 5d04 7be6 2cdd 8ebf 324a 1432 fd8b 6ebf
000000e0: b406 e431 c200 b33f cb65 f86e 0b00 843f
000000f0: 5705 2f92 af1f a2bf 7f2a b7cb 261a 8e3f
00000100: 43cd 366d 78d8 c4bf a2fd 43bd 5c2b a9bf
00000110: 0ee2 4840 3229 a3bf 0d21 fd2e fcc5 74bf
00000120: 3b57 232c 8eef 8cbf f2cd 709f 5fe4 c2bf
00000130: 5f58 e65a 8715 c1bf 1161 54f8 4e62 8abf
00000140: 037f 717b 9e8b aebf f123 ef16 d3b7 b9bf
00000150: 0d82 1874 9f96 c6bf fec8 0dec fdee 9f3f
00000160: 257f 8d43 17dc 97bf 52b0 810c 88ad c9bf
00000170: f67f a829 85dd d2bf 0ead e19e 7ef9 c1bf
00000180: a8b8 f46a 1f1c ac3f 7020 2e60 7fa1 c5bf
00000190: 77b8 cabd e61d a2bf dee0 e38c 2271 a7bf
000001a0: 17aa ebfa 2e13 bdbf 7153 9063 47d7 a0bf
000001b0: 2f9f e413 6ec7 b5bf 9ba0 915b 45c9 803f
000001c0: 6c06 8a88 2dcb cabf d128 3333 5e08 a0bf
000001d0: 2be1 8272 ec3c bfbf 3338 0073 2d40 afbf
000001e0: 7e2d 8db9 2664 973f 4613 cd73 36a0 c1bf
000001f0: 526f 0177 e1b1 a63f aa0a d67d 30d7 a3bf
00000200: 8dc0 bba3 e365 a7bf 1607 a831 dd75 a8bf
00000210: a1bb 9faf 6a21 a53f b814 bc99 eb2b cabf
00000220: 47ff ddb5 2281 a23f 2abc 0482 e25b b83f
00000230: 5b27 5946 6f53 763f 7b14 8b1d 1b35 c4bf
00000240: 275c 7f9c d70b b0bf eb72 18c0 c21e c7bf
00000250: ce72 baff 9511 96bf 96d7 1d75 6da8 803f
00000260: 5609 f32d 328d 91bf 0d9c 7a20 4d4f a4bf
00000270: 3f85 cf61 f5f2 a1bf 5cb2 0e38 0565 783f
00000280: f64d 5f27 b6ef b6bf b5a7 9f63 3c1b bfbf
00000290: 353f d4a6 f283 b9bf 57ef 43fe b0dc c0bf
000002a0: 1015 4f79 474d bbbf b7af 804b b1cc b5bf
000002b0: a1d1 9fdd a26e 91bf 0fb0 1efe 6e7c b9bf
000002c0: 024d 64c7 902f 9bbf f17e 02c1 b0aa cfbf
000002d0: 1108 2b87 647e b53f 0120 d6b3 9f0d cabf
000002e0: 3d2a 43b6 d5ec 983f 48d4 f149 b625 b8bf
000002f0: 7d46 01e6 9a20 bbbf 4233 690c a812 af3f
00000300: cbac f9b3 bb77 adbf aa8a 4cb9 7942 a0bf
00000310: aa96 5d9d 85dc a7bf a37e aba3 3b48 b5bf
00000320: 8347 38b7 002c a9bf b5bf d215 ec6a a5bf
00000330: bbe3 eabe 0f30 a8bf 70fc 0cc0 cab6 b3bf
00000340: c694 b6fa f4f8 83bf 2591 518a f01c a2bf
00000350: b899 ed02 27ab 9f3f b24c 5268 d8ca cbbf
00000360: fcbf 367a d330 933f 5e99 43da 8ab0 ccbf
00000370: 006e 0073 3ffe bdbf 0824 8ba3 a617 8abf
00000380: d631 acc8 8a9b a3bf 2dbe f091 deb5 c2bf
00000390: 2774 09ce 2c95 c0bf 6bd2 851e 51dc c0bf
000003a0: dcb9 2228 6837 b7bf 2082 faa9 af91 c5bf
000003b0: 527b c3f0 86ac b1bf 0b9a 49c3 41d5 c8bf
000003c0: 3be5 75bc 266b babf c9a0 d556 a047 90bf
000003d0: cf1f 791a 8ce4 b53f b17b 13bd d3d5 c6bf
000003e0: 1522 34c6 16dc bcbf 286f fcbc c3b1 a4bf
000003f0: 3dfe c820 cc45 a6bf 11c5 27e4 a209 9dbf
00000400: 21e3 c0b6 f721 a7bf 0612 16d4 a91d babf
00000410: 80d6 34ea da28 a8bf b59c 26d1 76d0 c3bf
00000420: 38df a7ad be94 b3bf e9f2 22c5 db69 c4bf
00000430: d547 0b34 1a54 adbf 42a4 6b0e b21b 81bf
00000440: f0f6 1d2f ad74 983f 4b92 9b5a 07d1 b3bf
00000450: df6e bf0a 6b5d c8bf c40f 7cad 9a05 aabf
00000460: e95d dcb8 b1dd 91bf b01a cbad 5d63 b5bf
00000470: 10b3 bad7 543d 9a3f 0a07 cd0c 9688 793f
00000480: e2da 7dde 5474 c3bf f8fc f637 0ed7 c9bf
00000490: 7c43 76ec 597e bebf d7ed 2466 5f50 a7bf
000004a0: 9b0c 4d54 594c 93bf ee4f 4c1c 20cd 993f
000004b0: f411 8f8e 34e2 b1bf c3c3 1089 aa02 a7bf
000004c0: 85c6 f9c6 acfe 6a3f 3823 9cb4 2baf bbbf
000004d0: 4b59 0d23 b873 9bbf 4080 0ed8 24c6 c9bf
000004e0: 4e06 9f6f 95c1 acbf 26e3 ea4b d351 c2bf
000004f0: f5df 3d26 4c76 bcbf 3044 1499 188d c0bf
00000500: 4677 e95d 84bf a6bf 930c 14c0 65ac c0bf
00000510: 7449 81cf b198 c4bf 8d1d 31db 00a9 c0bf
00000520: 067b a012 2e52 bcbf f40f d119 cd24 b1bf
00000530: 306f c0f5 c1e2 a0bf ae90 5bf4 01f1 96bf
00000540: cfd1 ea46 7026 b93f fecb 9e99 521a abbf
00000550: dca2 f9f5 d2d4 7e3f 6f2e 0362 125d d5bf
00000560: 499a 9f19 3bec 3b3f d4db 616a 1ca7 e6bf
00000570: 6e47 2af1 d1da b3bf 202b 9bda 0659 cebf
00000580: 13a2 1b2c 13b6 b6bf 73d7 d6f2 5872 c3bf
00000590: 0cb2 fc83 7416 c8bf 381b 0e81 ebf3 92bf
000005a0: b1ff bf1e 1f11 753f 63b9 77de b478 bdbf
000005b0: 50ec 718f a347 ac3f 23de c56a 9fed d2bf
000005c0: b23c 1f74 3c31 ccbf aa06 3920 cfce bbbf
000005d0: 343e 6d26 eb5c 733f 707f 6928 a62d c6bf
000005e0: c6bf f3b1 e71d b1bf 1949 e393 5c78 c2bf
000005f0: 262b 39fa 7423 b6bf 9f51 d26f 24f9 a8bf
00000600: eca0 396c 14f7 7ebf 32f4 d3eb 1b91 c3bf
00000610: 5a89 6336 c483 aebf b356 9a49 200c c5bf
00000620: fa4e d263 ebfd adbf d697 fc45 35f2 b7bf
00000630: 87da f361 7214 c5bf b036 5b0f e7a1 b9bf
00000640: f8e8 4ff2 7443 713f 40c0 f5c3 923b b0bf
00000650: e9a2 95bc 4d6a bcbf 5ad5 c6ce e673 b6bf
00000660: db83 2cb6 1a76 b7bf 67e5 51b4 70fe c53f
00000670: 065f d590 a42d b5bf 9a5d 7304 fb97 943f
00000680: 4ed1 b506 524e a53f e3b5 5720 d07e a5bf
00000690: 4abe cffa 8ce0 a73f 3c23 be4e 50d0 c2bf
000006a0: 7ad5 cb80 8462 b3bf bf68 8cd4 6e58 9e3f
000006b0: 8d06 3d1d 4746 8fbf 04f1 94bb 8ebf d1bf
000006c0: 4408 5296 4d1a 87bf 5844 7a32 9495 bebf
000006d0: 1284 118b 0388 b1bf 13c9 5f3f 9a73 b5bf
000006e0: 3cb6 6668 3ab6 b4bf 94f6 5a99 13aa b5bf
000006f0: c424 a24f f513 cbbf 7676 fd2d c682 b9bf
00000700: cafc e061 6ca3 c1bf 5225 4f5d a297 a03f
00000710: 67d0 dcdf 368d b4bf 7da3 29a1 ea2d b43f
00000720: 979a bc66 2756 b93f 132b 8807 2d3a d5bf
00000730: 5fd9 74fd bc31 8fbf 2ecc d2dd b7dc c5bf
00000740: c3d5 f84a 3b57 99bf bce0 b054 7fe0 a8bf
00000750: 905a 62ca 10d7 b0bf 8ebc ec86 754c b3bf
00000760: f57b 7a66 9f89 acbf bb29 9524 b2b6 b5bf
00000770: 1af3 a9ec 5ad2 c9bf abc5 3fd1 9966 b9bf
00000780: 6878 2799 be49 413f 21a6 ba3c b518 99bf
00000790: 3db2 99e7 3629 c7bf eee1 0af1 72e7 5dbf
000007a0: e960 5b4c 8018 cfbf 5165 aeb9 cdfd a73f
000007b0: d1dc b880 cd49 ab3f ddc2 e999 9aee bebf
000007c0: dc25 0cc6 73b7 b4bf c43d 29e1 bc4e 6cbf
000007d0: f852 abaa df93 bebf a77d 303e 6e97 b7bf
000007e0: 03c0 eb3a 77a1 8ebf d604 76e2 381b bfbf
000007f0: cae1 6936 fd88 9abf 2394 9aad 173b 9cbf

linear_2.bias f8 [150]
-0.010548814637681118 -0.18820095774632692 -0.1902329400293546 0.2827838081781245 -0.35473221947644334 0.04654912428977054 0.29622920387987617 -0.2683922622025607
-0.2463643359671564 -0.12558658920242147 -0.11164355511821458 -0.07818234353167841 -0.11689427618785946 -0.19264242454446798 0.055911964065889774 -0.3241351470008821
-0.21300789364319223 -0.12908942531555853 -0.11545158566009865 0.20759206854620363 -0.35313547414013885 0.44365893237017784 -0.40552963031074035 0.5659512597507026
0.5001571679796937 -0.06712613673182499 -0.07759762900389178 -0.09410100727598651 -0.06356350744383156 -0.4719395600347801 -0.4135301664523674 -0.12709901230395376
-0.16602265442337075 -0.04273024325773938 -0.14060627923419708 -0.5868659386535264 -0.2851775760509103 -0.1630412721966875 -0.16603099216157058 -0.07914680930536319
-0.10367068917407742 -0.058299701663866485 -0.25762740199348994 -0.12769089101127548 -0.21093466115313284 -0.06666875535674915 0.3435419951377332 0.13639157743543504
-0.18855065027997306 -0.28667632731078696 -0.1648035393496263 0.08682095623557345 0.24621402330048306 0.7472791686195781 -0.054194246343401364 -0.06416672748203552
-0.32812112040983366 -0.1845985026775033 -0.5739942046645492 -0.5963683074205025 -0.18054830221769783 -0.04866168863142628 0.05944337751532366 -0.173769402029874
-0.08582950512245426 0.00557199012411103 -0.16491752100861895 -0.18424143459573578 -0.3787768956335979 -0.1719183775781434 -0.14601170187384654 -0.2569466315602544
-0.07679987768778673 0.33501119253255224 -0.02964075963304655 0.3552775727272619 -0.26743011419578555 0.49494647261647834 0.11496302789237771 0.4917593446500398
-0.041924689768920734 -0.24499641243137008 -0.12258078059927636 -0.12061010730113729 -0.04129411448815829 -0.17022259504557463 -0.1871665763402559 0.07795335095915669
-0.16871304129380324 -0.04930394191823212 0.15586488779189625 -0.19355531409733373 -0.24295878755598843 0.446327059783443 -0.08315780069087318 -0.0739133804329319
-0.17807425213292485 -0.725737912235606 0.6132304532390729 -0.22254466740194942 0.27153563396461533 -0.1159807441906667 -0.44306072178904604 -0.015796151502787594
-0.045455633120793176 0.17929039597926136 -0.13384221319529743 -0.13169693519082243 -0.01847182172861384 -0.2995434331564608 -0.1026323641494425 0.05215762239402951
-0.13775419912850312 -0.37327518436549734 -0.05572282464923204 -0.2483894245905287 -0.11252369555276788 -0.21914869346059976 -0.06720740301114574 -0.5529814358534356
-0.25375014875478247 0.24286193995394817 -0.11576999348559455 0.16150268041116567 -0.14868747322249576 0.5519601214184924 -0.22418036640923758 0.14573369873964095
-0.09281416507523066 -0.22425175174833495 -0.16060578241695825 -0.16995650387240657 -0.2084216850369678 -0.11900848741958996 -0.16807192390951872 -0.3752898886201042
-0.11701263234324906 -0.07081503338875722 -0.06145620272241954 -0.006153205983148885 -0.016668274941904874 0.3711067424524897 -0.5039473270990549 -0.1749555692380688
0.8209927117422812 -0.11157441602636198 -0.08934290137312174 -0.4001004990218042 -0.0010990830869675291 -0.19688703753837294
00000000: 8f12 0bef 9d9a 85bf 4355 4c0f f816 c8bf
00000010: 1a25 0690 8d59 c8bf 0da8 fd41 2119 d23f
00000020: cd48 5fc4 eeb3 d6bf 30c9 f66c 49d5 a73f
00000030: 1430 b255 6bf5 d23f 8334 2abd 562d d1bf
00000040: ca99 f0d6 dd88 cfbf 2765 b8aa 3813 c0bf
00000050: 4aba 0a0a ac94 bcbf b0db 9710 c203 b4bf
00000060: bb02 5185 c8ec bdbf 37cd 9ec8 81a8 c8bf
00000070: b87a 3c32 7ea0 ac3f 9696 f657 a1be d4bf
00000080: b661 7eb8 d743 cbbf 67b0 fe95 0086 c0bf
00000090: 9374 ae30 3c8e bdbf c94f a87c 6092 ca3f
000000a0: 8351 1f88 c599 d6bf 94ec 466f e864 dc3f
000000b0: 2597 ef8c 32f4 d9bf ee4b f8d0 451c e23f
000000c0: fea5 ea9a 4901 e03f c052 f8b1 2d2f b1bf
000000d0: 90a0 d12e 70dd b3bf 9361 c5ec 0017 b8bf
000000e0: 19b8 b0b1 b245 b0bf be6e 02fc 4134 debf
000000f0: 74a1 343b 4777 dabf 6285 99ca c744 c0bf
00000100: c95d 92f7 3a40 c5bf b729 af0a bde0 a5bf
00000110: cf28 76f5 62ff c1bf 54e7 b413 9bc7 e2bf
00000120: d43c ac72 5940 d2bf 2bd3 fd51 89de c4bf
00000130: 986a bae8 8040 c5bf d69d 8c1d f742 b4bf
00000140: 1973 8e8b 298a babf 0696 0660 75d9 adbf
00000150: 1964 87a4 f77c d0bf d7fc 71d4 2c58 c0bf
00000160: 176e 9f2f e8ff cabf 6419 ec1b 3411 b1bf
00000170: 70d3 7a90 97fc d53f 5b7c 447a 4775 c13f
00000180: 3bc7 4b7e 6d22 c8bf 0a95 95aa e758 d2bf
00000190: dfc6 e249 4818 c5bf eca4 a3ef e539 b63f
000001a0: 3132 f2ec f083 cf3f 4480 c600 b6e9 e73f
000001b0: e840 5a27 59bf abbf f5d4 060c 3b6d b0bf
000001c0: 1260 52ba efff d4bf 1bfa f179 eca0 c7bf
000001d0: b016 2418 295e e2bf e9bd 17fd 7215 e3bf
000001e0: 7dc9 afee 341c c7bf d0ef 7a52 2fea a8bf
000001f0: ebc0 c8c4 5c6f ae3f b4c3 6165 133e c6bf
00000200: f165 8825 ecf8 b5bf 8502 b5b5 a7d2 763f
00000210: 127c a26f 041c c5bf 4a12 142c 3995 c7bf
00000220: 6382 ce72 e13d d8bf d7c6 a3e0 6b01 c6bf
00000230: 1ad4 30ee 82b0 c2bf 0798 d748 d071 d0bf
00000240: 007f 0123 28a9 b3bf 4f29 eec8 d270 d53f
00000250: b897 02b5 255a 9ebf 1c6a f724 debc d63f
00000260: b4ee 9b32 931d d1bf 2522 4af8 33ad df3f
00000270: 8301 0c8d 376e bd3f 5a8e b12f fc78 df3f
00000280: e2a8 e726 2777 a5bf 15d9 83dd 0a5c cfbf
00000290: 59c3 ca3b 7461 bfbf 57e9 6cd2 4de0 bebf
000002a0: 09e3 7c8e 8024 a5bf 4668 619f dac9 c5bf
000002b0: 6091 240a 13f5 c7bf 39b2 fb34 c0f4 b33f
000002c0: 9bfe 6191 6398 c5bf d893 34c4 5d3e a9bf
000002d0: 8198 d471 61f3 c33f 5ced 01a8 6bc6 c8bf
000002e0: 8815 6a07 4619 cfbf 0cbe 455f 9f90 dc3f
000002f0: e7e4 5f62 d449 b5bf 5d3d b2bf fceb b2bf
00000300: 41d5 9518 23cb c6bf aa9d d0b6 3e39 e7bf
00000310: a256 b278 959f e33f 33fe 31fa 577c ccbf
00000320: d4e7 e4fe d660 d13f 76c0 43ff e9b0 bdbf
00000330: 8b78 8e5b 1b5b dcbf 87b4 6dc8 dd2c 90bf
00000340: c476 58f3 f545 a7bf 71e1 9bd9 fcf2 c63f
00000350: 80c0 3fdc bd21 c1bf c262 d0f6 71db c0bf
00000360: e143 e3f8 46ea 92bf 30de 4838 b82b d3bf
00000370: e573 8857 1d46 babf 4bc5 d664 67b4 aa3f
00000380: 3e61 12fa eda1 c1bf 0c86 5099 bde3 d7bf
00000390: 1db5 04bb b387 acbf 28f0 a483 39cb cfbf
000003a0: 4998 6c58 5ace bcbf 81ec af7b 100d ccbf
000003b0: eb61 fb1d 8134 b1bf dd23 c91f 06b2 e1bf
000003c0: 7971 9043 713d d0bf 26cd c59c 1916 cf3f
000003d0: 86f6 e02f 1aa3 bdbf b088 4aad 1eac c43f
000003e0: 2462 68ed 3008 c3bf 2009 c645 a8a9 e13f
000003f0: 3d05 1137 f1b1 ccbf 1985 01df 66a7 c23f
00000400: 8889 9a4b abc2 b7bf 3237 ea09 48b4 ccbf
00000410: 01c1 83f3 ba8e c4bf 14ef ef7c 22c1 c5bf
00000420: 1968 81d0 8fad cabf 7bdf 6919 5777 bebf
00000430: 7799 487c 6183 c5bf 2124 89e1 bf04 d8bf
00000440: 9514 2235 8af4 bdbf c448 781c ef20 b2bf
00000450: ca84 a8f9 2f77 afbf 3a2b 69a7 1a34 79bf
00000460: f15d 06ff 7c11 91bf 7d25 8a7e 36c0 d73f
00000470: 7a81 1925 5620 e0bf 7db6 10b0 f164 c6bf
00000480: 9dff e581 9245 ea3f 484d e713 2490 bcbf
00000490: e1fd 8627 2ddf b6bf 0c5d 9a1f 3f9b d9bf
000004a0: b7d0 807a e301 52bf cae7 9d2d 9833 c9bf

linear_mu.weight f8 [1, 150]
-0.030179601981374128 0.020857978304424544 -0.010355387140435775 0.022531386744898456 0.24304319605940772 0.059807923631182744 0.039647932731735225 0.029439458001281924
0.04119298069492443 0.13529250211509394 0.09988774030994683 0.025084460223768576 -0.03234967027545543 -0.05226065045209555 0.06504306767840705 -0.0014310776520041436
0.04782006210408523 0.02171766808157872 -0.018694877710400053 0.08625017053078826 0.011797480987987616 0.09768215499587066 0.021593242339605766 0.24389171542008672
0.04479602304959938 -0.017133626462211997 0.0026850979716879757 0.010359513021045987 -0.032658491142580647 -0.16947709192767957 0.024525898304760978 -0.00649345283923673
-0.08162721695837498 -0.25718277368249687 0.1567171950582819 0.059514140612576164 0.13216609908240926 -0.06314383780620818 0.004002666294701396 -0.044275026531848234
-0.022348238574005308 0.020288661314300366 0.15539821863456393 0.03124485179409153 0.04025554035954571 0.006269006898201005 0.061874121855519076 0.05942359006405865
-0.010302920144278842 -0.12114607831431123 0.0172079048206021 -0.11665329594955165 0.09635218284711669 -0.2034778469548247 0.004140893211552821 0.0160999051009954
0.06002039832275915 0.010670610498473926 -0.14063681049258406 0.005380031925107867 -0.008106008172153227 0.05507196255458433 0.1746275124112814 -0.030188820697752833
0.006250883443457698 -0.006002337713047598 -0.0057988802017627395 -0.13489073726968734 -0.206318560254879 0.027265618908000073 -0.011833140841254782 -0.047782363657504705
-0.044613886060564496 0.1433120645450779 -0.029200478623098994 -0.017088838180668586 -0.05971004380805469 0.038929987922688966 0.0783344333964604 -0.30990894601692204
0.2745936709613712 -0.041012807156332626 0.007010917424205347 -0.04664148108116356 0.023365180656158377 0.06789275430509271 0.1630247499134341 -0.08235692704566881
0.0020090226948177177 0.03800364709238945 0.0014611449577884138 0.019391109914159998 0.014398794466937226 0.03965649816159281 -0.08889019116891339 -0.004920165933958897
0.023926841450914917 0.1489785100590752 -0.19088864809294703 0.06021890426150009 0.11645742512971614 0.019070819492942273 -0.08041508946257457 0.11984854162161711
-0.045181718736882176 0.08140853534067327 -0.11270662239147552 -0.06619238088823888 0.021174438689755007 -0.01695818582682659 0.008325379220677859 -0.07939103627957751
-0.014916173441275937 0.3624498488792814 -0.37795247412924854 0.09420258224152626 -0.07621856143607113 0.0639248052990807 0.11733910106876475 0.04852449826764155
-0.13464518854525256 -0.004112646032765312 -0.10272281771865079 -0.06529268269188476 -0.0013123899781405952 -0.03492996384877 -0.10865806963416845 -0.09458829500213299
-0.021129033047271786 0.0762056490078675 0.002817202873347726 -0.05569083359101604 -0.03757652269318316 -0.04121710238870998 -0.0567415234887593 0.023394062364090987
0.048645440159946554 -0.018161759168315895 0.10460072284074855 -0.161239489560477 0.006142414034494558 0.02689267866053773 0.3784484248724866 0.025271339512106226
0.05918376699404728 -0.0918085501114295 0.03514658336010391 -0.09848551362708795 0.025865109158282884 0.06606083459821524
00000000: 9ab0 10ce 66e7 9ebf 1175 b63a cb5b 953f
00000010: e43f d888 3435 85bf 4ebc cfc4 7712 973f
00000020: 9894 4b19 0a1c cf3f b63f 13e8 249f ae3f
00000030: a8a5 dfdc bb4c a43f a954 4f95 6025 9e3f
00000040: b6a4 d111 3f17 a53f 393a fdc3 4351 c13f
00000050: 570e e731 3e92 b93f 8c12 32a1 bdaf 993f
00000060: 702a bdcf 2290 a0bf a86e 1e71 e8c1 aabf
00000070: 3fa1 8298 a9a6 b03f 6c40 a8ed 5f72 57bf
00000080: 07d3 a805 df7b a83f 8280 9f08 283d 963f
00000090: abbd 7901 c024 93bf bc43 b4bd 7d14 b63f
000000a0: c511 2618 4729 883f 622d 1c9d b201 b93f
000000b0: 5620 a7f6 891c 963f 6d4f bffe d737 cf3f
000000c0: fd4f fa1b 81ef a63f ceb0 4435 7a8b 91bf
000000d0: 7cd6 32ff 0eff 653f 41e5 054d 5e37 853f
000000e0: 1bc6 c91e 9db8 a0bf a812 a0e3 6cb1 c5bf
000000f0: 0ef2 7e2c 511d 993f 6d7e 52f9 e098 7abf
00000100: 43ba 4c73 85e5 b4bf aee5 83bc ae75 d0bf
00000110: 9e82 bf1d 4f0f c43f 2a3f 292f a378 ae3f
00000120: b373 9998 d1ea c03f e353 52ce 312a b0bf
00000130: a719 528d 1965 703f 51b7 f75d 37ab a6bf
00000140: 50b9 31e7 74e2 96bf 5554 4c03 8dc6 943f
00000150: a830 72bd 16e4 c33f 3ff7 7e82 a6fe 9f3f
00000160: 0174 a7ca 5f9c a43f 1de1 b2b9 87ad 793f
00000170: 0c25 ad03 f7ad af3f f540 dfcf c46c ae3f
00000180: 1675 9588 b219 85bf 100c 66ec 6d03 bfbf
00000190: a5a8 bff1 f29e 913f 50ed 128b fddc bdbf
000001a0: 0a01 3a62 89aa b83f dbd3 10e5 8f0b cabf
000001b0: 4db2 b78e 0af6 703f cf89 8257 7e7c 903f
000001c0: db3d c75f feba ae3f 7053 f418 79da 853f
000001d0: 85f6 d612 6300 c2bf 2965 b752 5f09 763f
000001e0: bc09 0100 e299 80bf 7d6b 326c 6432 ac3f
000001f0: 9de6 64bf 315a c63f 9818 6876 d1e9 9ebf
00000200: 7e44 5fbf 869a 793f 0a59 d542 e895 78bf
00000210: d2b0 1e0d 91c0 77bf 3ba6 8d84 1944 c1bf
00000220: 121f 6d86 a568 cabf c56b 0fb6 84eb 9b3f
00000230: d190 6047 f93b 88bf 7718 7812 ee76 a8bf
00000240: 81ba 279b a1d7 a6bf eaf2 2bbb 0c58 c23f
00000250: 31e3 daf2 bae6 9dbf 704f 7384 bc7f 91bf
00000260: e3f0 cb9a 5092 aebf fe59 eca1 a1ee a33f
00000270: 20a7 96b5 b90d b43f 455a f854 8cd5 d3bf
00000280: 60ee 1d55 f192 d13f b43e e872 a1ff a4bf
00000290: 85a8 d4d0 7ab7 7c3f 08de c267 64e1 a7bf
000002a0: cc21 22bb 0aed 973f 4330 6067 6b61 b13f
000002b0: 318c a8b8 fedd c43f d39c 42f4 5715 b5bf
000002c0: e35f add8 3975 603f 9ff4 c7ca 3675 a33f
000002d0: b818 bd73 7cf0 573f d367 a85b 43db 933f
000002e0: 6dd5 b27a 1d7d 8d3f 0419 5b45 db4d a43f
000002f0: a873 01f0 81c1 b6bf 4c9a 6ffc 2a27 74bf
00000300: 57ef 1c26 4780 983f 3659 4152 ba11 c33f
00000310: 7051 5e0a 0a6f c8bf ece5 ce20 03d5 ae3f
00000320: d1f9 4e60 27d0 bd3f 34d4 1e08 4d87 933f
00000330: 7fbf 5853 1596 b4bf c3f6 bcde 64ae be3f
00000340: a436 b4e8 0e22 a7bf a048 e794 30d7 b43f
00000350: 46c9 3659 57da bcbf e9cb 28df fbf1 b0bf
00000360: 0410 bc86 c0ae 953f f753 1a96 7c5d 91bf
00000370: 703d d67b e50c 813f ed94 6a90 f852 b4bf
00000380: 00da e4e8 5e8c 8ebf 211b d8d9 6032 d73f
00000390: 43f4 f492 5f30 d8bf 4315 ed11 a91d b83f
000003a0: d351 b744 0f83 b3bf f6a7 2944 605d b03f
000003b0: dee3 a171 ef09 be3f 5889 3afa 33d8 a83f
000003c0: 6dcc aeb4 0d3c c1bf 9c3c 5f03 6cd8 70bf
000003d0: 3192 a7e6 0a4c babf 846a d470 05b7 b0bf
000003e0: 081b 4902 9080 55bf 2f09 c318 57e2 a1bf
000003f0: 6776 86e7 03d1 bbbf 0b5a 9e41 f036 b8bf
00000400: 078e bc67 d9a2 95bf ee5d 42a2 3682 b33f
00000410: d297 a146 1a14 673f 84b8 eb49 8283 acbf
00000420: 5516 21e0 3a3d a3bf bb3d 9775 681a a5bf
00000430: 543b 6b97 390d adbf 94f0 18f3 9cf4 973f
00000440: 2249 2c1d 0ee8 a83f 0ab9 a906 ff98 92bf
00000450: 7b2d bdeb 1cc7 ba3f aa34 3edf 7ea3 c4bf
00000460: ffa8 58b6 c928 793f 0d38 651d c189 9b3f
00000470: e733 03be 7f38 d83f b924 ece2 bae0 993f
00000480: b314 63af 554d ae3f b6c5 38e0 c380 b7bf
00000490: c110 32a4 bbfe a13f 9379 28bc 5836 b9bf
000004a0: 00e9 c417 627c 9a3f 2253 25e4 5ce9 b03f

linear_mu.bias f8 [1]
-0.03584645411257641
00000000: 17a2 2e68 775a a2bf
