model_chkpt/ensemble_networks.pt (torch, 990225 bytes, 40 tensors)

linear_1.weight f8 [150, 8]
000000 17 61 a4 46 8d af ab bf 62 9a ce 72 58 92 b2 bf
       -0.054073729394248975 -0.072545555142463
000010 b0 c5 a2 bb fa d9 e0 3f a1 a9 f8 43 22 48 df 3f
       0.5266088166010174 0.48877770078493127
000020 e8 29 70 21 df 44 c1 3f 7d b0 94 5c ab 9a dd 3f
       0.13491429455491688 0.46256526986213214
000030 8d 13 b0 74 ed 71 d5 bf da 1f 31 ef ca 12 e1 3f
       -0.33507858653347783 0.5335440322605749
000040 79 a9 ce 34 4c 3a af bf 1d 1d dc 38 34 1c 6d bf
       -0.0609916510068897 -0.003553487774187082
000050 e4 72 56 25 76 0f 83 3f f2 b1 fe 66 98 cc 88 bf
       0.009306834234672441 -0.01210898460689067
000060 b4 3f 47 96 1f 0a 92 3f 96 f0 83 41 e8 4a c7 3f
       0.017616742656002507 0.18197348784440653
000070 bc ca 86 6c 7a 72 82 bf 49 c6 cf 43 60 e1 be bf
       -0.009007412373511207 -0.12062646537358392
000080 e8 be 4c 69 73 5d d3 bf da 45 66 74 4f dd c8 3f
       -0.30257878573591634 0.19425385650224208
000090 7f 34 18 3b 31 93 c7 3f 9e e1 73 dc ae 38 c4 3f
       0.1841794527576077 0.15797982944765193
0000a0 d6 2a 32 12 87 d0 d4 3f 73 17 1a da 7e 36 b9 3f
       0.32522751595449273 0.09848778557542719
0000b0 a6 04 26 e3 4c a9 7e bf 4e 77 c0 e8 92 7a f7 bf
       -0.007485676136981178 -1.467425259768294
0000c0 68 dc 50 e0 19 80 d3 bf 38 f7 1f 97 38 df dc bf
       -0.3046936693749047 -0.451124332030179
0000d0 8d eb 5a 50 41 5a b1 bf 55 d4 10 85 b9 36 e1 3f
       -0.06778343402667826 0.5379302596035226
0000e0 8d 28 f8 33 79 a0 d9 3f c2 79 25 d7 47 8e c4 3f
       0.4004195220483176 0.16059206013865263
0000f0 0a 12 15 4c cf 4d e5 3f 73 d4 34 80 45 10 e8 bf
       0.6657482610685872 -0.7519862655668831
000100 cd 6a 9a 8b 0d 92 d4 bf be 25 d4 8f 6e 86 e6 bf
       -0.32141436226963266 -0.7039101418642344
000110 c6 e4 1e b6 91 cf df bf 49 c4 3a eb 19 fd c4 bf
       -0.49704401765081874 -0.16397403703516236
000120 a8 f1 a1 ee fc 87 cc bf 75 3b b7 7d 16 9f e6 bf
       -0.22290002490980254 -0.7069199042688142
000130 b6 c7 ae de 23 cc cf 3f d9 ce 46 ff 72 46 e0 3f
       0.24841736195736325 0.5085997568007442
000140 ba 07 a3 7c 5e bd d4 bf d4 64 6b a6 a3 9a b3 bf
       -0.32405817195478515 -0.07657835782028438
000150 48 b8 78 c1 e9 e6 ab bf ce 2e 35 21 bd 02 a4 3f
       -0.05449610220635798 0.039083395293884146
000160 4a c2 4f f5 f9 79 d0 3f 4c ee 0b ea b6 74 bb bf
       0.2574448485966384 -0.10724967206982078
000170 00 89 53 e3 3f 6a bf bf fb 29 10 b0 62 7a a4 3f
       -0.12271498966177674 0.039996227256853666
000180 d0 46 c8 77 82 24 de bf 48 32 5c be 39 fa e3 bf
       -0.47097837159627165 -0.6242951124164131
000190 29 5a cc d1 2d a2 a6 3f 52 d0 71 2b 68 00 c9 3f
       0.044206077442300824 0.19532491799657464
0001a0 64 54 ba ba 79 5c cd 3f 64 a2 b8 63 76 4a cc bf
       0.22938462846346674 -0.22102241391373234
0001b0 c8 52 7f 6d 1c 16 90 3f 5c 72 9d 4d 51 34 cc 3f
       0.0157093469459422 0.22034660615726664
0001c0 3f f8 54 34 3b 6d e0 3f b0 52 aa 8d ab 5c cf 3f
       0.5133338949306178 0.24501556794407042
0001d0 bb 51 1a f4 f2 f2 d0 bf ea fa a8 0e 6a 5f d9 3f
       -0.2648284324470997 0.39644862586639695
0001e0 c2 91 6b a6 70 6b dd bf 04 ab ea e4 22 6e e3 bf
       -0.45968261959049184 -0.6071943732289076
0001f0 b7 db e8 60 77 d0 d1 bf 27 d3 31 d3 05 21 86 bf
       -0.27834877456501367 -0.010805173404358449
000200 0d 34 24 02 0f 38 bb bf 32 30 04 33 7d 7d c1 bf
       -0.10632413675575965 -0.1366421221831629
000210 b9 9b e5 a5 e7 ed b5 3f 47 92 e4 98 03 b9 a3 3f
       0.08566139030663934 0.03852092019431957
000220 bc 23 42 4f 97 72 d3 3f 44 75 71 72 e9 28 b1 bf
       0.30386908283304215 -0.06703051609061556
000230 86 97 dc fd e9 7c e0 bf d6 97 31 95 59 7c f7 bf
       -0.5152482946621013 -1.4678588703040893
000240 bd 94 c8 e7 4b 68 9f 3f ff fa 30 3b 9c 82 cf 3f
       0.03067129709429105 0.2461734093685308
000250 81 0f 3d 37 1d 11 d1 3f 77 a7 fd 1a 00 5e cd bf
       0.2666695632399226 -0.2294311649123377
000260 ed 1e 54 ad 55 53 a5 bf 2c 99 7d 38 00 f6 c2 3f
       -0.04165141812160109 0.14813235052424412
000270 f1 13 0a 1a a2 da b5 3f be fa b2 73 a0 36 f6 bf
       0.08536732803084114 -1.3883366126535033
000280 8d 5c ed 73 e1 9d d9 3f a9 1b 10 77 6b b8 d6 3f
       0.40026127167716014 0.355006090423951
000290 7f 56 8d c4 dc bd d5 3f b2 01 23 b7 9c 9e c7 bf
       0.33971327967206116 -0.18452795927261217
0002a0 b1 8e 6c 04 d1 4f 97 bf 6a 47 d1 68 03 d2 75 3f
       -0.022765413184187625 0.005327237432611523
0002b0 c4 27 65 44 0a e3 eb bf d7 36 b8 57 01 68 9b 3f
       -0.8714648567049541 0.026763936022738157
0002c0 98 b5 fe bd ad 30 d0 bf d7 c0 ed dd e7 b4 d8 bf
       -0.2529711108607784 -0.38604160950400285
0002d0 c4 f0 87 0f 1e 37 cb 3f 31 f0 c2 12 8a c0 df 3f
       0.21261955030775515 0.4961266692369036
0002e0 df 6d 3c a5 83 dc af 3f ae 4f c4 1e 81 5a c0 bf
       0.0622292651371159 -0.12776197435652875
0002f0 ae 45 60 ca e4 43 d2 bf 52 1e 42 9b ae 6d e8 bf
       -0.2853939033821814 -0.7633889229191004
000300 0f 5c 2c 89 c2 8c de bf c2 6c 98 8b d4 0a ac bf
       -0.4773413028319177 -0.054770128288703215
000310 08 9e db ce 50 7f b8 bf 7c 32 df a8 c0 66 ed bf
       -0.0956926827453729 -0.9187930391577335
000320 2a 38 9f ad a9 19 e8 bf 34 2e 9d ab 87 1d c5 bf
       -0.7531326666883207 -0.16496368293370411
000330 bb 21 f4 7f a8 ab e1 3f ce ff 45 5b ed d6 c3 3f
       0.5522043704123044 0.15499655682287855
000340 cb 93 71 c7 ad ac d7 bf ff b7 f5 26 b8 91 d9 3f
       -0.3699144790355688 0.3995190029589821
000350 4c 20 b1 f7 32 59 cc bf 5a 28 77 38 a0 63 e4 3f
       -0.2214721402581311 0.6371613600579267
000360 de b6 b5 90 2c ad cb bf 00 5f 44 fa 35 01 e8 bf
       -0.21622235361012704 -0.7501478088406373
000370 10 41 c8 4a 5f fc bf bf 98 11 2a f4 5e ca b6 3f
       -0.12494464469660138 0.08902543507617222
000380 44 53 38 57 a4 15 e1 bf e0 e4 e4 da 86 24 e2 bf
       -0.5338918403163935 -0.5669588351512651
000390 c7 d8 d7 5e 9f 91 d1 bf 3c 31 02 45 34 dd d8 bf
       -0.2745130945398952 -0.38850123156659655
0003a0 07 47 3d 10 85 02 be 3f 0a 7a a0 d9 60 a7 e8 3f
       0.11722594877690194 0.7704319239163067
0003b0 2e 97 bc 45 34 46 a3 bf 9e 88 ad b1 38 fa d5 3f
       -0.03764499045636992 0.3433973059783372
0003c0 22 1f 60 1f f7 17 d1 3f 21 b2 2e 79 60 a8 cd 3f
       0.2670877272034763 0.23170095364675183
0003d0 8b 05 c9 84 c5 b2 d3 3f d9 ad fb 3b 1f e4 c0 3f
       0.30778634993847537 0.13196173123229363
0003e0 ef d5 30 97 f7 ef be bf 69 35 b4 95 80 5a ca 3f
       -0.12084910813504 0.2058869105316419
0003f0 08 92 fa e8 e3 a7 d1 3f 7e 8f fa 8f b1 3d da bf
       0.2758722090896133 -0.410015478710413
000400 53 59 e9 fe ed 21 e6 3f 89 8f 1e 68 a7 e3 d4 3f
       0.6916418055286989 0.32639489334018684
000410 e7 7d d2 1d 16 8e d0 3f 8f 66 01 e9 52 67 ce bf
       0.2586722651703596 -0.23752819421024582
000420 9d ff f0 88 8b 3b e6 3f 2b aa 94 86 26 96 d3 3f
       0.6947686838757253 0.30603945868156995
000430 9a 1b 1c 8e 05 dc d2 bf c7 63 cf 30 31 a4 c5 3f
       -0.29467905881795675 0.16907324679666955
000440 fe 8b bc 3a 4c e3 b4 bf 14 c3 ec b8 89 89 aa bf
       -0.08159328874585012 -0.051830581497034484
000450 24 1c f3 43 6d 5e cf bf a6 ff ab 64 ca c9 f4 3f
       -0.24506917779783166 1.2992652828688533
000460 fe bd e5 13 dc f9 f5 3f 00 89 62 ec b8 f5 db 3f
       1.3735008980983134 0.4368727024504011
000470 da 19 01 6b 38 de e1 bf 14 af 8a 2b 47 66 a7 3f
       -0.558376511566901 0.045702194276002
000480 57 f8 f2 de 49 32 b4 3f ef ae 59 c3 1c ac d0 3f
       0.07889234250157649 0.26050490452938296
000490 f5 d0 69 ec fe c1 b5 3f e8 e8 cf b3 c2 db ca 3f
       0.08499139091310666 0.20983155994310398
0004a0 30 2f 4d 52 ee 92 eb 3f a8 da 5a ac 01 1f a2 3f
       0.8616859061671445 0.035392811097542165
0004b0 cc c2 9e d7 1a f9 ed bf a3 d7 34 c8 24 59 95 bf
       -0.9366583072024581 -0.02084786865199074
0004c0 52 37 f8 3e da 38 89 3f 1f fa 11 2f 65 2e b6 bf
       0.01231546883266402 -0.08664543532538758
0004d0 24 de c2 b0 dd 1e cc bf 7e ea 6a 9f 6b e9 d0 bf
       -0.21969195490758964 -0.2642468506634613
0004e0 db 73 eb 23 77 ae b1 3f ef 17 00 ac 72 32 d2 bf
       0.06906838061281866 -0.28432909771834053
0004f0 3a 41 ab b6 9c 2c d5 bf d2 60 3a 5b e8 ee ec bf
       -0.3308479102970697 -0.904163530521169
000500 48 d9 c0 d8 f9 69 d6 bf c6 f7 7b 25 5b b0 b8 3f
       -0.3502182594997021 0.09644097962515649
000510 64 ba bf 98 f2 c5 d3 bf 47 53 8d ef 05 56 c6 3f
       -0.30895676533592664 0.17450021931531465
000520 f5 a6 98 a1 cc 78 e4 3f ee 7f 17 f7 0f 2c dc 3f
       0.6397460132768332 0.44018935327585396
000530 a2 0e 3a 8c 5a d5 8d 3f 7f 25 a9 07 55 ae eb bf
       0.014567096142179384 -0.8650307798026659
000540 ce 1d 59 f1 f0 c4 bf bf 6a 91 cd 12 ff e2 e5 bf
       -0.12409883396423213 -0.6839595191236587
000550 d4 7f fe 6a 7b 75 c5 3f 69 17 1d 4c ae b5 d5 3f
       0.16764776920626778 0.3392139190003634
000560 6e 81 af a7 09 62 d8 3f 0b 97 37 3d 0c 35 de bf
       0.3809837472490675 -0.47198778131711155
000570 39 65 96 7a 91 c0 e1 3f 2a 72 7b 0e d1 30 82 bf
       0.5547568697249182 -0.008882172827207564
000580 58 3b 41 3e 75 22 b2 3f f6 f8 13 0e a2 e1 c3 3f
       0.07083828706639161 0.15532327353862002
000590 c9 44 75 18 c6 66 ce 3f 5c 6c f9 0d 31 d5 cb bf
       0.23751140779726246 -0.21744359190310802
0005a0 fb 42 13 df aa 2b dc bf d0 9a e7 7e c4 20 d0 3f
       -0.44016525063220485 0.25199997323072143
0005b0 ab e3 6d 8e da db 76 3f 90 1d 3e ed f2 72 d3 bf
       0.005580762611196481 -0.30389092605806756
0005c0 02 a3 df e0 5a 93 b6 3f aa 33 ab 01 82 67 a1 3f
       0.0881859587676779 0.03399282713289804
0005d0 86 3e d0 d7 ce 1c d9 3f c1 00 6a 38 e3 47 b1 3f
       0.39238329959423657 0.06750316741272668
0005e0 3e 3b 0d 5d 2d 37 d1 bf 0b e4 f1 33 34 fd ac bf
       -0.2689927490909446 -0.05661929258435102
0005f0 86 37 1c 27 cb db b3 3f 90 ed 6f 81 c4 a7 b1 3f
       0.07757253365363512 0.06896618042076441
000600 9c 71 1e 9d ae 3b c4 bf b4 0c ff 76 8e c2 d1 3f
       -0.15807135268995587 0.27749978657466134
000610 3e 7d a1 2a 96 1a ce 3f bc 0c b9 1a d9 67 eb 3f
       0.23518635827620388 0.856426765626018
000620 e1 ef fa 77 46 6e b9 3f 1a a6 4f 00 da f2 e0 3f
       0.09933891705708177 0.5296449667050098
000630 61 fd 6d 83 c3 74 ca 3f ff b6 73 76 c5 be f6 bf
       0.20668834607566125 -1.4215750338584596
000640 85 41 bb 9a c7 66 d8 bf fe 2a df e4 75 87 cb 3f
       -0.3812731753396508 0.21507142711046606
000650 50 d7 fc cd 8a 11 da bf d8 d2 e6 39 18 bc c8 3f
       -0.40732069126112425 0.1932401926730083
000660 a9 8a 87 45 6d 41 c7 3f 87 ca 44 96 12 0f dd 3f
       0.18168416876786367 0.45404495882682067
000670 fd 99 a6 46 02 2e d9 3f 70 44 65 d3 ac ad eb bf
       0.3934331598233312 -0.8649505738086543
000680 19 1e 08 5a 0d 8f cc 3f da 79 86 ae b7 96 d4 3f
       0.2231156053169208 0.32169906657682434
000690 92 ef 01 a6 56 f4 c5 bf 93 82 b2 4b 49 ea 97 bf
       -0.1715191183646963 -0.023354668851086457
0006a0 5b 94 d9 75 ca 34 a7 bf f2 ae 1a 88 7c 25 e3 3f
       -0.045324637304283676 0.5983259828840046
0006b0 d3 28 7a 58 ea ac e0 3f f4 11 bf 5a bc 2c bc bf
       0.5211078384466198 -0.11005761352050297
0006c0 2f f1 e9 7f 47 d8 e8 3f 3a 55 2a a4 3b 2f db 3f
       0.7764012811963193 0.4247578719308255
0006d0 f9 22 4e 3c 53 84 e5 3f ab ac 79 05 a7 c7 7a 3f
       0.6724029710613585 0.006538059642120657
0006e0 e8 9f b5 b1 ad 9a b4 bf 28 b1 0b 93 98 3f cc 3f
       -0.08048520649538171 0.2206907957073636
0006f0 82 fa d7 ba 75 4b e5 3f 49 84 bb ee 66 d3 82 3f
       0.6654614114084583 0.009192279968774157
000700 80 72 29 df c6 0f cb 3f 95 61 93 ed 37 ca c7 bf
       0.21141897102906526 -0.1858587179219852
000710 89 05 25 6e ff c4 e4 3f 8f 88 59 49 3d 83 ed 3f
       0.649047579885676 0.9222704346286877
000720 c8 11 ec 1e 11 2b d5 bf a0 9f 12 12 ec 29 c7 3f
       -0.33075359363308765 0.18096686251123817
000730 c4 27 70 f9 f6 91 d3 3f 1a 90 d6 cd e0 23 d3 bf
       0.3057839809340488 -0.2990648279321718
000740 ed 6b 11 07 38 20 ea bf ba 4e 6a 5f 13 19 e5 bf
       -0.8164329660461341 -0.6593109954432841
000750 12 b3 6b e1 3f bb e7 bf 32 3b b4 83 ad b7 f0 bf
       -0.7416076090572423 -1.044843210667477
000760 be 86 4c b5 db 44 d1 bf 8b be b7 3f c8 67 e2 bf
       -0.26982777314161044 -0.5751687283027008
000770 cb 38 5f d4 6a 2e ee bf 8a a9 16 67 ec a6 b2 bf
       -0.9431661746873713 -0.0728595496827095
000780 a1 d7 4b c0 2b 7f a0 3f 03 59 4b d6 12 f3 b9 bf
       0.0322202369915623 -0.10136525852007953
000790 83 84 21 16 f5 d1 bc bf b3 5b d3 ab fa ab 7e bf
       -0.11257869520479073 -0.007488230881071911
0007a0 1c 50 77 c2 e4 8a d0 bf 1d ad 74 61 a1 30 d8 bf
       -0.25847739210917253 -0.3779681636539907
0007b0 a2 ed 3a 5e b3 cf c4 3f 5f 96 2f 7a 47 50 e3 bf
       0.16258852101405546 -0.6035497080271844
0007c0 cc dd 92 e4 fc 07 d7 3f 46 3f bf ec 4b 7b a7 3f
       0.35986254045152744 0.04586255326250792
0007d0 c8 72 15 40 63 46 c9 3f 8d 55 19 9d 14 4c c9 bf
       0.19746056202975226 -0.19763429327819573
0007e0 a9 99 72 1e 6c 44 c2 bf 75 7d 11 ba 70 39 b4 3f
       -0.14271308409406672 0.07900147001918419
0007f0 25 b8 f4 43 8c a8 cd 3f 60 87 10 23 f7 80 f6 bf
       0.2317061740699852 -1.4064856881818386

linear_1.bias f8 [150]
000000 53 94 71 27 3f 77 d2 3f 50 88 37 77 53 1e df bf
       0.2885282406990132 -0.48622595445897776
000010 55 40 ca 89 fa b5 ea bf 2d 70 20 27 63 1b eb bf
       -0.8347141925060081 -0.8470931781953418
000020 b5 c5 fe b2 60 44 f0 bf fd dc 09 6b 21 39 c7 bf
       -1.016693782043473 -0.18143098570337904
000030 bd 41 8f 2a fc 4a de bf 8f ca be 6e 17 60 eb bf
       -0.4733267226811469 -0.8554799235337941
000040 20 e4 d8 a9 96 e8 ec bf 83 18 bb 46 a1 b4 d1 bf
       -0.9033921544388512 -0.27664977938946594
000050 ce 74 45 58 15 20 f3 bf f2 4f 57 da 09 32 c5 bf
       -1.1953328559969125 -0.1655895534628367
000060 a6 3b 97 95 fe 5a f5 bf 2b 44 2a 74 5f 67 c0 bf
       -1.3347154467953515 -0.12815468952297357
000070 a3 e5 1d 92 11 9c f2 bf aa a9 f8 64 11 c8 e9 bf
       -1.1631026942908214 -0.805672356805464
000080 ea eb 3c be 48 a8 ec bf dd ad c9 ec ad d3 d9 bf
       -0.8955424991212315 -0.40354488490876667
000090 e6 6d 69 0f d7 b8 ea bf e3 c4 d2 d7 16 91 c6 bf
       -0.83506348619579 -0.17630277193305863
0000a0 5f 20 4e 54 23 41 db bf 35 4f 02 2f 40 5d ec bf
       -0.4258507083218372 -0.8863831442017501
0000b0 72 1b e9 ab e3 ac e2 bf db ed ee 09 84 ee eb bf
       -0.5836046559933108 -0.8728656953821273
0000c0 8a 3e 45 a6 ed 2b ec bf 6c cc 96 21 b7 46 ce bf
       -0.8803623435469075 -0.2365330614098612
0000d0 87 e6 fd cf 4b 4b e8 bf a6 c0 a1 6e 4a d2 cc 3f
       -0.7591914236392804 0.2251675644106445
0000e0 a0 fe 2e 15 66 10 ee bf 7e d8 6f de 30 51 e3 bf
       -0.9395018018476158 -0.6036609978171013
0000f0 36 86 37 cf fc ee e3 bf 95 26 a2 af bf c2 e9 bf
       -0.6229232833104053 -0.8050230436649196
000100 36 dd 0e 2f 1b 08 f1 bf be 8b 8e 6e 78 61 e3 bf
       -1.0644790495114882 -0.6056482466996085
000110 d9 82 20 1a 11 2a e1 bf 85 83 33 72 33 79 d5 bf
       -0.5363851080220129 -0.3355225196119636
000120 f9 a7 67 b7 9e b8 d0 bf ff 10 62 e9 68 8d ec bf
       -0.26126830969462805 -0.8922619398367998
000130 2d 52 bd 22 2d a2 d9 bf 3d 3c 3e cd ce 9f e9 bf
       -0.4005234565022729 -0.8007577904371669
000140 84 f1 18 49 11 cf e6 bf ae a0 4b 78 2b c9 be bf
       -0.7127767970737726 -0.12025710760974803
000150 45 f5 16 37 96 2c e3 bf f8 d4 c1 a7 c4 9e c2 3f
       -0.5991927219362557 0.14547022048251512
000160 aa dc 05 aa c0 1e d5 bf c4 a2 be 7e 3a b5 e6 bf
       -0.3300019894008509 -0.7096226191980226
000170 5c 93 59 be 6c ca d9 bf 0e 62 65 6d 34 8b f3 bf
       -0.40298002804620636 -1.2214855454714129
000180 d0 82 34 8a 34 9f e4 bf e9 2b 7b 63 3b 93 e1 bf
       -0.6444342326468249 -0.5492226546278945
000190 3b ee f4 b4 8d 6d e1 bf a6 43 2b 43 e8 0f e2 bf
       -0.5446232351600381 -0.564441806020217
0001a0 08 2d 5b 99 f0 1c db bf 61 45 ab 9d 2d 03 e6 bf
       -0.4236413476580343 -0.6878879622910682
0001b0 5e 35 66 2e 12 b9 bb 3f 9d 07 c0 23 b6 3a ec bf
       0.10829270966333612 -0.8821669290775734
0001c0 03 1e c1 da 5f bf c0 bf 8c 3e 15 d4 28 65 ef bf
       -0.13084028416982116 -0.9810985700841726
0001d0 2e f8 1f bb e9 7d d7 bf f1 40 a5 fa 8e 60 d3 bf
       -0.3670601203338063 -0.30276846387006545
0001e0 61 b9 82 a5 8b 3b da bf 5d 24 77 7b fd d4 f7 bf
       -0.40988436854504157 -1.4894995520465024
0001f0 44 db 67 b2 f0 40 cd bf 29 e2 fc 44 0a 8a f3 bf
       -0.2285443183061152 -1.2212011999928427
000200 c3 e9 bc 32 96 68 d1 bf ca cd e4 96 b3 98 d6 bf
       -0.27200846629025593 -0.353070161206429
000210 74 46 cd e0 7a 60 da bf 2c 33 9a df f2 17 ce bf
       -0.41213867142969396 -0.23510585706790132
000220 67 18 c1 dd 11 ed ed bf 87 e0 76 3f fb c3 d6 bf
       -0.9351891833437208 -0.3557117576378989
000230 bf 10 34 d9 2b 80 d6 bf 49 34 03 48 b5 4c eb bf
       -0.35157295428531293 -0.8531137854093994
000240 d1 80 69 4d f6 9c ee bf 5f f6 5b 6c 3f ec fa bf
       -0.9566604148822312 -1.6826776726515147
000250 5a 7b 31 31 f1 75 ee bf a2 2a 8f fd fd 71 d1 bf
       -0.951897235947267 -0.2725825287022109
000260 6d 3f 3c d3 52 69 c8 bf a5 65 a7 a9 23 8d e3 bf
       -0.19071421922898982 -0.6109789193680412
000270 4c cb c0 31 8a d3 e5 bf d9 36 e4 7f 5b 71 c2 bf
       -0.6820727321377063 -0.1440843939275769
000280 92 3b 78 45 75 e4 e5 bf b2 34 01 35 93 c0 e9 bf
       -0.6841379505948331 -0.8047576937912224
000290 f8 30 04 94 df da df bf 06 f0 f7 ca eb 4f ef bf
       -0.4977339692566285 -0.9785059894779813
0002a0 35 15 e0 73 b6 a6 e4 bf 96 e7 63 4d 36 e6 cf 3f
       -0.6453506720724024 0.24921301630803033
0002b0 4d 85 1f 05 7c 44 d1 bf ee 64 1f 61 4f 13 7d 3f
       -0.26980495930009313 0.007098493648265631
0002c0 50 ff e9 cb 4f 6b e5 bf 10 23 b4 ce 95 54 d7 bf
       -0.6693495733925179 -0.36453767000107096
0002d0 f0 f4 50 a8 1a a3 f2 bf 8b 71 ed 31 b8 c1 eb bf
       -1.164820344434073 -0.8673974013468507
0002e0 43 af 16 f6 66 2f e6 bf 8d 0c 83 35 52 65 a0 bf
       -0.6932864004533957 -0.032023018867698295
0002f0 6d 18 a6 a1 29 85 e0 bf bd e3 2d 82 37 aa e5 bf
       -0.5162552029803585 -0.6770284216464614
000300 16 94 3c b4 ef 7e f6 bf 0b 46 a2 47 2c 3f d6 bf
       -1.4059903183454074 -0.3476057719754812
000310 78 a3 f9 2b 29 f7 b0 bf e7 ca 69 58 dc 6b f3 bf
       -0.0662713749276359 -1.2138331845896404
000320 da 02 79 ab 0f 01 f4 bf ed 75 80 8e 10 46 e8 bf
       -1.250259084525331 -0.7585528166998167
000330 97 a1 04 95 ba de f4 bf ff a7 bc 6a fc f0 e4 bf
       -1.304377157308499 -0.6544172367769078
000340 87 35 22 9b 8b b4 e2 bf 33 fd 86 d8 72 ad ef bf
       -0.5845392255738923 -0.9899229268120621
000350 0b 72 2b e7 d2 96 f7 bf 3c 90 40 2f 6b 65 e3 bf
       -1.4743222265307192 -0.6061302111525104
000360 23 eb 5f 79 0e 60 db bf f2 f3 22 a2 f5 9c e6 bf
       -0.42773782589908843 -0.7066600958565898
000370 d4 8f 93 d7 82 7b c5 3f 6b 2c d7 b8 58 04 ea bf
       0.16783175970260678 -0.8130305872122227
000380 0f 82 23 13 dc 49 df bf ca ab 26 a6 44 f7 f4 bf
       -0.48888303631795876 -1.310368203189443
000390 2b 38 94 9a 66 6b d4 bf 52 a3 91 1c 1e 30 c5 bf
       -0.3190552243767139 -0.1655309333321165
0003a0 83 f1 38 0b ce 8c e5 bf 7d 4a fa 4d 83 13 f3 bf
       -0.6734380931080043 -1.1922638937000152
0003b0 b2 7a 4f 1d 88 ee de bf 93 26 e9 cb 48 fd dc bf
       -0.4833088194117564 -0.4529592505756252
0003c0 6d ca a1 bf 0d ce d3 bf 5f f1 7f c2 c6 1b ed bf
       -0.3094515201002313 -0.90964067447889
0003d0 b0 fc 1a 7e 68 b1 e1 bf 55 99 1e 28 09 76 f3 bf
       -0.5529062712665986 -1.216317326275733
0003e0 d5 96 72 b1 9a dc e9 bf b4 90 2f b4 ab 85 e7 bf
       -0.8081792321943008 -0.7350672263387623
0003f0 50 78 ac 91 24 47 ed bf d5 7b 65 40 91 63 e5 bf
       -0.9149344296636261 -0.6684042222731202
000400 99 47 df 5b d4 ac db bf 6f 4c a0 a6 85 bc f1 bf
       -0.43242367717641056 -1.1085258969149228
000410 93 8f cd de 7d 5f fe bf 8c fc 48 eb a9 b5 c6 bf
       -1.898313398670301 -0.1774189375737233
000420 2b c8 bf 7c dc 97 f1 bf 7e 65 aa 6d d4 ab dc bf
       -1.0995755074514004 -0.44798765859157885
000430 c6 90 3b 21 f5 3c f3 bf ba 30 89 89 48 e5 d1 bf
       -1.2023822115088918 -0.2796193450092336
000440 87 73 50 94 19 ba ef bf 23 d7 4a 0b 94 93 dd 3f
       -0.9914672753107973 0.46213246443527306
000450 50 0c c6 d6 23 74 f0 bf d0 8b 6f fa 1f 5e c2 bf
       -1.0283544911951772 -0.14349746444994915
000460 33 3d 8b 2e d2 0e d0 bf 78 5e 21 c0 ca b2 e4 bf
       -0.2509046034364985 -0.6468251946016172
000470 84 1b b5 1f 11 7c cd bf 5d c9 84 36 7b fb d5 bf
       -0.23034872101035486 -0.34347420047847327
000480 97 8c 69 76 1b b1 f1 bf 85 f0 43 a5 b0 d2 e7 bf
       -1.105739080951741 -0.7444689967956185
000490 a3 fe ad 97 f8 b8 ef bf d4 85 28 dd 8e fc c0 bf
       -0.9913294756406298 -0.1327074603914712
0004a0 9e 5e 33 dd d4 69 f5 bf 18 f7 42 34 d2 b4 d6 3f
       -1.3383377686167601 0.3547864446990032

linear_2.weight f8 [150, 150]
000000 5e b1 36 1a 28 b2 ae bf 5b 27 2c fd 14 fe a4 bf
       -0.0599529773711278 -0.04100099173054047
000010 9a 58 41 d9 32 08 c1 bf c4 74 bf fe 06 6a ba bf
       -0.13306270225684075 -0.10318034858160546
000020 4e 68 c5 6a 55 ce b8 bf 9c a7 dd 39 5c 03 bc bf
       -0.09689840180127016 -0.10942627346744732
000030 63 05 4f f0 23 46 b3 bf 56 4d e4 0c 76 39 c0 bf
       -0.07528900734816583 -0.12675357465250653
000040 b6 b1 bb e2 60 94 ac bf 70 ef 54 07 f8 34 a1 bf
       -0.055819537808790384 -0.033607245345108505
000050 d9 a7 ef 05 34 a6 9f bf 67 9e 8e c1 f0 a6 b1 bf
       -0.030907452452005522 -0.06895355916514632
000060 a9 40 4d 13 1a 84 80 3f a3 ae 7e fe 61 fa 70 bf
       0.00806446429638215 -0.004145033635648029
000070 3d c8 ce 32 45 c7 73 3f 4c a0 8c 34 86 a5 9a bf
       0.004828710848345405 -0.026022049863201155
000080 3b 6e 56 a5 7e f2 93 bf da 0c 29 47 60 30 87 3f
       -0.019479731408507766 0.011322738811151135
000090 3a 7f 54 36 d8 7f b5 bf 11 16 f6 eb 36 6f b6 bf
       -0.0839820034639133 -0.08763449917577072
0000a0 cd e4 2b 1c 69 2b b2 bf 94 c8 82 f7 ae 65 b2 bf
       -0.07097489297656807 -0.07186406653161931
0000b0 ed 93 01 71 06 eb a6 bf 99 cc 0d 5a cb 38 a4 bf
       -0.04476184968442696 -0.03949580644884882
0000c0 52 1b fe 0d 11 29 82 bf db 76 8d 19 58 9b a4 bf
       -0.008867390861053846 -0.04024768173142742
0000d0 a1 7b 8c 07 20 27 aa bf 1a 9f 07 a6 b3 cc 99 3f
       -0.05107975093982665 0.025194937714245837
0000e0 78 34 82 d7 81 4d b5 bf ef 09 e6 12 06 ef b1 bf
       -0.08321391593399763 -0.07005346261397681
0000f0 41 3b 3d e0 91 f8 34 3f 8d 90 34 f8 2e 0d bc bf
       0.00031999169754197773 -0.10957616386127907
000100 0c 58 e3 c4 1a e8 a0 bf dd dc 95 6c c6 18 93 3f
       -0.03302081731241921 0.018649196984793604
000110 28 4d b7 2a 2e d7 81 bf fb 5a 4f 0f ef 4f 8d 3f
       -0.00871120517596198 0.014312617926333973
000120 18 d2 0c b6 7e 79 93 bf c0 00 95 58 ce 39 9c bf
       -0.01901815401216042 -0.027564262539500062
000130 84 2c 3d 64 83 24 85 3f 5b 9a d8 ae 59 d6 a5 3f
       0.010323549744177159 0.04265098819114562
000140 32 7d a5 77 45 7f 9a bf 93 0c 30 d6 cc cf 69 bf
       -0.02587612669719625 -0.0031508446422790575
000150 63 a7 37 1b 86 04 ad bf 29 1e 56 09 4b e2 81 3f
       -0.05667513925784708 0.00873240110628533
000160 8a f0 61 40 45 09 8c bf ec 15 a5 58 e4 f6 b7 bf
       -0.013689557101536094 -0.09361102260762494
000170 ed 2b 01 4b 51 95 5f bf 64 3f 53 91 13 0a 8d 3f
       -0.0019276899220297364 0.014179375526879041
000180 be 8e b5 bf f7 25 88 3f 31 5f 86 19 fb 63 9b 3f
       0.011791167772293828 0.026748584206500673
000190 7d c5 10 3d 9a 37 b5 bf c8 a4 10 ae 5b b7 bd bf
       -0.08287967673165571 -0.11607907294878139
0001a0 f6 49 d4 40 59 25 c0 bf fb fd ce 1e f3 d1 7b bf
       -0.12613979020586868 -0.006792020500995029
0001b0 74 ca 17 70 b1 b5 9a bf 30 1e a8 12 f5 87 bb bf
       -0.026083729235276867 -0.10754329400526141
0001c0 66 0f a1 65 29 30 b2 bf 53 ae de eb 23 93 aa bf
       -0.07104738932781415 -0.05190384153624152
0001d0 4b ef 9e d3 23 42 bb bf 55 48 b0 41 a4 42 a9 bf
       -0.10647796551250825 -0.04933656026709402
0001e0 65 10 f3 a1 d7 3b b4 bf 4f 87 45 7c f9 f3 75 3f
       -0.0790381212601133 0.0053596253895607645
0001f0 b7 62 a1 a2 db 9d ab bf ed bb 46 12 d7 c9 b1 bf
       -0.05393873558268097 -0.06948608585547307
000200 74 e3 0b b8 d9 88 ab bf 2e 82 2f 19 23 b5 c0 bf
       -0.053778461186033605 -0.13052786569370894
000210 c4 22 34 aa 6f 4b 8f 3f 60 6a e2 9f 18 e3 c1 bf
       0.015280601865485528 -0.13974292570931635
000220 d4 a6 28 2f e2 dd c0 bf a5 f7 56 7f 81 5a ab bf
       -0.13177134802508894 -0.05342487983169456
000230 38 12 23 f5 82 68 95 3f ea 41 87 fc d3 d4 b1 3f
       0.020906492435431384 0.06965374865763577
000240 9e 1b 04 80 4a 99 9e bf 62 39 af c8 59 a5 b4 bf
       -0.02988163381908359 -0.08064805173419168
000250 da ec 01 b3 de 56 9f 3f f2 fc ce 47 2c e9 bd bf
       0.030604819942237828 -0.11683918717516287
000260 4a 41 b1 75 07 1c b5 bf 58 2f 54 dd e1 e4 a2 bf
       -0.08245894072866125 -0.03690248324173123
000270 e6 00 d6 08 31 b5 42 3f 2a 5b 38 21 4a 03 bd bf
       0.0005709161211342711 -0.1133314448455677
000280 27 3e 80 ac 88 68 c0 bf 3d 29 17 cf 1c 3b ab bf
       -0.12819012091539259 -0.05318536785087467
000290 df 4c bb 64 70 80 90 3f 17 9a 0a 3a 52 0f bf bf
       0.016114956043406955 -0.1213275329306288
0002a0 4b 22 b4 54 c3 31 40 bf 2d e3 3c d4 09 9a 8c 3f
       -0.0004942134632140519 0.01396567992161265
0002b0 4c 53 87 80 83 ef c0 bf c5 fd 84 f6 a2 81 b5 bf
       -0.13230937743960636 -0.08400934713880932
0002c0 6e 19 5c bb 60 9d b6 bf e9 71 76 3a 05 b8 b4 bf
       -0.08833889555180516 -0.08093292882262627
0002d0 9a f1 64 03 5e 16 b7 bf 96 e8 7a a3 da 5c a6 bf
       -0.09018504698628363 -0.04367717023474531
0002e0 5d 1a 24 b4 f4 dd 86 3f 8b 05 6b ef 53 a5 92 bf
       0.011165534732311128 -0.01820880078117208
0002f0 df fe 82 0b 87 e7 b6 bf 00 97 df db 69 02 c1 bf
       -0.08947032958075905 -0.1328861545181823
000300 e7 a6 30 23 3a c7 b4 bf 70 9a a3 8b 92 59 b0 bf
       -0.0811649642861557 -0.06386676701695548
000310 13 ed 8c ca 25 20 b0 bf 0d d9 e0 a6 64 d1 bb bf
       -0.06299053378181822 -0.10866383623292482
000320 e1 e5 41 5f 5b 8b 9b bf 03 c3 39 b4 96 9c 82 3f
       -0.026898791970301764 0.009087731719064523
000330 7e a0 fd 96 17 31 bb bf d4 66 e7 9b 2e c2 b9 bf
       -0.10621783672616122 -0.10061923319099303
000340 a2 72 e5 38 2d 36 c0 bf f8 7d 50 35 d4 03 89 3f
       -0.12665334013117496 0.012214334370638888
000350 10 7e 63 0c bf bd bd bf 4b 32 13 6c cb ac 7e 3f
       -0.11617654850442016 0.0074890085390505
000360 9d 7f 1f f9 cc 75 a0 bf bf fa 3b ad 86 f2 b1 bf
       -0.03214874783566233 -0.07010690430977727
000370 7e 58 b1 dd 05 cb 6c bf 9e fc 17 f9 4b b5 c0 bf
       -0.0035147776193680804 -0.13053273833063356
000380 ee b0 0b ba c9 56 85 bf 3a 57 24 e1 e2 08 97 3f
       -0.01041944121376345 0.02249483584554144
000390 55 32 a8 22 bf c1 bd bf de d9 65 e5 b7 79 b4 bf
       -0.11623758884543041 -0.07998227453740678
0003a0 2b 39 d6 dc c3 b2 9c bf e1 d0 eb 3f 8c 35 bb bf
       -0.028025684694108193 -0.10628582535338495
0003b0 c3 10 61 d2 c7 d9 aa bf 69 49 bb 40 81 f8 86 3f
       -0.05244278376679425 0.011216172969771692
0003c0 1b 46 3b 62 6b 7d bf bf 64 dd 13 63 3b 9d ae bf
       -0.1230074992011158 -0.05979333481257745
0003d0 aa a8 65 d4 0c b2 bc bf 04 85 69 0d 96 27 bd bf
       -0.11209182916141694 -0.11388528659292169
0003e0 b2 b7 de 62 61 a7 b7 bf 29 de 8e 08 13 41 8c bf
       -0.09239777244394423 -0.013795994471236988
0003f0 f4 92 10 df 0e fc 7d 3f 99 68 00 28 d6 ee a0 bf
       0.007320459452817774 -0.03307217825222714
000400 2e 21 d9 e0 b5 41 95 3f 9f c4 00 9b c3 a1 9b bf
       0.020758478020327313 -0.0269842685085605
000410 bc 88 73 c9 48 26 b2 bf 58 1a f4 ec 71 82 79 bf
       -0.07089667242283587 -0.006227917692064176
000420 b9 ff 95 95 c7 d7 9c bf 96 5f 81 e4 9a 94 b6 bf
       -0.028166883950234232 -0.08820503309959657
000430 e2 1e 10 96 45 b9 b4 bf 84 96 e4 83 c9 23 c0 bf
       -0.08095202363631018 -0.1260921377190024
000440 12 58 8a f9 af 87 97 bf 59 bf d4 3a e2 85 af 3f
       -0.022978543859231655 0.061568326646350875
000450 66 5e 93 77 c7 3f c0 bf d8 14 9f be dc a2 8f 3f
       -0.12694638575225098 0.015447353904060199
000460 35 b4 6b 1f 4a 8d 95 bf f8 90 55 1a d8 28 c0 bf
       -0.021046789329307997 -0.1262464645943806
000470 4a bc de d3 26 7a b6 bf d2 ca 7e a5 4e c3 92 bf
       -0.08780138657196904 -0.01832316289046327
000480 97 d5 0a 47 76 1c ba bf 6b 99 62 a6 c2 22 97 3f
       -0.10199679598266297 0.02259353771719345
000490 f5 83 0d cb 94 e4 98 3f 34 8d e7 bd 99 7a 8d bf
       0.024309468167647414 -0.014393998248982777
0004a0 82 ae 72 11 ad 6c 5c bf e7 28 3a c0 02 bf bd bf
       -0.0017348947638237415 -0.11619584267660664
0004b0 f7 e8 b2 67 bc 06 9f bf 26 5c f8 af 83 90 d2 bf
       -0.030299133137966696 -0.2900704592188411
0004c0 af f5 f3 8f e6 7b da bf 2c 20 99 b4 5c d2 d1 bf
       -0.41381229455859175 -0.2784644855169087
0004d0 19 c8 a7 6e d1 96 a4 3f 20 71 78 18 d5 fe c9 bf
       0.04021315074705018 -0.20308936781737774
0004e0 d8 39 0c c9 1d bb ba 3f 6e 37 4e 37 20 47 b4 bf
       0.1044176688994648 -0.07921029424889323
0004f0 bf 12 22 86 83 12 c9 bf 51 7d 43 64 ca 89 df bf
       -0.1958774952837725 -0.4927850703370114
000500 87 0e 0a cd 15 fc bc bf 5c 78 02 92 e4 38 d0 bf
       -0.11322151428071879 -0.2534724641681174
000510 e9 aa 9e 2b 68 06 ab bf 28 b6 cf e1 c6 64 a9 3f
       -0.05278325588672834 0.04959699160086145
000520 0b b1 2c 60 da cd b8 bf 31 d7 33 3e b4 74 b7 bf
       -0.09689106796276208 -0.09162451284995822
000530 4c 1b d4 16 66 99 b2 bf e3 29 c6 6e 41 4c dc bf
       -0.0726531797155136 -0.44215427224903986
000540 38 64 30 33 00 67 73 bf 2c 97 6d 30 c1 11 e3 bf
       -0.0047369010744882575 -0.5959173150883763
000550 34 a3 03 e7 aa 2c d8 bf b4 3a 47 9e 69 58 da 3f
       -0.3777262931821952 0.41164627510890317
000560 34 f0 4d 98 fa d0 d1 bf fe cb d0 b5 ad 2f c1 bf
       -0.2783800589893446 -0.13426753404345954
000570 33 a5 20 c4 e1 7d c3 bf d5 ee 6e 81 0a 54 d1 bf
       -0.1522791106847677 -0.2707544578549748
000580 de 50 d3 6a d3 f4 a2 bf f3 39 05 aa df 59 cf bf
       -0.03702412299176826 -0.24493022729662037
000590 e5 b4 fa 85 4e b6 e5 bf 77 07 b8 7d 34 cc c3 bf
       -0.6785042397292754 -0.15466934336296465
0005a0 3d 34 3a 33 6e 43 6a 3f e1 9e 19 2b 25 68 bb bf
       0.003205981478294122 -0.10705787946937619
0005b0 ad 01 d3 ef dd 6a c9 3f 28 75 5f 80 a6 1b a5 bf
       0.19857382021110706 -0.04122658078243041
0005c0 32 d0 7c 35 56 63 d2 bf d4 b1 f3 85 6c 76 d4 bf
       -0.2873130342807172 -0.31972802239650133
0005d0 18 42 12 1c 06 fe d3 3f 51 55 75 88 23 2e bc 3f
       0.31237938634242957 0.11007902223112366
0005e0 ad cf af c0 f9 bb d3 bf 4b 73 11 ac f9 36 95 bf
       -0.30834811989847816 -0.02071752655716645
0005f0 90 7b 86 f9 b2 6f de bf a3 c6 d2 c7 7e 1c d3 bf
       -0.47556757323939625 -0.2986142112159575
000600 4f 0e 7c ba 41 87 ee bf 70 b2 89 32 2e 68 bf bf
       -0.9540108339574064 -0.12268341764292656
000610 25 55 83 a1 79 1d ce bf 59 1d 7c ea 4c 53 b1 bf
       -0.2352745093000205 -0.06767731404044265
000620 b0 e8 53 4c a0 4c db bf d3 e2 89 64 a4 19 d1 bf
       -0.42655188993343085 -0.2671900731871066
000630 04 1f 70 54 57 fb ab bf 6e a6 92 b3 8a aa d2 bf
       -0.05465195565926531 -0.2916590455666669
000640 8a 1f 01 66 06 1c b9 bf 5b af 16 ad fc 29 b4 3f
       -0.09808387747136585 0.07876567102237912
000650 59 b3 76 24 d4 91 d8 bf 0b d8 cc d7 f9 2c ba bf
       -0.3839006763544624 -0.10224877852019192
000660 4f cc 19 67 42 a1 d0 bf 88 92 b6 a0 e6 32 c5 bf
       -0.25984249180254876 -0.1656158718807499
000670 4c 1a 29 7f e7 a2 a2 bf 7a 20 62 0f 79 a4 c9 bf
       -0.036399111053971284 -0.20033181429994668
000680 f0 9d 43 6b db 5c bd bf 51 1e ce 75 f2 a6 c9 bf
       -0.11469813698533193 -0.20040732147411913
000690 9e 57 42 81 4a a3 9a 3f 07 c3 b5 61 0f a5 82 3f
       0.02601353086409796 0.009103889626858498
0006a0 8c 3a 6c 27 ae 88 d6 bf 3d c5 9b 4c 00 2e ae bf
       -0.3520923027980778 -0.058944711066838164
0006b0 c9 42 3d c9 cc 82 d1 bf 46 37 7a 1d 44 f8 89 3f
       -0.27360839512134 0.012680561208323515
0006c0 bf cf da 2e 70 9a b4 3f f0 01 b1 59 e0 44 d2 bf
       0.08048154014505736 -0.2854538799183777
0006d0 dc c6 bc 6e dd 00 d1 bf 13 71 19 43 95 fa c5 bf
       -0.26567779363823063 -0.1717096879609775
0006e0 37 5e 6d 20 0a c4 95 bf e5 d5 2b e6 1e 37 c5 bf
       -0.021255644063186998 -0.16574465025739396
0006f0 cb c5 ec 6e 69 b8 b7 bf 4b 5e 0c f5 61 e3 d3 bf
       -0.09265765150191567 -0.31075333528994936
000700 53 fb 40 0f 69 50 db bf 1f d1 d2 64 c8 fb c9 bf
       -0.42678286065704646 -0.20299630091688756
000710 af 92 9a 50 fa 07 cb bf 2d bb 1d 85 d4 01 ca bf
       -0.2111809629033323 -0.20318085193454163
000720 1b 51 15 a7 79 49 b9 bf 32 1a 73 31 60 e0 a8 3f
       -0.09877739266568535 0.048586851154642466
000730 6a 17 70 ae 02 b2 c9 3f 21 55 64 97 eb bb c2 bf
       0.20074494855378627 -0.14635987178977763
000740 b9 25 be 78 e6 80 cf bf fa 28 eb 6f 91 20 df bf
       -0.24612122436182718 -0.48636279992628284
000750 ff ff 22 5d 1c 44 e3 bf 02 3c 84 3b 25 10 a9 bf
       -0.602064306171087 -0.04895130492706558
000760 a6 44 e5 8f 29 a2 ba 3f b5 00 56 35 5a 1b c5 bf
       0.10403690112186101 -0.1648972282819209
000770 c4 8d 8a 55 a9 14 bd bf 88 f8 a3 33 8b a3 d8 bf
       -0.11359651888283567 -0.3849819187452188
000780 3d 2f ed 28 77 f5 c4 bf ae 90 52 bd 7f de d4 bf
       -0.16374101160396917 -0.3260802601673828
000790 8f ff 13 16 d2 8f bf 3f 39 ab ee db a9 54 9d bf
       0.12328827895180282 -0.02864327816829901
0007a0 ad 2d b1 04 b0 33 5a 3f 6a 0f c1 ca 07 33 ae bf
       0.001599237339877084 -0.05898308134103909
0007b0 a6 ab 84 4e 3e 4d b4 bf 26 b5 0e a9 9a 1d c0 bf
       -0.0793036405272419 -0.12590344671972636
0007c0 fc fc 93 9a 3d c1 db bf 6d bb b1 7b ed 36 db bf
       -0.4336694726516297 -0.4252275188400095
0007d0 2e ba 38 18 7c 58 cc bf 3c 7c f7 7f fe f5 bc bf
       -0.22145034010596149 -0.11312857269466375
0007e0 62 03 dd f6 46 4a c4 bf ab 70 9c 1c d6 7b e0 bf
       -0.15851676038621593 -0.5151167448816713
0007f0 05 a5 f8 04 01 27 c6 3f f5 31 73 d7 d8 41 dd 3f
       0.1730653070710916 0.457143984222767

linear_2.bias f8 [150]
000000 8e 57 51 5e b5 25 5c bf b4 11 ae 72 8b 40 d9 bf
       -0.0017179747749387106 -0.3945644969865285
000010 4b 87 5c fa f8 a6 b4 bf ed 62 df 18 5d 6e db bf
       -0.08067279922809438 -0.42861106327977333
000020 c0 e7 4b 29 c1 45 77 bf b7 ca c1 26 c8 cc de bf
       -0.005681757484802874 -0.4812488916860888
000030 f8 7a f4 3b 31 15 c0 bf b0 cd eb 7d d8 cc a4 3f
       -0.1256467383145361 0.04062534844515697
000040 d8 49 e7 18 eb 92 c1 3f 48 6b 5c fb 8f 22 bc bf
       0.13729609218587657 -0.10990238081687409
000050 51 61 04 18 6c 3e cb bf 67 bf 6b fc 2f 4d d0 bf
       -0.2128424756308598 -0.2547111477897403
000060 b7 81 5e 59 5a 9c c7 bf c7 e0 44 b8 05 c4 a6 bf
       -0.18445901263932082 -0.04446428179147826
000070 d1 8d 9b fb 60 5a bb bf 9c e3 86 49 bb 34 c0 3f
       -0.1068478216434905 0.1266092404382818
000080 5a d1 4f 5e 27 a9 c8 bf af 40 48 e0 23 0e ba 3f
       -0.19266216378276618 0.10177826142921974
000090 fe 38 34 0f 20 0e bb bf a0 54 6c 04 9d 88 7d 3f
       -0.10568428393546367 0.007210362766973649
0000a0 3d 08 86 f4 be 64 da bf e2 60 5b f1 3d a8 bb bf
       -0.41239904288534374 -0.10803591864112463
0000b0 2d 7b bb 94 ef ef c2 bf 73 73 2f 2a ff ba ae bf
       -0.1479472614509744 -0.060020421886043084
0000c0 c3 70 fd 31 15 c2 b6 bf aa b1 c9 fb 30 c0 65 bf
       -0.08889896841486959 -0.0026551205358400125
0000d0 1e 9d 80 06 db 0b f1 3f 40 fd 6f 31 8c 7d ec bf
       1.065394425773611 -0.8903256383490898
0000e0 ed 67 b7 ec 17 d2 35 bf 98 7e b0 95 6e a1 b9 bf
       -0.00033295711611247455 -0.10011950640227452
0000f0 2b 0c 71 15 f8 62 b2 bf a6 41 81 5b da 19 d7 3f
       -0.07182264827228894 0.3609529393770806
000100 0f 6d 8f 98 cb 7c ce bf 0a f6 3c 8e c8 d4 bc bf
       -0.23818345021468487 -0.11262181732760027
000110 75 f6 b9 a6 93 08 b8 bf 13 2e cd 9e 70 ae b6 bf
       -0.09388087101430094 -0.08859924199094164
000120 c9 f7 a2 03 2e 9c ba bf 47 43 5c 40 55 b6 85 bf
       -0.10394561375412005 -0.010601678873656829
000130 c4 52 07 31 d5 ec b9 bf 6c 87 05 de 13 9f b4 bf
       -0.1012700314234492 -0.08055233164261971
000140 92 69 17 04 fe eb 7e 3f 3d 75 81 3b a3 48 77 bf
       0.007549278497629779 -0.005684507014021731
000150 c1 38 b7 7b 15 a4 c4 bf 4f 71 44 a6 dd 58 b1 bf
       -0.16125744381719723 -0.0677622347761304
000160 5b 97 cc 0b 35 55 b4 bf a3 ef 8d b1 49 bc c8 3f
       -0.07942515886369732 0.1932460896458653
000170 02 53 a6 8a 75 7c d3 3f cc 33 da e3 47 fe e1 3f
       0.3044713834763543 0.5622901392213122
000180 f1 80 69 84 93 f6 b2 3f 48 0b 38 0d 63 2a a7 bf
       0.07407495482175698 -0.04524526153911396
000190 4a f3 f1 7d fa 0d c7 bf f6 7e ac d7 65 b8 ca 3f
       -0.18011408948577873 0.2087523749441897
0001a0 ec 03 d9 5d e0 7a b0 bf 3e 74 9c 22 60 d7 99 bf
       -0.06437494555667883 -0.025235654938217993
0001b0 05 8e 82 28 0f 23 bc 3f fe d8 b3 0c d2 ff be 3f
       0.10990996111882374 0.12109101114387852
0001c0 ad 8d 35 06 7e a5 bf bf 01 64 4b c5 e0 d2 b7 bf
       -0.12361896182624461 -0.09306149307975888
0001d0 9e 7d 95 0e 9b f5 e0 bf 4a 86 db 0a d9 da d6 bf
       -0.5299811634867415 -0.3571074110060165
0001e0 4c eb eb ec 3e 13 b0 bf 86 a1 9d 34 32 73 b8 3f
       -0.06279366764276267 0.09550775322498425
0001f0 8d 0e fa 0e d1 c6 c2 bf 95 5a 6f e8 7b 07 c2 bf
       -0.14669240218437488 -0.14085339402545985
000200 da 94 b3 39 13 74 b7 bf 5e bb 12 37 27 b3 a0 bf
       -0.0916149154541758 -0.032616830323027854
000210 c8 bc 3b 75 d7 ee a2 3f d7 12 15 5d fb fe b4 bf
       0.036978467045508945 -0.0820157148601298
000220 af 7f 85 68 46 33 c3 3f 20 40 46 a5 4f 1a b6 bf
       0.15000228980625027 -0.0863389757635109
000230 fe 01 fb 11 4d 49 b2 3f 63 59 2a 06 83 46 ca 3f
       0.0714309853456214 0.20527684975668156
000240 e7 e1 bc 86 24 80 b7 bf 84 ff f7 a8 95 d5 41 bf
       -0.09179905213830573 -0.0005442600976834776
000250 d6 1e e1 3d 2a 9e e2 3f 48 ea ec 86 b2 a0 b4 bf
       0.5818072517949655 -0.08057704729154935
000260 d9 d9 83 1b 5c 20 d7 3f 00 81 78 e1 be c9 cd 3f
       0.3613500851346579 0.23271928796112462
000270 b2 3e f7 cb 17 0b bf bf 71 3e 32 11 fa 30 d3 bf
       -0.12126301507600593 -0.29986430816004545
000280 e6 23 51 a2 dd 59 bd bf 3e 23 01 8c dd c5 b5 bf
       -0.11465249264541874 -0.08505043666913267
000290 4f b1 07 e9 8c e1 e2 3f e0 78 fc 47 18 de 99 bf
       0.5900330115669393 -0.025261287110986852
0002a0 f1 16 22 1a a5 f4 db bf 26 d2 5c cb 98 ea d5 bf
       -0.436806941528956 -0.3424436555826865
0002b0 27 3a 27 db 5e 02 cc bf 03 c3 5c 9b 5b c9 c3 bf
       -0.21882234288064348 -0.15458245359470632
0002c0 a3 32 db 9e 95 77 93 bf 8d f7 66 b8 2f 60 a6 bf
       -0.019010865994277492 -0.043702594051395406
0002d0 4e 0a 72 30 5c cb b8 3f 77 8a 4c 75 11 7c e8 3f
       0.09685302908659674 0.7651450434680801
0002e0 3d ff c2 ac 5a bb d8 3f 87 e9 61 3d ce 19 d1 3f
       0.386435192787747 0.26720005030042454
0002f0 73 32 2f d7 38 7d 9a bf dd 16 43 f9 e4 92 f0 3f
       -0.025868309148608448 1.035862897567703
000300 d5 df 5a 2c b1 95 c7 bf 04 8f 85 d4 74 36 bb bf
       -0.1842557398392716 -0.10629968822973629
000310 d0 c7 ab a7 91 d2 d2 bf f1 3c a5 72 c5 8b c0 bf
       -0.29410210966227357 -0.12926548097536952
000320 0a f3 94 70 e5 c7 c4 bf fe 23 91 b0 0e 4e c1 bf
       -0.16235034939918364 -0.13519462224419948
000330 bc 5a 05 39 e9 65 c1 bf 67 90 de fc a4 6a 98 bf
       -0.13592257770752336 -0.023844316419527802
000340 e9 a6 00 1c 6f 23 d5 bf 13 61 e9 cf 5e d0 c1 bf
       -0.3302877210104343 -0.13917145873961853
000350 53 36 59 f0 e1 30 c7 bf 77 5a 8b 32 0c c6 9b bf
       -0.18117927776113393 -0.02712267931459641
000360 29 96 90 6e 8c e9 9d bf ba e4 48 59 d3 d9 b0 bf
       -0.029211229561175642 -0.06582375459483361
000370 b2 ac d8 62 49 4c ca bf f5 02 e5 7e 85 27 b9 bf
       -0.20545308424457215 -0.09825929973613852
000380 36 21 db dc 98 f8 c6 bf c5 cb 77 b7 b0 cd 6a bf
       -0.17946158203108958 -0.003271908902882955
000390 36 2d 77 18 d9 a2 ba bf 75 5e 71 48 15 d8 b1 bf
       -0.1040473637323672 -0.0697034170019551
0003a0 45 04 54 c8 fe a2 ba bf d7 05 e2 5f 66 d2 c9 bf
       -0.1040496100504394 -0.20173339540273957
0003b0 d5 12 e8 77 81 e2 9f 3f f3 81 14 f3 fe 22 b3 bf
       0.031137488311304324 -0.07475274500439592
0003c0 3b cd 06 e8 33 52 e5 3f 7f 1d d6 a2 d8 c4 bb bf
       0.6662845165032317 -0.10847238517282241
0003d0 eb d8 8e 02 c9 ab bb bf fc d8 8e be 76 99 b4 bf
       -0.10808998405886754 -0.08046667244238742
0003e0 cb f2 21 e7 9f 03 ec 3f 7a db 5a 14 71 13 a4 3f
       0.875442458563691 0.039210828528147126
0003f0 a9 4f 48 cb fb 6e 9f bf 3b cc d1 ec e0 cd c3 bf
       -0.030696806223275228 -0.1547204166741681
000400 7b 90 90 96 f8 10 e9 bf 76 42 92 29 9e 94 bd bf
       -0.783321661063851 -0.11554897799420324
000410 34 4b 12 93 b1 a1 cf bf 2f ef 57 98 26 c4 9a bf
       -0.24712199860786088 -0.026138880775746273
000420 60 bd 9e 2f 32 3b be bf 05 89 73 c9 7d 5d bc bf
       -0.11809075987433948 -0.11080156486744748
000430 6f 91 7b 55 a0 b5 b4 bf 26 91 03 c9 2b 13 aa bf
       -0.0808963974664658 -0.050927513397058186
000440 4e 06 b6 34 ed ca db bf d2 f8 2f 7b 3e b6 c6 bf
       -0.4342606558567227 -0.17743664755830096
000450 6e 73 c7 04 0d d8 d1 bf b0 2c 1a 55 54 6e c0 bf
       -0.27881169764241676 -0.12836698680289294
000460 13 63 ee 00 a5 73 cc bf 1f 49 6b 9f a3 31 f0 3f
       -0.22227919145077432 1.012118933420943
000470 05 17 ae 76 66 8c b7 bf 13 32 9a 23 68 43 bb bf
       -0.0919860877748669 -0.10649729603955675
000480 22 f6 63 e9 7c de e3 3f 67 dc 52 5d f6 ac e2 3f
       0.6209091719062523 0.5836135695198096
000490 51 a5 ab 8c 3a 41 9e bf af bc 79 ad cc f0 be bf
       -0.029545702777715125 -0.12086180911295473
0004a0 3d 41 68 17 20 74 c5 3f b9 d6 ae 71 21 6f 8f bf
       0.16760636465961368 -0.015348683626011593

linear_mu.weight f8 [1, 150]
000000 18 97 06 c2 88 0d b2 3f 78 09 50 95 ca b6 ad bf
       0.07051901566464058 -0.058035212256089375
000010 25 9e d2 1e 2c fc 85 3f 58 a8 d4 3a c4 45 c0 3f
       0.010734886828074395 0.12712910530655352
000020 07 a8 c2 fa 6f b1 76 3f 4e b2 50 b2 ab 4a b8 bf
       0.0055403112602707754 -0.0948893843021292
000030 9c ce 29 d5 e9 8c 92 3f 15 19 07 d8 3b 87 b2 bf
       0.018115666995483268 -0.07237600349535385
000040 7b 50 5c 8e 69 63 6f bf db cb 73 06 06 20 c7 3f
       -0.0038315831797124922 0.1806647807603373
000050 66 c8 e4 3b e7 0f 91 bf ca a5 b9 d5 9e 79 9d bf
       -0.016662228613491335 -0.028784257693052408
000060 c2 b9 86 27 fb f6 b0 bf d7 f0 79 38 5a 41 a3 3f
       -0.06626863207814096 0.03760797442825641
000070 65 b6 e1 9e 27 01 96 3f 9a 32 10 17 cb 06 b6 bf
       0.021488780090683685 -0.0860411578471009
000080 8b 95 d7 88 c5 01 9c 3f 51 84 94 24 c9 40 bb 3f
       0.02735050819128086 0.10645730155057832
000090 0a d8 15 22 07 b8 a7 3f d4 54 01 e3 13 4d af bf
       0.04632589617806111 -0.0611349310499151
0000a0 fb 43 91 f5 bc 80 ac bf fb 43 ef fd 10 7a 98 3f
       -0.05566969392442186 0.02390314626592625
0000b0 aa f8 dd 3d 47 73 98 bf 04 79 5c e0 5c a6 8d 3f
       -0.023877251769129394 0.014477468106232745
0000c0 1e 8d c1 da 81 58 5e bf fb 6a 94 ad 1f fb 7d 3f
       -0.0018521564589029714 0.007319568388335136
0000d0 e5 d0 0a e0 75 07 6a bf c6 79 05 e1 7c b4 b5 bf
       -0.0031773855447117965 -0.08478527539907707
0000e0 5e ad 7a 4f 20 f8 d0 3f 98 f3 71 ee 02 38 b8 3f
       0.26514442216531176 0.09460466691412106
0000f0 cc 2d 75 ce a3 96 a3 3f 62 b7 00 29 64 5d bd bf
       0.03825866599307978 -0.11470628739399794
000100 99 dc 56 af cf 8f a5 3f 60 d4 07 8a 7f ac 62 bf
       0.042112817910884455 -0.002279519176449571
000110 8e 81 80 02 00 04 83 3f 7b cc ac af b3 c4 a7 bf
       0.00928497321734836 -0.04642259139509349
000120 40 79 cd 37 98 ba 9d bf a9 61 59 74 d5 65 9b 3f
       -0.02903211441604836 0.026755652643574077
000130 57 d8 e0 8b 29 f5 80 bf 29 b8 11 6f 50 66 9a bf
       -0.008280109959837896 -0.02578092267906854
000140 95 31 58 3d 4a 34 89 3f 4d 6c 6e 78 ee 68 91 3f
       0.01230676650723054 0.01700184450201574
000150 6a 47 14 89 c8 63 98 3f d8 02 5c 14 8a 18 a0 3f
       0.02381814324059609 0.031437220559387746
000160 56 e2 9b ba 7a e7 a5 3f 0a fa ee 42 d1 0f bb bf
       0.0427816727441878 -0.1057101047908661
000170 c0 db 1b ec 03 bb b9 3f c0 a3 44 a3 bc 5b c0 3f
       0.1005098773419908 0.12779958698345517
000180 eb 03 20 3b cd 13 d5 3f 79 a2 99 fd 29 0d a2 3f
       0.3293335988419687 0.03525668354706552
000190 18 af ff 03 ca f8 99 3f 13 28 18 70 0c 35 44 bf
       0.02536311768919494 -0.0006166754466800948
0001a0 11 ec 54 5d 31 32 aa bf cd 1c f6 f2 4b a6 8f 3f
       -0.05116419090560254 0.015453904487698367
0001b0 d4 28 97 85 b2 e5 a2 3f 07 4c 70 af 35 7d 96 3f
       0.03690870171301844 0.021962012131620436
0001c0 ec 59 24 37 96 90 a6 bf 3e 4e 02 a9 fd 90 84 3f
       -0.04407185958023149 0.010042173118825489
0001d0 c2 fb 0a 58 60 1a aa bf 90 2a 6c 11 a1 6a be bf
       -0.050982485530304725 -0.11881453204493142
0001e0 a3 94 18 c5 57 0a 91 bf cb f6 52 a2 b9 2d d2 bf
       -0.0166410173461783 -0.2840408406444623
0001f0 31 42 0d 2c 84 e5 a9 bf e0 ed 00 90 5d 80 9b 3f
       -0.05057919538251488 0.026856862940105475
000200 50 6d eb fe 21 30 7c 3f 10 8d 00 b8 8e 57 8c bf
       0.006881840511336293 -0.013838877668666899
000210 62 73 4b b9 84 19 74 bf 40 af fb b8 01 7b 78 3f
       -0.004907148792622747 0.005976683358067281
000220 7f 72 7a 86 2c bb bf bf 8b d0 90 28 d0 61 83 3f
       -0.12394979746972899 0.009463907468763707
000230 57 47 97 ef 04 7f c1 3f 1d 40 ed fb e1 77 12 3f
       0.13668882082725517 7.045094296853666e-05
000240 6b 5e c2 10 02 96 7b bf 8c e1 8e cb 5f 10 d2 3f
       -0.006734855716920766 0.2822494018432955
000250 6d d1 eb 9e 71 f4 a5 bf fe d1 a3 c3 59 6e 77 3f
       -0.0428805834289133 0.005720472947576825
000260 b2 08 38 f1 a4 c9 c1 3f 6d d1 6c 59 aa 3f 9b bf
       0.13896619585290676 -0.026610051830361515
000270 5d 6b da c2 65 71 8d bf 38 80 4a 4e 21 b3 ad bf
       -0.01437644482512262 -0.05800727921200671
000280 db 3e e3 60 0a 07 cc bf 09 9a 0e 39 51 ad a8 bf
       -0.2189648602566113 -0.04819730588433308
000290 a0 81 9f 36 71 3c c0 3f 63 6e 68 b8 60 92 63 bf
       0.1268445507730691 -0.0023891343182762966
0002a0 4b 08 cf c0 d9 4f c9 bf a8 24 cd 9d b9 31 d1 3f
       -0.19774934687126441 0.2686599770573346
0002b0 d0 44 b3 0d 96 19 8e bf 42 07 57 22 41 a0 97 bf
       -0.01469723920164015 -0.023072259636826027
0002c0 1f cf c6 40 6e aa 96 bf 81 27 e2 b6 84 db 63 3f
       -0.02213451643338182 0.002424010474958161
0002d0 7b 98 86 b6 f6 ad ad bf d7 7c 3a 1e e4 b1 b6 3f
       -0.0579678628740092 0.08865190256118481
0002e0 01 db dc cf 2f cf aa bf 4b 66 cd 26 6d 9c 88 3f
       -0.052361959575526036 0.012017109629300601
0002f0 af 2d 34 de fd f8 a9 bf c8 69 a9 53 65 2f c6 3f
       -0.050727780699243545 0.1733214052681673
000300 ae 0d e3 a1 f8 58 a6 bf c1 12 93 24 2d 72 87 3f
       -0.04364754654082091 0.011448242834725677
000310 f3 38 e3 d6 c3 90 c1 bf 2d 34 54 20 a0 bb b1 3f
       -0.13723037712629313 0.06926918782501508
000320 3c f5 57 61 ea 98 b0 bf 83 87 67 1e 1b 44 98 3f
       -0.06483330608894716 0.02369730351518441
000330 d5 99 ea 51 67 77 ac bf 12 52 89 19 3c 05 8a 3f
       -0.05559847712474989 0.012705297021207183
000340 27 1d 23 c1 13 79 9c bf a1 01 c5 dd 55 68 68 bf
       -0.027805622733265836 -0.0029794385028767
000350 19 9c 76 5d 98 7b a0 bf ab 70 2a e5 f4 ee 61 bf
       -0.03219295636090908 -0.00218913870896927
000360 c1 8a 62 c5 44 b9 4d 3f 30 0d 63 c5 ab 2f 95 3f
       0.000907095508200527 0.02068966285947943
000370 5f ef 3f 08 db 2f a4 3f 71 d8 9d c5 56 63 8f bf
       0.03942760921196852 -0.015326192765979326
000380 34 09 ad 22 47 23 80 3f 34 7b d9 0b e0 20 92 bf
       0.007879787202572965 -0.017703533862341206
000390 6a ed b2 63 80 0f 95 bf 6e ff ba a3 28 ca a5 3f
       -0.020566946110858998 0.04255797384894221
0003a0 b5 e1 91 47 3e 65 a3 3f d1 34 dc c0 cd 5f 9a 3f
       0.03788179992347144 0.025756087204219128
0003b0 40 0a e5 df 8e 61 b4 bf 70 44 b6 01 f6 ba ad 3f
       -0.07961361852816484 0.05806702395342078
0003c0 40 19 9c 40 eb 3a c6 3f 1b fb be d4 1d a3 af 3f
       0.17367306380055858 0.06179135534283927
0003d0 5e c8 df c0 2f 53 a8 3f e3 03 d4 3d 05 75 88 3f
       0.047509662908752345 0.01194194884237904
0003e0 94 7a b1 89 1f 0d b1 3f b7 6f db b8 97 35 8a 3f
       0.06660649406101476 0.01279753239526103
0003f0 05 fb 21 c9 d8 44 a7 bf 26 9b e5 0c 79 ae 99 bf
       -0.04544713454469299 -0.025079623615421508
000400 ca 82 80 79 28 1f c2 bf 0a 93 9b 90 c9 fd 8a bf
       -0.14157586987223275 -0.013179373479439888
000410 20 83 f2 a1 c2 54 c9 3f b9 1b 41 d3 06 e8 a0 3f
       0.19789917857726724 0.033020222938425055
000420 f2 0b 18 74 24 63 b3 bf bf 17 4b 80 b5 08 97 3f
       -0.07573154291462439 0.0224941596559558
000430 87 ac d5 e4 52 d3 90 3f 60 c6 1a 92 92 81 cb 3f
       0.016431136338195287 0.21489174016965062
000440 1b 51 37 40 52 03 d1 bf d5 30 3a 87 16 86 8b 3f
       -0.2658277155981225 0.013439346315202641
000450 12 3a c6 1c 99 65 a6 bf 40 8e ee e8 2a cb 91 bf
       -0.04374388195275371 -0.017376585452110627
000460 e5 20 87 6f 6b 36 bf bf a5 83 0b 94 db 82 a1 bf
       -0.12192412827346606 -0.034201490232369104
000470 b9 16 23 68 1b b3 90 bf 5d 58 33 82 58 14 ad bf
       -0.016308239203474104 -0.056795850652336034
000480 eb 1a 1e 90 4a 0f 99 3f 91 7c cd 5a 92 b5 c4 3f
       0.02447239403366101 0.1617911284801932
000490 a5 38 67 a9 89 d6 37 3f ba d9 8f b1 c0 72 a1 bf
       0.0003637395942889344 -0.03407861869338853
0004a0 ba 3a e5 eb 14 17 cf 3f b1 9e 97 e7 d6 36 a5 bf
       0.24289189833003438 -0.04143401696256655

linear_mu.bias f8 [1]
000000 89 6b a2 c1 10 0c af 3f
       0.06063892711355041
