model_chkpt/ensemble_networks.pt (torch, 990161 bytes, 40 tensors)

linear_1.weight f8 [150, 8]
0	0xbfb9100ff4a0fb6f	-0.0979013416517611
1	0xbfe2572b6dcead41	-0.5731408257173954
2	0x3fdc529d2b84e1a7	0.44254235505970957
3	0x3fce22395164d502	0.23541943048773112
4	0x3ffec03a2d4ab85a	1.921930481835736
5	0x3fdf90abee02579c	0.4932050537403201
6	0xbfdb9a31cc2867ef	-0.43128628670967734
7	0xbffbc1d360db666d	-1.734820726726322
8	0xbff60f216a640112	-1.3786939769634654
9	0xbfddda0a955e837f	-0.4664331873591933
10	0x3fcb69e7ec137715	0.21416949298048196
11	0xbfef7a31b2756882	-0.9836662755508458
12	0xbfd7c13ee12ed4a0	-0.3711697768261022
13	0xbfe0103c41c23e7d	-0.5019818577147387
14	0xbff6c7ce62953759	-1.4237808085340105
15	0x3fd8834db440f7c1	0.3830141315737557
16	0xbfca585bfa4794a8	-0.20582151146587546
17	0x3fe3b1c679f0e2a7	0.615451086202559
18	0xbfe267713f02fa6a	-0.5751272421546905
19	0x3febf90c344ca024	0.8741513272734704
20	0x3ff04662347f1b80	1.0171834993977598
21	0xbfe235d46ec6009d	-0.5690710223716625
22	0xbfda4b64c4390643	-0.41085166132333856
23	0xbfd120c68bb2914a	-0.2676254619821249
24	0x3fcf4ad92f8562e7	0.24447169132579136
25	0x3f96f213a83d44ce	0.02240782465316187
26	0xbfa9c3e2a5d8eb47	-0.050322611565624835
27	0xbfda8468ffba96b5	-0.4143316743232888
28	0xbfab8ca988b831b0	-0.053807542743104064
29	0xbfbdb01210ef9504	-0.1159678737017949
30	0xbfc6682b5e8cf1ad	-0.17505399815298742
31	0xbfc04762ef2d5bf3	-0.1271785419328065
32	0x3ff0e660fa673bd4	1.0562448293091977
33	0x3f92bcd1e9721110	0.01829841601694776
34	0x3fe1975adc5b5387	0.5497259429781572
35	0xbfe718db1721720b	-0.7217841579218328
36	0x3fdcb2cdb086c2a6	0.44841329802424423
37	0x3fe9eca3839bfd6b	0.8101365633482777
38	0x3fe7e5bc692940fc	0.7467939428261441
39	0x3fee27599a87f9ae	0.9423034685312837
40	0x3fc3407ea0502fc3	0.1504057200221479
41	0x3fcc91976e1e11af	0.2231931007082841
42	0x3fc41429941485dd	0.15686530809857305
43	0x3fbc3e3ce75a1e7b	0.11032467506640302
44	0xbfc48cab4cddae57	-0.16054288151950644
45	0x3fd202a85d1f9d96	0.2814122113618053
46	0x3fd78118dca87a08	0.36725446270602946
47	0xbfc48b9fe04872ac	-0.16051100207632396
48	0xbfc1a6a6f92c4452	-0.13789832274099695
49	0xbff1d1e5369ea46b	-1.1137439855176818
50	0x3ff07b1f523a8853	1.0300591671043733
51	0xbff4e92186823119	-1.3069167379608813
52	0xbfd0f35f1aed7bd2	-0.26485421781211216
53	0xbff4b5bed7fdc15c	-1.2943714558751571
54	0xbff0d8dfa05ea517	-1.0529476417962707
55	0xbfb3eaf5cd558d83	-0.07780395758668672
56	0x3fcc1baae30c0fbd	0.21959434591565055
57	0xbfed489f2240d295	-0.9151149434097358
58	0x3fe629252acc0f27	0.6925226055031758
59	0xbfdb092f8f4c2147	-0.42243565553555523
60	0xbfd840b0594f2a4e	-0.3789482948456325
61	0xbfed34ff6d5e6728	-0.912719453440535
62	0xbfe8e056b7bcab98	-0.7773851002324248
63	0xbfefc694adc86bf8	-0.9929908174702851
64	0xbfc20f30090c921c	-0.14108848993159107
65	0xbfd6b018f606e6e1	-0.35449813867636065
66	0x3f84d94966bd8584	0.0101800665358407
67	0x3fa703a74b9ca4d3	0.044949748973815006
68	0x3fcabadf04582a57	0.20882785522583688
69	0x3fb0fdc8e4f29c1b	0.06637244786780665
70	0xbfd207245a7628da	-0.2816859134114914
71	0x3fb5bb5fe0a7d917	0.08489035830266221
72	0xbfb532f0aaf8f3d2	-0.08280853437550142
73	0x3fa9edc2c9cd6f83	0.05064209664735044
74	0x3fc3ba623b45d899	0.15412547964269122
75	0x3fc54385490865f7	0.16612306657843565
76	0x3fcf8c5f8b68a4a4	0.246471350737271
77	0x3fc3b36b9d26e749	0.15391297505794402
78	0xbfa47a6cff9cb455	-0.03999653454079836
79	0x3fc05fa1f9d5580a	0.1279184789552235
80	0x3fb165e925862c2a	0.06796128431430817
81	0x3f994745a1885844	0.024685943588416373
82	0xbfc9f497e1652337	-0.20277689462297996
83	0xbfd674e3b1de2cda	-0.35088436479482044
84	0xbfcc5c9687ce019c	-0.22157556181992966
85	0xbfcbb7ae6779e6f7	-0.21654300739810825
86	0x3fc6d6083971a956	0.1784067421425088
87	0xc006b8d55a11ae2d	-2.8402506863256094
88	0x3fa4eac68a191d47	0.04085369525688037
89	0x3fe5d0abd9511730	0.6817225689380617
90	0x3fe27d23fe2b563d	0.5777759517902222
91	0xbff82e00a86df9b9	-1.511231096199124
92	0x3fd7fc0f57252656	0.3747595168139005
93	0xbfe0d00a62614887	-0.5253955766186359
94	0xbfaf799138cbfc44	-0.061474359687047314
95	0xbfe32e247411777a	-0.5993826167066196
96	0x3fd27984387eb0e4	0.2886667777736547
97	0x3fc75304d7b13e24	0.18222103626111263
98	0x3fec4e3d3b0e26d5	0.8845506814406813
99	0x3ff284337492d7ef	1.1572756341606654
100	0x3fc4a222e0194a7b	0.16119800512622703
101	0x3fe2009492a1c803	0.5625708450227197
102	0x3fcf677e00968a53	0.24534583119118966
103	0xbfc46ec782bb690a	-0.15963071711923532
104	0x3fdf87134bc755de	0.49261934662112405
105	0xbf86008ff593c64f	-0.010743260080263854
106	0x3feb0ebf0496da22	0.8455500688203907
107	0xbff32b2efd8335e3	-1.1980428603013642
108	0xbff4c8b51ceaacce	-1.2990008477743689
109	0xbf816bfeff0c2998	-0.008506767424042036
110	0x3fcfbcaf2096d741	0.24794568148871046
111	0xbfde35a5da8e50b6	-0.472024405892863
112	0xbfeef86950b852e8	-0.9678236557543558
113	0xbffed5f21c6a9769	-1.9272328481688084
114	0xbff901dbdd1ab451	-1.5629538189780485
115	0xbfeb15f00fbc9710	-0.8464279467923195
116	0x3fe08930082f4a54	0.5167465362413375
117	0xbfe2bf66d5deefd2	-0.5858644654431322
118	0xbff47fe47d981ad2	-1.2812237649938436
119	0x3fd7fec3ad0d5eb3	0.3749245824778697
120	0x3fb26a36cc0ef218	0.07193319780248719
121	0x3fb478557bc7b470	0.07996114990210557
122	0x3fc2765d0bdbbe85	0.14423716620466479
123	0xbfc28ef11259faa4	-0.14498723407810588
124	0xbfc48ddaeb32086a	-0.16057907566215884
125	0xbfb1f4f315d75edf	-0.07014388354525235
126	0xbfa6f81ac6bc5cb6	-0.04486163784002299
127	0x3fb8cda4f16535a1	0.09688788312379028
128	0x3fd195961deac837	0.27475502893060216
129	0x3fc3b0bc656047e8	0.15383105230335947
130	0x3fc332c7f270a3de	0.1499872144497933
131	0x3fdcf84859efbceb	0.4526539686475661
132	0x3fd50571944df7b4	0.32845725520007396
133	0x3fdedec7d3aa30ba	0.4823474471129533
134	0x3fddafe1ed1a3e9a	0.4638600173429751
135	0xbfd42d7fcb520c06	-0.31527705054776367
136	0xbfd228a6cba2ab9b	-0.28373117338440473
137	0xbfd2fb1f0ba0b76d	-0.2965772260239337
138	0xbfd1e9fed07a1b32	-0.2799069438846572
139	0xbfa326cb44a24c38	-0.03740534985367855
140	0x3fbbc6ae0c844684	0.10850036435683746
141	0xbfc2440c3fc2a5a7	-0.14270165551469668
142	0xbfd52f84d273efd0	-0.3310253195957076
143	0xbfc0db60d8846f7f	-0.13169489452490876
144	0xbfc96e3de84f554d	-0.19867681353813751
145	0xbfd27b9869fe34b5	-0.2887936625564394
146	0xbfca0befa0571fe1	-0.2034892590438622
147	0xbfc9d1f602094af1	-0.20172000026158046
148	0x3f767038b20047a5	0.005478116479951033
149	0x3f7a94e2a081efc1	0.006489644300128051
150	0x3fbe9f819ffef210	0.1196213737120575
151	0x3fa3a3aa70a7f636	0.03835804581829587
152	0xbfcc268381d62b5f	-0.21992534484555912
153	0xbfd30bfacf5fee7d	-0.29760618449629545
154	0xbfd2f036721b6721	-0.29591141837373597
155	0x3fcc65fb68862c51	0.2218622455951356
156	0x3fcc3debc3f4626f	0.22063967769715329
157	0x3fb6532bd38317d2	0.08720659173840709
158	0xbfbc842be467a8ce	-0.11139177633563976
159	0xbfe3617e01679c5d	-0.6056509044109465
160	0x3fb40045d209fdf7	0.07812916162401239
161	0x3fe7a261b10970cb	0.7385719735862265
162	0x3fb109706f5390d3	0.06655028074198137
163	0xbfd60bed1738fad3	-0.3444779135497075
164	0xbfd46bdfa018546d	-0.31908407816201284
165	0x3fdee360db5d45a0	0.48262807295130905
166	0x3fe8673f4d3a98c0	0.7626034267784902
167	0x3f68b1a7ca781a36	0.003014400211898828
168	0x3ff2bf6ac5c1efb2	1.1717326855568726
169	0xbfcc84768220f40b	-0.22279244760457603
170	0x3ff407d63284e765	1.251913258877232
171	0x3ff91f45b0c6bcfe	1.5701348214459467
172	0x3ff5311ce59bfbb5	1.3244904488671925
173	0x3feed448f75ae987	0.9634136992602159
174	0xbff36a17d97933a2	-1.2134016509109888
175	0x3fdb3acdbdb0b6f2	0.4254640915340665
176	0x3fe1368cfd34e2ee	0.5379090257111707
177	0xbfe49f749334bd8d	-0.6444647669904257
178	0x3ff05ec2f0e6dc17	1.0231351289965056
179	0x3fe81af494f25be2	0.7532904538264769
180	0x40018fe7c3ce7015	2.1952662751555274
181	0x3f718060ba2dbb01	0.004272821274624362
182	0xbff638e857579cab	-1.3888934528165844
183	0xbfccdd9edeb46d8e	-0.22551332353837633
184	0xbff2279f6880ec8f	-1.1346735078975916
185	0xbff3cbce5c8add1c	-1.23725734853162
186	0xbfe3a8d936d3d50d	-0.6143613882874505
187	0x3ff09bad96fbb900	1.0380073449883298
188	0x3ff698901a295662	1.412246801560649
189	0xbf9c78557d1bd387	-0.027802787552861054
190	0xbfecab4ecd597c6f	-0.8959115992291923
191	0x3fd1b6ca6e5571e2	0.2767816617468083
192	0xbfe61f3eb122f7ff	-0.691314073533931
193	0x3fd091abe6710d5f	0.25889108184875015
194	0x3fd35bfbcb8c9c41	0.3024892318521247
195	0xbff2e40ba5a9b9b7	-1.18067517006021
196	0x3fbe9da471f0d9d3	0.11959293157347099
197	0xbfd4bdd2deaf5f27	-0.3240859198244714
198	0x3f7286d722515f7e	0.004523125045203245
199	0xbff3e04ace681d78	-1.2422588408242898
200	0xbfe1899cdf9d4e4c	-0.5480484359235986
201	0x3f9cc8bc6b8ce26b	0.028109497131682575
202	0xbfc60dff3b13db5b	-0.1723021543945958
203	0x3ff094ba2a8708da	1.0363103543500558
204	0xbfe3a4b7fbb9bfb6	-0.6138572613253845
205	0x3fad5f5b79d8a368	0.05736814367657567
206	0x3fedb37eadd09fbb	0.9281609911749834
207	0xbfe94eb311633821	-0.790856870613201
208	0xbfc93693f69095d3	-0.19697808779998968
209	0xbfd91527fd0776ef	-0.39191627225760234
210	0xbfcfc762f2ac35ed	-0.24827229356053185
211	0x3fdd3369bd9e30ac	0.4562630035150146
212	0x3fdc51b5361feac0	0.44248705182659975
213	0x3fc195449baa7e33	0.13736779785993888
214	0x3fcbb8346c92d514	0.21655898381656213
215	0x3fb0339c3a2d6582	0.06328751011223768
216	0xbff60c6c1ce75aa9	-1.378032792000946
217	0xbfedd1b75438a55a	-0.9318501133867969
218	0xbfcc75084353237d	-0.22232154166547594
219	0xbf9616633f34faae	-0.021569777233930658
220	0x3fb3ab00ae77ef35	0.0768280435512992
221	0xbfc1c0faabb7424b	-0.13870175728381393
222	0xbfdec97e5f40a68b	-0.48104819585805875
223	0xbff66070224a9662	-1.3985444392686976
224	0xbff3bfdc11a3c674	-1.2343407334377874
225	0xbfe889612ebf2d9d	-0.7667699730895269
226	0xbfd4b69b00974412	-0.3236453538675629
227	0xbfe5add0f0e43d84	-0.6774677948869088
228	0x3fe0334053e1252c	0.5062562597533193
229	0x3fe3dabd465a3acc	0.6204515813895681
230	0x3fd36cb5e168ac83	0.303510160566198
231	0x3fc7bba11d81635e	0.1854134935445257
232	0xbfb3589fa31ff726	-0.07557103855648659
233	0xbfbaa22817057a8b	-0.10403681337400365
234	0xbfd53ab08049d288	-0.3317071202102757
235	0x3febfd1918fa5b57	0.8746457565165241
236	0xbfeab339e434bfba	-0.8343781907224106
237	0x3fe3da8967c18359	0.6204268480761171
238	0x3fec9daa9b82fc12	0.8942463910424314
239	0xbff3384577409fb5	-1.2012381227777784
240	0x3fe91c7a97727fb2	0.7847264249758068
241	0xbfc5a4f559350eb9	-0.16909663062880556
242	0xbfeabd57fdc4f125	-0.8356132465774279
243	0x3fe09afdfcf1784a	0.5189199390695276
244	0x3fd90cf8fd2d4636	0.39141678547193537
245	0xbff807b8f9a06164	-1.5018853903803455
246	0x3fdda94cd222f21e	0.46345825692313436
247	0x3fb7cf62e8bb173b	0.09300821477799286
248	0x3fe1c8d9f794126b	0.5557679973140471
249	0x3fd21e63f78c7af4	0.2831048886745713
250	0xbf954e5ffd8031d8	-0.020806789252718477
251	0xbffb22cd241ccaa5	-1.6959964190142867
252	0xbff4e468695861b1	-1.3057636370705092
253	0xbfe1ad9ed4ef8a0e	-0.5524439009571454
254	0x3fcfd8a33164c209	0.2487987509898775
255	0xbfd6f648d66ef831	-0.35878201428193096

linear_1.bias f8 [150]
0	0xbff0d5124bdab932	-1.0520194018423124
1	0xc00084dbcccab030	-2.0648723601680317
2	0xbfee8c5d837ba486	-0.9546344345118463
3	0xbff68d31269407f6	-1.4094707018816712
4	0x3fe87d06f81d9ad3	0.7652621122368494
5	0xbfea1c998c8a6c1c	-0.8159911866126808
6	0xbffc550e84b72016	-1.7707657989685734
7	0xbff0f92205b00f0c	-1.0608234617402017
8	0xbff3e7795f9d5a78	-1.2440122351596568
9	0xbfec7c8af7a182d1	-0.8902029835263311
10	0xbff56d0fa551a840	-1.3391262491009144
11	0xbff7575b6cddffac	-1.4588274242996517
12	0xbff5235875533389	-1.321129282284547
13	0xbff875e0453a1748	-1.52877833406224
14	0xbfdfd309329c607b	-0.4972556108709864
15	0xbfe236f1e94c88c4	-0.5692071491833066
16	0xbfeef6fe53994c2a	-0.9676505692281172
17	0xbfe9c5d13537c561	-0.8053976096545449
18	0xbfeb30fa255f0ee0	-0.84972865389906
19	0xbfee21be18cabeb4	-0.9416189655512057
20	0xc000f7283481a4b8	-2.120682153898624
21	0xbff3b540ec302990	-1.231751368150615
22	0xbff619a06e96a2ac	-1.381256515489592
23	0xbfca08c99e6f9ccd	-0.20339317546970506
24	0xbff146b9b4b90211	-1.0797669467430107
25	0xbff52570d1745ea7	-1.3216407949275124
26	0xbff1048bc5b4f6a3	-1.0636098597455337
27	0xbff964aa22b4a0d5	-1.5870763164221462
28	0xbffee286e30c8f84	-1.930304419432077
29	0xbff0f0f3ad13fc7c	-1.0588261376249468
30	0xbff9fe8eca277161	-1.6246478935855395
31	0xbfecc26f5133a1bf	-0.8987347207994886
32	0xbffc43c1c4972d3a	-1.766542213374875
33	0xbff62de9e28026d8	-1.3862093780211833
34	0xbffd4e3101731623	-1.8315897041915228
35	0xbfeea33ae135fcd9	-0.9574255369806465
36	0xc005b271b2f4f119	-2.7121309262275983
37	0xc002363402b462c4	-2.2764663897799853
38	0xbff68d40350c576b	-1.409485060901228
39	0xbff912e83523a8ef	-1.5671159816507119
40	0xbff45029723a0461	-1.2695707761743267
41	0xbff93881f34bbe7b	-1.5762958053345801
42	0xbff5342336419a06	-1.32522889322138
43	0xbfdb713dbbb2ca2f	-0.4287866909973301
44	0xbff964711bf20c77	-1.587021931802864
45	0xbffd9a2fa3862797	-1.8501430881173968
46	0xbfff7e1cb3e5f23a	-1.9682890918039804
47	0xbff64d2fdedb0d74	-1.3938444810199515
48	0xbff51847eb06c5c7	-1.3184279614182388
49	0xbfce329a830b31ee	-0.2359192981588331
50	0xbff2d0c42ec0060d	-1.175968344323681
51	0xbffb306a54d44b61	-1.699320155491215
52	0xbfed8ff283fe4835	-0.9238216951364452
53	0xbfff164bce50a8f1	-1.9429433879072884
54	0xbffd5e99ecdc651f	-1.83559601329609
55	0xbfe476aace7fdce2	-0.6394857438271198
56	0xc00406ca72e2fb18	-2.503315827896028
57	0xbff71a834b477cf8	-1.4439728680225112
58	0xbff20e93b5029416	-1.1285588331895773
59	0xbff73d8f4fd234a8	-1.452529250909075
60	0xc002378ddd941fc7	-2.277126055796518
61	0xbfff48fe2a32dbed	-1.9553205154786568
62	0xbfff95186786a0b2	-1.9739002269725856
63	0xc00051d8f04cebc8	-2.039964558932727
64	0xc0006e5b89af9b51	-2.0538855320659555
65	0xc001a1818192e74c	-2.2038602946239845
66	0xbfdb07159edac353	-0.422307400828733
67	0xbff2235d0208a601	-1.133633621162858
68	0xbff77397da3d6a53	-1.465720989703773
69	0xbffd8eb9b52f7746	-1.847345073466799
70	0xbffeba2fdb4ad142	-1.9204557958701831
71	0xbffa0a92fc55eb85	-1.627581582723651
72	0xbfeadcffdc9a2042	-0.8394774731286889
73	0xbff324f4edeeb4ca	-1.1965226454006364
74	0xbffa61140145419e	-1.6487007188444305
75	0xbffbea13e4d6dfab	-1.7446478785550237
76	0xbfe556291ab63051	-0.6667676469528577
77	0xbff67edee7b873c2	-1.4059742976744336
78	0xbfec144683b78bd2	-0.8774750301930629
79	0x3fdbc787eef1a687	0.43405340513582086
80	0xbff938717c237cb3	-1.5762801026501563
81	0xbff31512f7252728	-1.1926450399500457
82	0xbff03e853bd1cdf6	-1.0152637802792674
83	0x3fe1a399cf2ed8e9	0.55122080293111
84	0xbff23b7f11894831	-1.1395254788408347
85	0xbff41d91e527b6ce	-1.2572192145702732
86	0xbffc25da0bd56af3	-1.7592411482098071
87	0xbff8d94038a51f59	-1.5530397618003546
88	0xbfe2eee1a31bf8ff	-0.5916603265502828
89	0xc0019fa148145bf8	-2.202944338914218
90	0xbffbedd8f466bbf5	-1.745568232243156
91	0xbff27a35eb788ef0	-1.1548365781863446
92	0xbff6c3ba76589b73	-1.4227852461715116
93	0xbffc58128ee6157f	-1.77150207347708
94	0xbfe936c22065fea2	-0.787934363630445
95	0xbffe6ed91aab2660	-1.9020625154247668
96	0xc0017137f2f31388	-2.1802824955397604
97	0xbfda2aada35e3418	-0.40885487512497454
98	0xbfeec823c286f8dc	-0.9619311141357474
99	0xbfde2e4a9f62988a	-0.4715754086013325
100	0xbfd359ad8e7dba5c	-0.30234850802563584
101	0xbfeb0ade0dba8abb	-0.8450765865457791
102	0xbfe1c29975397a24	-0.5550048150578886
103	0xbfefd5cd51a9b4ac	-0.9948488802889606
104	0xbfde6f05b2449689	-0.4755262604615856
105	0xbfe6cf466fd59d29	-0.7128021415964315
106	0xbfe90a981d7792af	-0.7825432372597642
107	0xbfeac8b464a5a6aa	-0.8370000806582614
108	0xc009747b3bcde1df	-3.181875674458055
109	0xbfe157bce7e3bdce	-0.5419601945013086
110	0xbfd07b7cc8ac759b	-0.25753707501447715
111	0xbff432b27fbe3fac	-1.2623772611586714
112	0xbfe8b7b24f674896	-0.7724238921021136
113	0xbfe8a544262f5b82	-0.7701740976143443
114	0xbff503afb00bcd0e	-1.3133999707031907
115	0xbfebe5dbb9e537b6	-0.8718088751572768
116	0xc0033d9ad1caf908	-2.405080451018083
117	0xbff5cb6a7985e54e	-1.3621620890611044
118	0xbff9b24d0a9a9ebb	-1.606030503675284
119	0xbfe30e5801e722f0	-0.5955009495893062
120	0xbff77705f4f21da7	-1.4665584152406639
121	0xc0009774c8877e4f	-2.0739532152509024
122	0xbff79267e13f7076	-1.4732435988180703
123	0xbfdab9c98bf7aa15	-0.41758955639548506
124	0xbff7deb7db7be2ea	-1.4918745587912619
125	0xbfe4e739a07aa82c	-0.653225720821188
126	0xbffc92c34e4cd744	-1.7858307894325245
127	0xbff12532dbba4dcd	-1.0715817053904744
128	0xbff433aea84abb1e	-1.262617738142303
129	0xbff2f6acfb3d6fc8	-1.1852235616743076
130	0xbff48860f83cbf7c	-1.2832956024903686
131	0xc00255b14ef4a352	-2.2918420952231964
132	0xc00421e16fab6ecf	-2.5165432666961816
133	0xbffd328ef7fa52cf	-1.8248433767923193
134	0xc00106f90af667e3	-2.128404698986729
135	0xbfecd661f8eacf69	-0.9011697637238117
136	0x3fb14d4c6269b759	0.06758572962436683
137	0xbff693ebe8ca1095	-1.4111136525471342
138	0xbfec43b56e02f992	-0.8832652233757463
139	0xbfff613004a2c6b3	-1.9612274342620537
140	0xbfedb3c0a81c4936	-0.9281924518020677
141	0xbfe8895285eba84b	-0.7667629829059107
142	0xbffdb3060a766b14	-1.856206932897014
143	0xc0008d00605e6c5e	-2.0688483742538173
144	0xbff207294689415a	-1.1267483477896207
145	0xbfece042c5be7a38	-0.9023755895794414
146	0xbfec6aa544d20023	-0.8880182594439286
147	0xbffa269d835a0c77	-1.6344275599410858
148	0xbfd08df087bef6e3	-0.2586633039135064
149	0x3fefbdd0e8f7913f	0.9919209051263705

linear_2.weight f8 [150, 150]
0	0xbfa861e3a3c11566	-0.047621835460214965
1	0x3f907e9fadc6a9c8	0.016108031255194694
2	0xbfa067552a8461a8	-0.032038365783765343
3	0x3f9401c3cab21110	0.0195379822221336
4	0xbfa24e7abcc61e38	-0.03575500063294296
5	0x3f9aab33bc90a9c1	0.026043709167575594
6	0xbf82e93d56f95576	-0.009233931748137119
7	0x3f8e138bb0a55492	0.014685717895796455
8	0x3fa112f877e23513	0.033347859033805126
9	0x3f909b28b624a28e	0.016216884724743745
10	0xbfbe43bac3c13e69	-0.11822097090884544
11	0x3f827c14f0f1004b	0.009025729754398656
12	0xbfb522de6bd8db46	-0.08256330616937388
13	0xbfb1c93fc0ba9e23	-0.06947706656739476
14	0xbfb94c8dd2b8cd2b	-0.09882437128617443
15	0xbf917538da585e2c	-0.017048729254467584
16	0xbfb8dcfb56e312cf	-0.0971219145895461
17	0xbfb6a14d4c4ee3fd	-0.08839877236358969
18	0xbfcbaace035ca887	-0.2161500469604258
19	0xbfda460b1bcb3b42	-0.41052510942693143
20	0xbfab273e3b1d1fbf	-0.05303377601245484
21	0xbf54e1e16608f589	-0.0012745572240782951
22	0xbf90da2bde2ac7aa	-0.01645725768566534
23	0x3f982701f730cbad	0.02358630248290765
24	0xbfb51935544449b2	-0.08241589839261712
25	0xbfbb6c3ac3c8348a	-0.10712020187220808
26	0xbfbf070fa76d2d80	-0.12120149457512319
27	0xbfa9a8dd387416aa	-0.050116456166546655
28	0xbfbe6195a5db9d21	-0.11867652224792781
29	0xbfc1a218a2818668	-0.1377592843519324
30	0xbfad6c1f6c869d12	-0.057465536115438934
31	0xbf90f5467f746ab3	-0.016560651330204745
32	0x3fc3341bcb747637	0.15002772745440193
33	0xbfb6852aa716cce4	-0.08796946124384736
34	0xbfab248434a20b57	-0.053012973236966125
35	0xbf99f56eb35c4fd6	-0.02535031289797004
36	0xbf90843c1d71756d	-0.016129435822553818
37	0xbfb5131475d18415	-0.08232238651682196
38	0x3f90435e540fcbfa	0.015881990318984386
39	0xbf88e2be700cb0b0	-0.012151229662400759
40	0xbfc23f05e08b6aff	-0.1425483080300509
41	0x3f9106eae0c4c146	0.016627950638566057
42	0xbfa913c4b63cbaee	-0.048978945966487206
43	0xbfbeb8c723678a65	-0.12000698675505246
44	0xbf7c4ebfc8dfd148	-0.006911038550232292
45	0x3fc530ef3cea6177	0.16555586313621592
46	0xbf9a6b1e81c7487f	-0.0257992521963577
47	0x3fa58d9e34dd8ac8	0.04209608455018593
48	0xbfd5db3028fe462c	-0.3415031814884937
49	0x3f94adf1e95ac684	0.020194797389825783
50	0xbfb487c70dbd333f	-0.08019680104662273
51	0xbfc1688483261e0b	-0.1360021248221844
52	0xbfbd0ac75435d177	-0.11344571882165676
53	0xbfb919e6b338d4b5	-0.09805147052323344
54	0xbf7fbe0cc8b029d9	-0.0077496051189975485
55	0xbf9a55816fdf5740	-0.025716803029204316
56	0xbfda88d193f7e339	-0.4146007485392605
57	0x3fc2a9314a079f1e	0.14578834643111177
58	0x3f861f5624c618e8	0.010801957127807474
59	0x3f9372dfaa8d2f4e	0.018992895874631537
60	0xbfe478b2cf9e56c9	-0.6397337012337739
61	0xbfb896f5da7caa02	-0.09605347236780662
62	0xbfb8c536646b7719	-0.09675922347693379
63	0x3fa7f910dafd4ccf	0.04682209656916713
64	0xbfb8a488caad556d	-0.09626059482737555
65	0xbfb861e0e1abab0c	-0.09524350652251828
66	0xbfc010fca267ae44	-0.12551839761668948
67	0xbfd20b6e2fb787b0	-0.28194765720229054
68	0xbf6663ba782d357e	-0.002733101080059696
69	0x3f815f5a4e2f063f	0.008482652197815741
70	0xbfb25eb8b07e2df0	-0.07175783451946649
71	0xbfd782ee53248346	-0.3673663913669326
72	0xbfb469ef3e942905	-0.07974143293191467
73	0xbfc211a1d3912071	-0.14116309004225827
74	0x3f99e37987654a4f	0.025281809700866294
75	0xbfabdaf0ae18b7fd	-0.05440475583269231
76	0xbfc1c8613eb2cafa	-0.1389276081223086
77	0xbfbbe6ca335ac142	-0.10899032357952357
78	0xbfcb9d0413c3d7a0	-0.2157292458065827
79	0xbfae0ec64b24757f	-0.05870647113099902
80	0xbfbe0e0db7d3d623	-0.11740194070792902
81	0xbfb8b74e37d5f56f	-0.09654702056100971
82	0xbfd3b826587b82e6	-0.308114611061724
83	0xbfb149397f3da9f2	-0.06752356869188939
84	0xbfc5dcc013e215c6	-0.17079926462990452
85	0x3fa6bd03228ef609	0.044410798996505525
86	0xbf968ebc15518570	-0.022028864670919857
87	0xbfa6303f036e8f00	-0.04333683888333262
88	0x3f424e5f180a687c	0.0005586590123869552
89	0xbfb04d889e31d0b2	-0.06368306982205033
90	0xbfa221df9fc1ff8c	-0.03541468453568006
91	0xbfbf36827ddffeee	-0.12192550252074927
92	0xbfc0dad613d3a2a2	-0.13167835205174067
93	0xbfa45d8baa7b19ae	-0.03977619606080239
94	0xbfb88132b95c2497	-0.09572140717877385
95	0xbfa7aabeb3876b2a	-0.04622455541149002
96	0xbfc1170884a44990	-0.13351541973731829
97	0xbf964f20a53f7af1	-0.021786222539840364
98	0x3f8519f3878f3f5a	0.010303404402207828
99	0xbf95e59a03af1558	-0.02138367316708431
100	0xbfb2a5c508613eba	-0.07284194426142224
101	0xbfa379d483682f03	-0.038038865128411835
102	0xbf9e817cf808cbb1	-0.029790833128753472
103	0xbfb9648999becbec	-0.09919033053920118
104	0x3f93f3307153d640	0.01948238078781217
105	0xbf82cb621ddca97e	-0.009176985298456893
106	0x3fb2153af5970d73	0.07063644882059865
107	0xbfbf2c6dc6aacc32	-0.12177167988083751
108	0xbfb0bdf6c554b077	-0.06539861982008853
109	0x3fb3c79f5f2652bf	0.0772647483157227
110	0x3fa160c521691621	0.03394142182200378
111	0xbfae74496417e82c	-0.059480946987563094
112	0xbfc1bd92fe13bccf	-0.13859784513576875
113	0xbfbb5e178453f278	-0.10690447788869928
114	0xbfb24442e4b1b0e2	-0.0713540848098009
115	0xbfb9eb1651d476e5	-0.10124339578438997
116	0xbfb2c3eb919a0549	-0.07330200485923401
117	0xbfbf4de055268957	-0.12228204802389563
118	0x3f9c9486539b073a	0.02791032681739767
119	0xbfafad89bce720d8	-0.06187086516325885
120	0xbfbd134bfc473d21	-0.11357569607865915
121	0xbf8d8d9f9d5f1e6c	-0.014430281629656615
122	0x3fa6741bd6e3f4f3	0.043854589444871105
123	0xbfa197a964eb1338	-0.03436021191513422
124	0xbfbda6733a0374b2	-0.11582107702584457
125	0xbfb7720317afd5af	-0.09158343628208486
126	0x3f8e599c6d502759	0.014819357000323373
127	0xbfc0a0ddb9f970a9	-0.12990924435405773
128	0xbfa3defec72114f4	-0.0388106935575169
129	0xbfb21882c28cadd6	-0.07068650483841252
130	0xbfd3ea8e6c8bab0f	-0.3111911830916804
131	0xbfbe372022cdaf90	-0.11802864885038233
132	0x3fb46aa380c5ee3d	0.07975217718006263
133	0xbfc13ff6307328d2	-0.1347644554683201
134	0xbfacd707602dc08f	-0.05632803963715204
135	0xbfdce63802be34cb	-0.45155143993254104
136	0x3f7fad9a972b6d03	0.007733920926251916
137	0xbfc50866ca9b02eb	-0.1643188943180783
138	0xbf8f569165993957	-0.015301834023514855
139	0xbfa43dee08403aa4	-0.03953498697966509
140	0xbfcc45b1085a75b7	-0.22087681682471125
141	0xbfa23790bac66f13	-0.03558017997712972
142	0xbf9d687b2418b15d	-0.028718875959542135
143	0xbfb142ebffdc23f8	-0.06742739674167797
144	0xbfbd47f8582c7a38	-0.11437942650489041
145	0xbf914b6630aa1ec3	-0.016889187546012218
146	0xbfa1a1fd2e84f54b	-0.03443900292266252
147	0xbfb37c539e2326e0	-0.07611582384847848
148	0xbf93ff77d6fff2a0	-0.01952922105555166
149	0xbfb5f763dfd59d20	-0.08580612387378439
150	0x3fb93bd4561a2ed6	0.0985691747866285
151	0xbfc277f0e51f2448	-0.14428530871944845
152	0x3f99377cdc55098d	0.02462573141861806
153	0xbfba8d6f11274168	-0.10372060936720617
154	0xbfc151023cb01134	-0.1352846905066457
155	0xbfbd4a6dab94e8db	-0.11441693724637807
156	0x3f7b3dd3046d3b14	0.006650757108970468
157	0xbf84e47d898784ca	-0.010201435813487331
158	0xbfd65cb23a96ad09	-0.3494077274469452
159	0x3fb47241697cf977	0.0798684008159166
160	0xbfc0349888e83276	-0.12660509762681088
161	0xbfb66495cc85851a	-0.0874723076172085
162	0xbfbb1b8f46e7e1ba	-0.10588927727793065
163	0xbfc97859915b418a	-0.1989852866886504
164	0xbfd0e458ef9ad6d1	-0.26393721960935773
165	0x3f75b6def579f9f6	0.005301352437184983
166	0xbf8d50f2789587cc	-0.014314550690588755
167	0x3f48d519fc9c7ac2	0.0007578255547036827
168	0xbfb0cf3c0c35c3c1	-0.06566214845749042
169	0xbfb0dcace9e5acc6	-0.06586724005107944
170	0xbfc5dbab18477899	-0.17076624570376422
171	0xbfc43ad67634009a	-0.1580455853618375
172	0xbfbe30ff8b9b7ec8	-0.11793515356429929
173	0xbfc36006dec3ed1a	-0.15136800648893073
174	0xbfc7dc42c103c1e2	-0.1864093248800734
175	0xbfc20ece279178a3	-0.1410768216327983
176	0xbfc498bba17e789d	-0.16091103921366293
177	0xbfb7ebc1a7cb4b3a	-0.09344110819374132
178	0xbfb29a9a1a4ab632	-0.07267153875246704
179	0xbfba541fba48a76d	-0.10284612939781619
180	0xbfb1dae88c18c165	-0.06974652691201795
181	0xbfc0c408c4a8687f	-0.13098249056276143
182	0xbfc9d6b5324aaed2	-0.20186486201907045
183	0xbfae9dd3d4939aa3	-0.05979787797860083
184	0xbfc49eb44221fbb6	-0.16109326581132927
185	0xbfd18d14e989ca70	-0.2742359429022718
186	0xbfb0721cf00562c5	-0.06424122676743156
187	0xbfc265b2fb85ff6d	-0.14372861176888865
188	0xbfb21ec2c4b284c2	-0.07078187277012929
189	0xbfaac2aa6f92942a	-0.052266431922625436
190	0xbfc3cd4377f0b873	-0.15470164638958614
191	0xbfb5cbbba92212d7	-0.08513996962762903
192	0xbfc12901b2b375e4	-0.13406392312656046
193	0xbfb5b7a982701606	-0.08483371195332987
194	0xbfa5c09b14008538	-0.04248509043851317
195	0xbfbbbaba18815f14	-0.10831797693515127
196	0xbfb1b00b70919e9f	-0.06909247873556489
197	0xbfb0caafb8d087bc	-0.06559274923395625
198	0xbfd2a3a66345f2dc	-0.2912384004082875
199	0x3f99aabdb8197f01	0.02506538807062864
200	0xbfcd8a3ef4e59b68	-0.23078143079620905
201	0x3f9252e58c004131	0.01789435069082507
202	0xbfc3e89d2eccd10a	-0.15553631577643784
203	0xbfc59b6bee3bc967	-0.16880559093949474
204	0xbfb73384e2021c9c	-0.09062986867694395
205	0xbfc5c41ee711aef2	-0.17004762919110977
206	0xbfbbf4b2d319e8cf	-0.1092025533088503
207	0xbfc74099f2d737b5	-0.18165897710281134
208	0xbfc1956cb6d8b3e4	-0.13737257888843069
209	0xbfc0abc23251a7fb	-0.13024165589314393
210	0xbfcb0bda155ebcb6	-0.21129919093570998
211	0xbf7878bb77fca825	-0.005974514293294352
212	0xbfb5758f58d929cd	-0.08382507247112088
213	0xbfbbf3bd05af9952	-0.10918790234390954
214	0xbf9c309a6bc89471	-0.027529156521400148
215	0xbfb5feb8160157d2	-0.08591795480000933
216	0xbfa8ef19a57d9e56	-0.048699189616681224
217	0xbfc9c262d91c36a0	-0.20124469376644516
218	0x3fa9b8eb10d4e3b3	0.05023893909896717
219	0xbfc29f51fc9f7d49	-0.14548706851108253
220	0xbfbf7c47ae720bdc	-0.12299011238978558
221	0xbfc4b344442a05ea	-0.16172078445747157
222	0xbfc02e2e48ff6659	-0.12640932621325154
223	0xbfc3e84264ac8695	-0.15552549281806152
224	0xbfa885040d2b3f07	-0.04788983021501108
225	0xbfb563d297a75806	-0.08355442240221586
226	0xbfb5e61ed4c7c509	-0.08554260916550417
227	0xbfc3f1722df715e6	-0.1558058475913377
228	0xbfc8c33cd869ae97	-0.19345818106682053
229	0xbfb4246807b1f4cd	-0.07868051708097142
230	0xbf98a9a547847695	-0.024084646692350182
231	0xbfc3e33e3c600fd0	-0.15537240932473972
232	0xbfd7cccba5ed3772	-0.37187472537777133
233	0xbfbda6422702d12c	-0.1158181519738874
234	0xbfa1b6bb04b62b23	-0.03459724838747593
235	0xbfbb687f734a7caa	-0.107063260695656
236	0xbfcbfd8758b23447	-0.2186745818220592
237	0xbfc5e115d11aacd1	-0.17093155584493627
238	0xbfc78cfa343da5aa	-0.1839897875864101
239	0xbfc185bd70406f58	-0.13689392071762074
240	0xbfc79dbf68186720	-0.18450157721309157
241	0xbf93bffd339a56a5	-0.019287067675199627
242	0xbfa9d80a6fce2386	-0.050476385257815656
243	0x3fb51dadb71d9164	0.08248410912125831
244	0x3fa5c7505b2e049f	0.04253626931223064
245	0xbfc1e147e81721e8	-0.13968752701317944
246	0xbfb74bafcca40b68	-0.09099863763917215
247	0xbface9e096ec5062	-0.05647184221575753
248	0xbfcccf4c30fcb65e	-0.22507622138930378
249	0xbfb7a5683bebda60	-0.0923676630298842
250	0x3f60de181ed29c68	0.0020590277768693273
251	0xbfb9a78a25f9c368	-0.10021270205630872
252	0xbfb3c9dd88d7d3db	-0.07729897108931942
253	0xbfc5d8616f6a4d2b	-0.1706659120578505
254	0xbfa7b05db05e2ce0	-0.04626744058540466
255	0xbfb81a946d8ed866	-0.09415557551150897

linear_2.bias f8 [150]
0	0xbfeb412a8cbb07e9	-0.8517048596042943
1	0xbfd2a8139cce8cc0	-0.2915085822407484
2	0xbfd51649fbcbe828	-0.3294854124975495
3	0xbff0177a23b20a82	-1.0057317156176002
4	0xbff9a22d37ed4a4e	-1.6020939049382323
5	0xbfdb4e072bfe0ae3	-0.42663745208862575
6	0xbfe3413f23a18b77	-0.60171467742144
7	0x3fdb52aa101ca140	0.42692042897626337
8	0xbfde71c284221f8b	-0.4756933489193151
9	0xbfde623225d2e859	-0.47474340146766775
10	0xbfe07f4e0de4167e	-0.5155401488597844
11	0xbfeed79f0af95f4f	-0.9638209547365281
12	0xbfe519031491e5fa	-0.6593032266384278
13	0xbfbd1985c28942ce	-0.11367069243830061
14	0xbfdc7e59d39fd470	-0.44521184603156083
15	0xbfece484885f01f9	-0.9028952277658951
16	0x3fbc2b86a38fd592	0.11003915303429881
17	0xbfd85e9c4f645f4f	-0.38077457192547554
18	0x3fe974574098b8c5	0.7954517614032502
19	0xbfb4c6a7c0fcbed0	-0.08115623914340664
20	0x3fd3d6600997a531	0.30995942055467923
21	0xbfdc6012f1fb3055	-0.44336389189698383
22	0x3fe122a4029c6ef9	0.535478596782439
23	0xbfd417e076271c2b	-0.313957324393814
24	0xbfef33d65573f6ae	-0.9750777882579393
25	0xbfe348cb66cbf32c	-0.6026360519168512
26	0xbfd9a5bf89750548	-0.4007414667467697
27	0xbfe4d2daa46fcbbd	-0.6507390224127146
28	0x3fe116a201129e15	0.5340127964927343
29	0xbfeff383621bd5c5	-0.9984757343469758
30	0xbfda951b5198d7f2	-0.41535075157605583
31	0xbfc3e82bbd3e8e42	-0.15552279224822213
32	0xbfc583fc7346b48d	-0.16809039715500199
33	0xbff7421e55acb553	-1.453642210642404
34	0xbfe2439013705163	-0.5707474116957595
35	0xbfd5ff570b576ba5	-0.34370971782271403
36	0xbff4557b3f8faaf4	-1.2708694918498482
37	0xbfeb7351bfca8f06	-0.8578270669863464
38	0xbfd7e9938f38cd38	-0.37363137232314925
39	0xbfd558214eeedaa4	-0.3335040350752172
40	0xbfdb5fb162bec4ea	-0.4277156318958776
41	0x3ff7fd1a8749fa0c	1.4992928776479202
42	0xbfe0ec7f12c228d3	-0.5288691870094006
43	0xbffa89bba1df6f46	-1.6586262057453083
44	0xbfe37e7bd36f9965	-0.6091899041755765
45	0xbfd425aaec1dc534	-0.3147990518401287
46	0xbfe9ba2839e1e192	-0.8039742594256032
47	0xbfd85626a25d5d95	-0.38025823455742486
48	0x3fd2de77bf6e7038	0.29482835478279723
49	0xbff34cc9d6a6a4b0	-1.2062471756747009
50	0xbfe3d7a0caaa252c	-0.6200717886251019
51	0xbfe964b1abace7a0	-0.7935417511973704
52	0xbfef7cf08621c03b	-0.9840014095079889
53	0xbfdcc69926c27f67	-0.44962147507793876
54	0xbfd647a071f59c6f	-0.34812174919938504
55	0xbfe8501da6b7068c	-0.759779763808369
56	0xbfb88965dccd6883	-0.09584652558024413
57	0xbfe97f7a603d8486	-0.7968112830823351
58	0xbfe074b6e70b81e0	-0.5142473709675492
59	0xbff94fedde922a77	-1.582013959329428
60	0xc001f2678a9de74e	-2.2433615521848997
61	0xbfc13cef3d05f59f	-0.13467207412388135
62	0xbfee715004723e2c	-0.951332100566963
63	0xbfee6be5b6a31216	-0.9506710593346408
64	0x3fde103da3e8fbf8	0.46974125868649663
65	0xbfe68c03671815db	-0.7045914662891691
66	0xbfed8a969366bdc1	-0.9231675032551082
67	0x3fe646e4ee4bbd81	0.6961540846076987
68	0xbfefe2a6e67a99e9	-0.9964174748936873
69	0xbffee4689c8ea0aa	-1.9307638278496975
70	0xbfea197a82b17ad5	-0.8156101753810058
71	0x3fd4511b1f8b782e	0.31745031433627247
72	0xbfd2380eb9dca412	-0.28467147970747064
73	0xbff4266d139a9749	-1.2593813672805985
74	0xbfd3ffeb68528bae	-0.31249509036768586
75	0xbfe1f6a41be5390b	-0.5613575501281799
76	0xbfc7009ed240d9b1	-0.17970643297458147
77	0xbfdb7f3c5a43e97f	-0.42964085402459057
78	0x3fd6620e58cdac89	0.3497348658772315
79	0x3fb453f2705b7bf2	0.0794059299764596
80	0xbfaec9dc4bf2aab1	-0.06013382365320775
81	0xbfdfe37098d31d5f	-0.49825682567867163
82	0xbfd21cb981a124d8	-0.2830032125389841
83	0xbfd155f6b11fab62	-0.27087180421101753
84	0xbfe6d14cf0ad8d45	-0.713049383234115
85	0xbfddbda6721cc514	-0.4647003282908184
86	0x3ffd64c5736da910	1.8371023663444852
87	0xbfd32868388f8d19	-0.29934125445852683
88	0xbfe4080b04b98c6b	-0.6259818165093639
89	0xbfd56507cad61eb5	-0.3342914086174276
90	0xbfc9a1541eda4940	-0.20023585802534605
91	0x3fb93f1229b0e86e	0.09861863630149667
92	0xbfd5afb5c329a143	-0.33884948786591823
93	0xbfba8ade694b9f8e	-0.10368146963776168
94	0xbfe4d394afcd5ac1	-0.6508277352939659
95	0xbff37ace7f35d517	-1.2174820870544119
96	0xbff092972af4445d	-1.0357886960885232
97	0xbf95eb4b81978c2e	-0.0214053914877576
98	0xbfd343462f322b3e	-0.30098108872396157
99	0xbfdbc51fb98c1e6c	-0.4339064895616278
100	0xbfe564c4bf63e8de	-0.6685508478251696
101	0xbfc56782bfb8d629	-0.16722139703203823
102	0xbfd4dc63427b984d	-0.3259513997312567
103	0xbfe4cfb276147e19	-0.6503536516428908
104	0xbff43f5d461bb529	-1.2654698122599461
105	0x3ff3173292d82f85	1.1931634651291187
106	0xbfe5092111d96932	-0.6573644016855609
107	0xbfe609288a6011c3	-0.6886179640428555
108	0xbfd4dd5dd6f1c327	-0.3260111426416636
109	0xbfcfda964298db97	-0.24885824443637425
110	0xbffa384ed0f25bd7	-1.6387470399838457
111	0xbff06f076a46e0f1	-1.027106681007407
112	0xbfe4b3aa67b6387b	-0.6469318414326745
113	0xbfe0945fa0dc34f8	-0.5181120054054693
114	0xbfd947f795ec2911	-0.3950175251089983
115	0x3fd0ae8ac1d102f8	0.2606531994570527
116	0xbfda10e08cbe3f26	-0.40728009933899256
117	0xbfc1239a670e4e09	-0.13389902145409874
118	0xbfd92d63337c92e3	-0.3933952334212291
119	0xbfd921eccfdb3b30	-0.3926956205222494
120	0xbfd3367715bb3381	-0.3001992904872211
121	0xbfd83efcb65532da	-0.378844430980093
122	0xbfc8e1a27f1a4fdb	-0.19438582616987685
123	0xbfd11bf95020a1a6	-0.26733239006946474
124	0xbfeb97f4b52a2009	-0.8622993028993743
125	0x3fc329a4796f3c0b	0.14970832757396155
126	0xbfd7e575fce82416	-0.3733801812928176
127	0x3fcb785573864af3	0.21460979595993698
128	0xbfedbc84ab7a176f	-0.9292624806555362
129	0xbff4ee7bef94ffb1	-1.3082236632035171
130	0xbfc88ddcdb324b3a	-0.19182930663063208
131	0xbfda91dbcecceeba	-0.4151525039230638
132	0xbfdecad36da232ab	-0.48112950998692366
133	0xbff0e5f399617924	-1.0561405173717242
134	0xbfe5c4b8496d7023	-0.6802636560564718
135	0xbffe2ab68da60cde	-1.8854280026578674
136	0xbfdf764a6eb25ada	-0.49159489450668803
137	0xbff795bfaec76199	-1.4740597560213244
138	0xbff54c6845e03cd5	-1.3311541299370238
139	0x3fe83bfca6275864	0.7573226208867365
140	0xbfedb39d0f8ec820	-0.928175478349889
141	0xbfe58d162e1958e3	-0.6734724903460826
142	0xbfca1c5d878a7ebc	-0.20399064176762305
143	0xbfad4b86a6a831ca	-0.05721684250247312
144	0xbfd8cf1219d235eb	-0.38763859292597996
145	0x3fe1c60af80cbfe4	0.5554251522753444
146	0xbfced09d7b3904d0	-0.2407414294885144
147	0xbfdb735d1300992a	-0.42891623359391196
148	0xbfe025ae2c282973	-0.5045996534766303
149	0xbff6129d869eb552	-1.3795447596160852

linear_mu.weight f8 [1, 150]
0	0x3fc480a34068f791	0.16017571110745313
1	0xbfaa14e72f12fc58	-0.05094072770725039
2	0xbfa1a232cce1963e	-0.034440600881492575
3	0x3fb1909c2b198b2d	0.06861282398453446
4	0x3fc5a1336f5d700f	0.16898196161025722
5	0x3fd40549ecda479a	0.3128228009237489
6	0x3f99161ceb58e99b	0.02449841677137386
7	0xbf707fb2c4560b55	-0.004028032596923155
8	0x3fb3ab55acb3d2a4	0.07683310953491201
9	0x3fc5093a808bdbcc	0.164344132200965
10	0x3f6464b8fa44fee9	0.0024894345134781515
11	0xbf9280c97b903c14	-0.018069408575737425
12	0xbfc0eaf7fe61cf1c	-0.1321706764316496
13	0xbf9b824bced8c4e8	-0.02686422777168654
14	0xbf81668823b065f3	-0.00849634512819628
15	0xbfda4336b48875e0	-0.41035239820652514
16	0x3fc204005d6bea17	0.1407471138152949
17	0x3fb1e3b7734ebb3e	0.06988092961431122
18	0x3f8ed3f0ee36ae29	0.01505268313379478
19	0xbfa9bd2ef08f716b	-0.050271479478143664
20	0x3fc2207f0fd9ba39	0.14161670946073615
21	0x3f9d7d86ddb4a242	0.028799159318767538
22	0x3fab7d93035f8de6	0.05369243065049627
23	0x3fc6b82bd9253d0c	0.1774954614906864
24	0xbfb7ebc6f2a26db9	-0.09344142364209675
25	0xbf98b6c1f2a1f1a2	-0.02413466494952988
26	0xbfaeaf5a33a680e5	-0.05993158226488208
27	0xbfb91ff5dd3ad008	-0.09814392710796949
28	0x3fca9f5a9e8a1cb1	0.20798809758364237
29	0x3f9901cbc7e615f4	0.02442091376862794
30	0xbfcb45b88fd2a326	-0.21306521437261344
31	0xbf9bdf46e8b3f346	-0.027218921616611234
32	0x3fb5959ff2f4018b	0.08431434327576974
33	0x3fbf3c63dcc5f333	0.12201522960635884
34	0xbfca1fad673abaeb	-0.2040917161989094
35	0xbf98135f34d81296	-0.02351139793428788
36	0xbfd235f295139ef3	-0.2845426994158366
37	0xbfb2763d3ec24699	-0.07211668760489899
38	0x3f86e6f8cc418430	0.011182731374164673
39	0x3fc3ddeb841f0e4b	0.1552099604724496
40	0x3fc036194bbcb0c7	0.1266509647188114
41	0xbf56daa966e07faf	-0.0013949064555234083
42	0xbf39041b671a9b72	-0.0003817145253414623
43	0x3fa05d4a0539ec6d	0.031961739671680124
44	0xbf9c9711db40e8ca	-0.027920035369086084
45	0x3fd6228c8f942a4e	0.34585870763172444
46	0x3fae123ae3a93e42	0.058732834139501935
47	0xbfd04ebbf2ad8318	-0.25480555247308834
48	0xbfabcbcd15803e3d	-0.054289254068973204
49	0xbfc0facc9e527af5	-0.13265378695083255
50	0x3fa30e3749c88a80	0.03721783424068281
51	0x3fb7f40628c4d456	0.09356726165135973
52	0xbfb580b072859d6a	-0.08399489208169589
53	0xbfcce83742576b18	-0.22583666552858328
54	0xbf7e7ef965c895e0	-0.007445310792296905
55	0xbf921aacbcde73d9	-0.017679881122251693
56	0x3f99c31c38cb52e6	0.0251583490051698
57	0xbfaaf64559b17c5c	-0.05266014785660708
58	0xbfa62721fc29e246	-0.04326730921906523
59	0xbfadc7c0302b7151	-0.05816460216530806
60	0x3fab2aaaac9e738d	0.0530598960606091
61	0xbf9dd4de9d1144ad	-0.029132345520626646
62	0xbfc56b1247013151	-0.16733005969070772
63	0xbfc3b2df7cfae794	-0.15389627077621226
64	0x3fb342902d4cff1d	0.07523442369437956
65	0xbfd237802b3a706d	-0.28463749143134615
66	0x3fdbbf1d24dd1f12	0.4335396633145915
67	0x3fa2321d0c23516b	0.03553858540695639
68	0x3fb3110bc9197c1d	0.07447885188729271
69	0x3fcd949900538451	0.23109734073571755
70	0x3fb7850daf002f1e	0.09187398455122461
71	0xbfb2731217638ed1	-0.07206833907144562
72	0x3f83cd5956a3220a	0.009669015842875179
73	0x3fad72283e9e0b66	0.05751157535907829
74	0x3f84a806c329c2a8	0.010086109953790626
75	0xbf9563fb69f79f84	-0.020889213888863903
76	0x3fb35fdc2b24f5bb	0.07568145802812058
77	0xbf86f11eb7b250a0	-0.011202087384198756
78	0xbfbf40ad0bf687fb	-0.12208062688890202
79	0xbf8da683ac24d864	-0.014477757159152733
80	0x3f91503ee3248c67	0.0169076753746932
81	0xbfc8adcc9f5ff733	-0.1928039339253985
82	0x3fa296aa4928e2f4	0.036305734091404945
83	0x3fa67d0777fd7b22	0.04392264690135607
84	0x3fc2ae3084297e60	0.14594084218241488
85	0xbfcc133f789dbc08	-0.21933740033588855
86	0x3fc6a09b775ae431	0.176776345518904
87	0xbf95f3e0ba49e57a	-0.02143813263908132
88	0x3fa633b62a742ba7	0.04336327808604006
89	0x3fa30706373ed9c5	0.03716296600707695
90	0x3f812c2df05be8ad	0.008385046861338752
91	0xbf9b2b5e313df905	-0.02653262305784045
92	0x3f8ef21086ee115d	0.015110139005408635
93	0x3fb2e1e41cec8a77	0.07375932413246199
94	0x3faaee58f6441637	0.05259969717193907
95	0x3fbee068641d815d	0.12061169094295594
96	0xbf42c7414d167a20	-0.0005730694630761736
97	0x3fa8b8a56ef6c4e4	0.04828373889484697
98	0xbfb36c673159b90f	-0.07587284998746589
99	0xbfa57c7d1dcba6cd	-0.041965398680827805
100	0xbfca5a28bbe804f2	-0.20587643790353344
101	0xbfa04e4d5e981876	-0.03184739856446665
102	0xbf8df1b9de97f4cd	-0.01462121210624403
103	0xbfa9f3f1736def18	-0.05068926366854337
104	0xbfc117173b2f8941	-0.13351717367101837
105	0xbf93b7f69b67193c	-0.019256451830892404
106	0x3f9ad8dcf14a90f0	0.02621789190983831
107	0xbfb8ec7bc6e41b02	-0.09735845189798556
108	0xbfbaf89dbae0be16	-0.10535608112763159
109	0xbfb16156285dbc73	-0.06789148793699144
110	0x3fba57915cb2db2c	0.10289867890501786
111	0x3fc5d32e6b01adc5	0.17050724244050577
112	0x3fb474990ca3cfa1	0.07990414198485364
113	0x3fb7b9f7d04b510e	0.09268139682109597
114	0xbfc47ebea5cd8d5f	-0.16011794181677438
115	0xbfb4d17a08a8fb33	-0.0813213606970578
116	0xbf9a1f4321506313	-0.025509880932165063
117	0x3faa585dcbef2ad9	0.051455432075803116
118	0x3f640aa87c096518	0.0024464884484528653
119	0xbfd6eebfea33452c	-0.35832212325211077
120	0xbf856aabadc781a6	-0.010457364312004124
121	0xbf949eba5f05b9db	-0.020136749314980534
122	0xbfe13d70f6c01840	-0.5387501544325985
123	0x3fa0a98f3c76167c	0.03254363644650213
124	0xbf96556087d5787b	-0.02181006268562456
125	0xbfb1de9b7ef8a1ee	-0.06980296945460626
126	0x3fb9e0a82ea093f7	0.1010842431865767
127	0xbf8022361fd96fec	-0.00787775311180635
128	0xbf979e7f76fb09b7	-0.023065559041023777
129	0x3fa27b9e7fbc3ded	0.03609938916462938
130	0xbfae044ddea8c55e	-0.05862658827789845
131	0x3fbfbb0ab05b49f6	0.12394778066235532
132	0xbfc54b2f8e075a78	-0.16635698733326243
133	0xbf91becf4d11ec27	-0.017329444006900865
134	0x3fbb1e10ead1ca6d	0.10592752201936557
135	0xbfda9dfdb64f44f1	-0.4158930092208513
136	0xbfaf4420c2422646	-0.06106665011709515
137	0xbfa175cce53565e1	-0.03410187051731462
138	0x3fceeefa7c402a92	0.24166804377485512
139	0xbfcd521fb178f436	-0.22906871953628788
140	0x3fb3fd724f84137c	0.07808603707606027
141	0x3fb4ccd7479a721e	0.08125062463882002
142	0xbfd09f3647e4bdab	-0.2597175314030788
143	0xbf9273cef4276206	-0.018019899036376706
144	0xbfb2bdbef950ebd0	-0.07320779406374744
145	0xbf7ce9d7a4c397c2	-0.007058946950769087
146	0x3fa152e7925de0b0	0.03383563672736167
147	0x3f87355352dc1201	0.011332179037261804
148	0x3fc240d2bccb20f3	0.14260324686461665
149	0x3fc18f7b81d33064	0.1371912368689464

linear_mu.bias f8 [1]
0	0x3f9b3e7ee4657be4	0.02660558957120064

linear_sig.weight f8 [1, 150]
0	0xbfd951f654ffd537	-0.3956275777885198
1	0x3f6e0a3929ac0b22	0.0036669842205595696
2	0x3f8ae15ea0f77adf	0.013125170981707011
3	0xbfa9196cade6b853	-0.04902209875886911
4	0x3fdc5a5a7dd0c2c2	0.44301473890940823
5	0x3fd5f878ccb17d1c	0.34329051961499757
6	0xbfc67eb4923dbb82	-0.17574174061470776
7	0xbff500961fba74ac	-1.3126431693447485
8	0xbfe1441f9e031915	-0.5395658575223786
9	0x3fdd395e400ced11	0.456626474904355
10	0x3fae95ac30beb4b3	0.059735661459265364
11	0xbfc89491c452576d	-0.1920339783288755
12	0x3f954924511652f6	0.020786826562090042
13	0xbff0453e4c583161	-1.0169051153380553
14	0x3f6516b1efb00458	0.0025742984121284555
15	0xbfa1a7514f80208b	-0.034479657129908046
16	0xbfc67c8eb3499ac2	-0.17567619089387249
17	0xbfda1d6395f50fe2	-0.4080437626291752
18	0x3ffa2213ff4e6abd	1.6333198521521546
19	0xbfe1f957d47bdfb9	-0.5616873884273367
20	0xbfeaf1440922fcb6	-0.8419513872576292
21	0xbff1d1dfe0e6ee27	-1.1137388978230633
22	0xbfe534567ef03345	-0.6626389006865813
23	0xbfbedc4087be51d4	-0.12054827989624722
24	0xbfea45cd944c2714	-0.8210208794054972
25	0xbfd1857bea7e1c2c	-0.27377221965474763
26	0xbfb910690822d71d	-0.09790665100703362
27	0x3fe3dc13f97b3099	0.620614993350972
28	0x3fcb5086a9803010	0.2133949592247295
29	0x3faf9ddd868d09fa	0.061751291918444154
30	0xbff4b41f7724e831	-1.2939753202504216
31	0xbfa505c1a1d1f90a	-0.04105954265922847
32	0x3f8ea0d060027aee	0.01495516579626385
33	0x3fbb0e3266936614	0.1056853771618978
34	0x3fc36632f0488043	0.15155636532381508
35	0x3fa0080d64b826f1	0.03131143431171591
36	0xbfddc530df1fadc8	-0.46516057767322794
37	0xbfd0415f3bd965fc	-0.25398999066018724
38	0xbfabd70c24b095da	-0.05437505672334071
39	0xbfd73ff284711616	-0.3632780354858779
40	0xbfc72c4d82f2aa9c	-0.18103951353017045
41	0xc0001de7a74ccdf4	-2.0146020002664446
42	0xbf96b262acaafbab	-0.022164861477672975
43	0x3fced431a1e2b113	0.24085064320150504
44	0xbfa9fe893665da35	-0.05077008046184909
45	0x3fce9f02452166f2	0.23922756553184105
46	0xbfffd6d794974fc9	-1.989951687272866
47	0x3fa74395ebc3969e	0.04543751242617343
48	0x3ff9fc91ede17db2	1.6241626064510055
49	0xbfdf2deccdc38872	-0.48717804044839064
50	0x3fb1c606df821b0b	0.06942789990180757
51	0xbfd743188d89c6ea	-0.3634702093323613
52	0xbfe91f688bd35a39	-0.7850840311974202
53	0x3fd5db0952b494ea	0.3414939220113654
54	0x3faf67c2710d208a	0.061338497448162846
55	0xbfa38b2ed07af3f9	-0.03817125601697308
56	0xbfe3339f1ff52220	-0.6000514625712334
57	0x3fb9af8e221b5c57	0.1003350098866219
58	0x3fa0823b3755462f	0.03224358606770427
59	0xbfe430ceb2062351	-0.6309579350500859
60	0x3ff34544c44f9ddd	1.204411284293989
61	0xbf9a86b880cc2a7f	-0.02590454374425599
62	0x3fd9f7e5c38dd5dc	0.40575546357226044
63	0x3fdf7456dcf3fa84	0.49147578790135804
64	0xbfdced740451214b	-0.4519929926068655
65	0xbfe97a7641dd777b	-0.7961989675929851
66	0x3fb9e3e9d5b0bb34	0.10113393275308341
67	0xbfd9f33e3d7b0088	-0.4054713821788103
68	0xbfa72e3ef8a94a09	-0.045274703840409165
69	0xbfbabd2954e8a28c	-0.10444887469260261
70	0x3fe63765932819e1	0.6942623018410893
71	0xbfe878a9f91b31cf	-0.764729486976245
72	0x3fb4886506b25fdc	0.0802062169408368
73	0x3ffdc1f39e4c2a48	1.8598514731881028
74	0xbfaa73c91d8efccc	-0.05166462407896119
75	0xbfda02c430e2b58a	-0.4064188458822505
76	0x3fb38404947b2ef4	0.07623318314579902
77	0x3fe14727cf5d9ea8	0.5399359750853892
78	0x3fe409548095a5d4	0.626138926641199
79	0xbfc81476c2ed3521	-0.18812450902843472
80	0xbfe4df7bdb2338a7	-0.6522807388335153
81	0x3fd3573b782fbada	0.30219923722226627
82	0xbfce0f4618029e8f	-0.23484111950277906
83	0x3f591f0cbb08ef00	0.0015332817385020348
84	0x3fbcda2bd4b9a3a3	0.11270402854428467
85	0xbfd147a3bf85c52a	-0.26999753669140836
86	0xbff0586c72625cae	-1.0215877979406218
87	0xbf91d3ab95615246	-0.01740902041668082
88	0xc000b620caee337b	-2.088929734606095
89	0x3fccd60f8189b019	0.22528261017885212
90	0xbfa9dd1453cf813e	-0.050514826994688
91	0xbfae41b8c89893fc	-0.05909516762429942
92	0x3f8e57a6b7a27faf	0.014815618971908721
93	0x3fa5324e4e350f10	0.04139942841223221
94	0xbf9b116016b9b283	-0.026433469187781455
95	0xbfe0e040b77f255d	-0.5273746093672959
96	0xbfb7c56a9579f6b5	-0.09285608434034993
97	0xbf725849102ebf6c	-0.004478726771523483
98	0x3fe2326578a008a9	0.5686519008597958
99	0xbfd3b76aabb2ad1c	-0.3080698658693153
100	0xbfe356e0eb073175	-0.6043552961723849
101	0x3ffce49399fb2726	1.8058048262486834
102	0x3fa138690bfcb8e8	0.03363350173309404
103	0x3ff62fec735f0bc0	1.386700106305156
104	0xbfddb2c222acb0c0	-0.46403554331005736
105	0x3ffc425359b016e2	1.766192770331536
106	0x3fb1029520dd5a37	0.06644565632209597
107	0xbfa9ad183271533d	-0.05014873138194396
108	0xbfb545ca1df5c3ad	-0.08309615355916718
109	0xbfd5adb8d11f919c	-0.33872814581106936
110	0xbfe8510fc9a89b17	-0.7598952234883168
111	0x3fd064e7659bc3dd	0.2561586849470226
112	0xbfe8f79b676d6999	-0.7802254695955525
113	0x3fd6ae8f3f2bea22	0.35440426987739404
114	0xbfc0c8d66a7daaa6	-0.13112907600164653
115	0xbff22375ef32f6ec	-1.1336573928560325
116	0xbfb708103efd1802	-0.08996678865250377
117	0x3f9c2bf661990fd0	0.027511453349020887
118	0xbf86c8ddc3be7887	-0.011125309501775383
119	0x3fd5f86019c5c124	0.34328463093608463
120	0x3fb91735c5ec9f4b	0.09801040727745407
121	0x3fa5102eacbc64f0	0.04113908632843699
122	0x3fc709ee9650b7b2	0.17999060001005557
123	0xbfa4112c4bab1367	-0.03919351981816171
124	0xbffd381fbea36512	-1.8262021490866727
125	0x3fe96fb0401e3cfd	0.7948838474566454
126	0xbfd30e0c7de1b39b	-0.2977324704468686
127	0x3ff6736b51d3b83b	1.403178519856296
128	0xbfdf5ecb893e1000	-0.4901608314760324
129	0xbfd816740c269ebf	-0.3763704413090458
130	0xbfcfe483242c5aa2	-0.24916114107391701
131	0x3faec5e97724fb46	0.060103698534013136
132	0x3fb002d287fbdb7d	0.06254306621472767
133	0x3fee12f26962ec23	0.9398128565147811
134	0xbfe311cf7ddb4a8d	-0.5959241350304453
135	0xbfed7658d7e72196	-0.9206966606953297
136	0x3fe743023b090802	0.7269297745735914
137	0xbfcd6fb96d6651aa	-0.2299720558336394
138	0xbfe8eaed6d228124	-0.7786776668108684
139	0x3f9ab6935a590361	0.026087095631967986
140	0xbfd0dd7742f0aadb	-0.2635172036849959
141	0x3ff18b3ca6e2d479	1.0964933890329844
142	0xbfd9c80a5fb15618	-0.4028345045565813
143	0xbf7246152d9fb260	-0.004461367347158601
144	0x3fac5204816bd4b4	0.05531324462746437
145	0xbff728e1aaae5ff3	-1.4474808375580295
146	0xbfffa60ec6e3fbbb	-1.9780414361155028
147	0xbf739e72517800dd	-0.004789778285612748
148	0xbfdfe461621d4beb	-0.4983142336033654
149	0x3f042aa52e332826	3.846470442565889e-05

linear_sig.bias f8 [1]
0	0xc01bf8e8d6c54602	-6.993075710096948
