model_chkpt/ensemble_networks.pt (torch, 990225 bytes, 40 tensors)

linear_1.weight f8 [150, 8]
00000000: aa18 4b2a abab d43f 037c e30c 762a babf
00000010: bae3 99ab c20e bd3f 4bed faac 53af e1bf
00000020: d506 5393 5448 d0bf a2dd 0003 e594 b53f
00000030: 0d8a 70f8 e952 d83f ceb2 1ad1 90b3 c73f
00000040: 59af 4b4c 78d0 d13f e4ea 91d7 bf51 d03f
00000050: ec47 3ca0 e060 d23f 63b3 92eb f6b4 9abf
00000060: d31a b0cb 4a5f c0bf 8cea 3dfd 00e2 b73f
00000070: 8bd1 8a01 f8c2 bb3f e931 2c3d 3105 963f
00000080: 21aa e108 4211 dcbf ea87 1a50 d9ac d1bf
00000090: 6d7b 013f 6b7e d4bf c27f d8e8 106f ba3f
000000a0: e303 896e 3b21 db3f fbe0 769d 111d cabf
000000b0: 828d 4c1f 2523 d2bf 2733 58be 76a8 f0bf
000000c0: 51db 4b6c 443a e2bf 9dac b952 8110 bf3f
000000d0: 8a56 10b5 31f7 e1bf 49ae 1724 2666 c7bf
000000e0: 8f3a dfbb 64cb cdbf c471 55ba 71c3 dfbf
000000f0: 41e0 e4e1 ac5e 923f fa7a 96ec 573d dbbf
00000100: 70cf 6394 5b41 c13f 8492 6cdc ced5 e0bf
00000110: aa83 64fa 5674 d03f ec63 9ce4 0d42 e9bf
00000120: 5e3c 1395 abc2 d7bf cd92 6453 887e e2bf
00000130: c2e7 f649 a031 dd3f 0288 0b07 8a61 da3f
00000140: c801 0b4f c51b c33f b9ab df55 3c3a 8e3f
00000150: 58e1 a0db 3129 ba3f a93a 24d6 422f 9ebf
00000160: 8d82 afcf c5c4 cfbf fb54 ce4d e5ff 9f3f
00000170: b2d8 9819 a460 c93f e855 b87c 77e8 913f
00000180: 2f10 6e2b 75af cb3f 37ad 6f38 2438 d13f
00000190: 40bc dede d465 d03f 09bd f293 5d01 c73f
000001a0: 66c6 baf5 3cd9 bfbf 5a6f a750 bfac dc3f
000001b0: 1aee 591e 8926 de3f e36a 301b 6307 cc3f
000001c0: 4c9e d15e 95bf d13f 0bad 4958 060b d63f
000001d0: 6d7d e9f0 1a5d 913f 2d72 9e3b 9f91 d5bf
000001e0: f7b0 11bd 5610 d4bf 069b 07e5 126e a93f
000001f0: ce59 2631 1b54 c33f 9402 c8f5 712a f5bf
00000200: 3651 de8e 32b6 d1bf db17 2f00 2c60 d3bf
00000210: 29c3 2a17 2bb0 d4bf 43ba 0dab b58f e0bf
00000220: 95ef 2836 345e b3bf ab7e 4eba 9454 d0bf
00000230: e618 3995 7ea3 dabf 377e 91ce 214c bebf
00000240: 0991 a33e e884 d3bf 7ab4 fdff 2b2e bebf
00000250: 0798 fa58 c8db b4bf cb5e 9013 798c b53f
00000260: bc51 9e24 0116 d23f eaca 9443 c3c6 adbf
00000270: 6a48 2f87 3344 c4bf 5ba0 ab4a 838b f1bf
00000280: 5340 22a9 141b 9f3f 837b 420e a19e c03f
00000290: 8242 6186 17ea b13f cd44 02d4 bded c3bf
000002a0: 1847 2644 fdc5 d3bf 3f83 1698 b8c6 7a3f
000002b0: 84b8 3d55 6f17 c63f 72a0 f1d5 7684 883f
000002c0: 2ce2 3346 0f55 d63f 613b 82e0 92c7 bcbf
000002d0: 5fe2 8029 48e1 d0bf e20b 5cde 0f2e d4bf
000002e0: 8cb7 40c5 f11b d7bf 14fd ddd8 5b53 cdbf
000002f0: 0707 f830 e5e2 d53f ee12 34c8 d6d0 983f
00000300: 8226 5362 7f7e e13f 8675 427c 6acb d83f
00000310: cb94 32a7 e484 a5bf 3bc7 df34 c1e0 e6bf
00000320: 9c84 bef7 10fc e8bf e0e7 2678 8aa7 cb3f
00000330: cb8e 7d8e 3b0a d6bf 6eb0 11bf 8889 edbf
00000340: dcc9 81e8 8bca 853f 3fed 82f0 6b3d b2bf
00000350: 5253 3a9c 0863 943f a509 d2a9 937e d1bf
00000360: ea59 24b2 8349 d7bf 9042 3d1a 2846 d2bf
00000370: 7adf e222 1c49 d43f 0b85 ffc4 c9f9 f2bf
00000380: e5e8 d4a3 037b e1bf c41f 254c 9bfd e13f
00000390: dca9 36d6 d248 e03f 4d95 687d e326 d03f
000003a0: 68ad 252e 800f 993f 2941 5239 9282 93bf
000003b0: 8139 e019 9cf2 d03f f064 8155 ff41 d33f
000003c0: 4609 537f d101 bbbf 9cf2 16eb a164 e23f
000003d0: 65ff d8c4 d80f d53f 5058 750e 8748 d53f
000003e0: 2b43 7c34 14c5 aa3f 965e bbe4 d330 db3f
000003f0: 0672 0816 12e5 eb3f ded2 ebd5 91c0 c83f
00000400: 27cc 1af7 130c d8bf fc4d d996 27e4 e3bf
00000410: 0afe a6b8 e804 e2bf 33bd 537b a7b8 e8bf
00000420: 8161 9f88 8361 c6bf e6ac 5e1d acfb d9bf
00000430: 7c94 1867 770c e1bf 3606 9d44 7ca3 e2bf
00000440: 3b76 80b9 4d1d d13f 28cb 3b25 78b5 e93f
00000450: 39ff 14f0 7876 ef3f 3110 6587 5bc4 df3f
00000460: 3c16 4335 1e1e b6bf f709 9f68 31c0 e03f
00000470: b95e 2b5d e197 e23f f3f5 3ca3 a47a c73f
00000480: 3631 be51 dd1d c5bf a1b9 5318 557d 89bf
00000490: cbfb 525c 95c3 ad3f db2d 55d7 66a4 d7bf
000004a0: 61df 95fc a31b dbbf 7d05 952f 165b 7e3f
000004b0: 95b3 a5b6 4e4f cd3f 34a5 6804 acc3 b33f
000004c0: 3219 1741 29f0 db3f cbb6 990f 04d3 d53f
000004d0: 2197 8160 92d8 d23f 5f03 0b9d c2e7 c93f
000004e0: 047d 5fc9 5fbe d7bf 4a30 a1a3 195f dcbf
000004f0: dfcc dfce cdb1 e43f c218 9ade 91de e7bf
00000500: e36d 7435 29ec cabf c1eb efec 7303 e8bf
00000510: 5966 cbe6 f066 e5bf 5c87 816b 6567 b6bf
00000520: 1dc8 4a31 e642 e53f 5774 c836 6cad c2bf
00000530: 8c8c 15b8 36c2 e8bf 198c e27d b29e aa3f
00000540: d183 835b 5dd9 c63f 9a0c 4423 6c1a c23f
00000550: 2d90 748b 47f8 bd3f cbd0 2bf8 f1f5 a7bf
00000560: 82e6 37f0 a380 c3bf 68d7 1fd1 7d23 74bf
00000570: a38c d1bd 309d a6bf d8bb 99f7 d9cd bdbf
00000580: e16f a13c 63d8 dabf 44fd 44f7 e37e e7bf
00000590: d7fd abb0 8658 e8bf 78a3 16aa 9b7a cf3f
000005a0: 4ed5 ecd4 0d0e e63f 2157 c8f8 92a9 e4bf
000005b0: 0018 e101 66fa b1bf 7b48 78c0 f29a b4bf
000005c0: 6a58 edab 3ecf f1bf 6dde 6b66 472a debf
000005d0: 8edc 4bd9 8418 d6bf f8e9 4849 b0d1 c2bf
000005e0: 3101 b24e dd32 eabf 1b77 b9c5 7278 cfbf
000005f0: 9420 1cab 65ba debf 6260 0059 2622 b4bf
00000600: ca6c c070 3de1 c2bf 3b44 409e 8512 debf
00000610: 7564 1d82 8bf9 a63f 42fa 39c2 2ecd e43f
00000620: 1e89 896e 2fae d63f 99ed 317c 8607 c73f
00000630: af58 fb12 39fe c53f 2ec6 1778 06ea c93f
00000640: e88d a2f5 547b dfbf dff9 7d38 ccbe e1bf
00000650: ec79 35f9 3c9a bfbf fd68 9f14 0341 d33f
00000660: 216b 0b5c 3537 a9bf cbdf fecf 5871 b33f
00000670: 683a fac4 c822 c73f daa2 ad72 1809 d03f
00000680: 0372 e70a ae60 b2bf 8bc2 13d5 766e c73f
00000690: dd4a a7c2 840e d3bf e625 2c27 aa46 ea3f
000006a0: 415f 6efb 6f03 e33f 269f c483 efab e73f
000006b0: 8248 5e7b 910e e23f a3f4 5534 1a09 ecbf
000006c0: 77b0 73f7 0389 ea3f 0e09 a511 0ba3 dd3f
000006d0: 6c61 ac8c 405a a73f dbe8 482f bfa0 a5bf
000006e0: 862d 572d 9542 c8bf 8bfa 0d14 313f e2bf
000006f0: 455c d3cf a8df e0bf 1271 c5e7 543d b4bf
00000700: cbe6 5795 11e3 cdbf e8fb 9ac1 b713 d43f
00000710: 7b30 ab8b 1476 d53f 7001 044e 3029 c63f
00000720: 0a90 8a6d 12a3 d83f c565 f0a3 cbf3 e0bf
00000730: 8ddf b825 2877 c43f 88a6 04a6 d2fe 72bf
00000740: 5343 4101 a302 d63f 4875 3d6c 281d d13f
00000750: 8a1a 0452 d288 c03f f892 b63f 82b6 d4bf
00000760: 0362 5cec b718 c8bf 370f 1133 d6b0 b3bf
00000770: 98c7 5531 2453 bebf b8ea 8e52 5db1 913f
00000780: e8ef fa51 ed8b 95bf d7f7 7edc ecf0 a2bf
00000790: cc6e e7fd dbfc a03f 3b43 74b1 c830 893f
000007a0: e0ca 7d50 c992 b23f 36dc dfac a484 a3bf
000007b0: fe2c 7f2a 5b10 a9bf fa3b 12ce ee56 fbbf
000007c0: dc0f c444 a94d a93f 6236 d98f 0c57 c73f
000007d0: 5a09 05ff a614 cb3f 7484 841e c6dc e43f
000007e0: e7c9 9fe6 f6fb c93f 98e1 13f6 6513 e33f
000007f0: f31e 1532 131f c53f 00e1 999c e3a9 ccbf
0.3229778206845234 -0.1022104054895721 0.11350647630196323 -0.5526522043723302 -0.25441469561711233 0.0843032009441829 0.3800606657188446 0.18516740999384357
0.2783489937853481 0.25498958637005686 0.2871629299926315 -0.026080949905622385 -0.1279080862588758 0.0932922952905903 0.10844373738911466 0.02150418220394271
-0.4385533415540142 -0.2761748583089899 -0.32021599915417803 0.10325723347386798 0.42390332979635853 -0.2040121096486088 -0.2833950811056739 -1.0411288676579689
-0.5696127047693641 0.12134559888515857 -0.5614250694658989 -0.1828048397286344 -0.23276957677304153 -0.49630397030503226 0.017939282691458173 -0.42561910728720387
0.13480705972289853 -0.5260996155889903 0.25710081531911533 -0.78931326532904 -0.37125672872656945 -0.5779458645598311 0.45615393851369046 0.4122033184813746
0.14928499564667974 0.014759513254792954 0.10219108211538719 -0.029477161712800157 -0.24819252625367874 0.03124960219755211 0.1982617497430446 0.017488352763470077
0.21629204388239162 0.269051604379189 0.2562153030839376 0.17972917293580107 -0.12440854071862759 0.44804365993853923 0.4711020275496779 0.21897543742746625
0.27731832751894525 0.3444228994546427 0.01695673079882225 -0.33701306173478224 -0.3134972425821298 0.049667921502807785 0.15100421810048065 -1.3228625870544066
-0.27674545242304605 -0.3027448655888045 -0.3232524610748891 -0.5175426808253366 -0.07565618822348903 -0.2551624125862683 -0.41622891018449903 -0.11834918301746532
-0.3049870120724028 -0.11789202689915781 -0.081478616450653 0.08417469718585406 0.28259304595965395 -0.05815706443754272 -0.1583313379365479 -1.096560756379424
0.030376742194278283 0.1298409766795566 0.06997820883521835 -0.15569279529566984 -0.30895930915095127 0.006537171431234167 0.17259017622149397 0.011971405414627354
0.34894162994126776 -0.11242025357408415 -0.2637501149470491 -0.315311400554661 -0.3610805918022997 -0.22910640801635707 0.34197358877291645 0.02423415753311791
0.5466916008383154 0.3874155248139107 -0.04202951947198982 -0.714935878057282 -0.780769809604084 0.21605044237895665 -0.34437455096324915 -0.9230388385599448
0.010640233071375009 -0.07124971982823512 0.019909033332243205 -0.27335063537625565 -0.3638619651477756 -0.2855320221179136 0.3169622746167914 -1.1859834380377972
-0.5462663841092562 0.5622078406531661 0.508889597307014 0.25237357375074937 0.02447319299373643 -0.01905277705060474 0.26480772520962864 0.3009031615270734
-0.1054964958048333 0.5747842399210472 0.32909220908549336 0.33255173122359327 0.052284842879208725 0.4248552068433836 0.8717127256709893 0.19337675996179987
-0.3757371819621675 -0.6216009088770416 -0.5630992514124398 -0.7725407990200551 -0.17485088511490335 -0.4059858595671372 -0.5327717794031197 -0.5824567165474892
0.26741355052385857 0.8034020163744104 0.9832119645215932 0.49635971281191177 -0.08639706421225751 0.523461059893008 0.5810400790896529 0.1834302708684131
-0.16497389308313765 -0.012446083836462675 0.05813280822757568 -0.36940928486430175 -0.4235620466856656 0.007411085761590439 0.2289827720482235 0.07720446689258581
0.4365332732817421 0.3410043861721134 0.29446849274096293 0.2023852602779028 -0.3709945169957367 -0.443304452700208 0.6467045822631937 -0.7459191653913637
-0.21033206091020337 -0.750421488540603 -0.6688160426812814 -0.0875152003732444 0.6644164049851075 -0.14591744112923052 -0.7737077327150401 0.0519920138042595
0.1785084435314546 0.14143134805644736 0.11706969408675212 -0.046798287910776525 -0.152363292974588 -0.004916659805521785 -0.0441680175506687 -0.11642229361471779
-0.41945725365599 -0.7342395619852273 -0.7608064127561488 0.2459292011747285 0.6892155798620168 -0.6456999644312625 -0.0702270273769443 -0.08048932265254109
-1.113096877661088 -0.4713304996689434 -0.3452465173754228 -0.1470241887889896 -0.8187090432184388 -0.24586329130664172 -0.4801267786974759 -0.07864608452689617
-0.14749877934887073 -0.46988048986628755 0.0448726269084511 0.6500467103467786 0.35438142580655263 0.17991715492449314 0.17182076861235404 0.2024543844595867
-0.4919025801447945 -0.5545407393799983 -0.12344723781777817 0.3008430196183694 -0.049249331937707426 0.0759482868005527 0.18074903123893482 0.25055514525460654
-0.07178771749699568 0.1830585995117143 -0.2977611447251272 0.8211260571562746 0.5941696081890556 0.7397382329554361 0.5642783555542936 -0.8761111280615704
0.829225524239077 0.46307636950599906 0.04561044423297997 -0.04224202587325162 -0.18953194345372654 -0.5702138320628632 -0.5273021754354735 -0.07906084688642448
-0.23349208633572113 0.313703478877811 0.3353320468857032 0.17313197907789002 0.38495312402142245 -0.5297601892408969 0.15988637773420714 -0.0046375492532121435
0.3439109337096415 0.2674046570808355 0.12917546276749575 -0.3236394521903061 -0.18825434723909504 -0.07691706415886022 -0.1184561367461171 0.017278154529530382
-0.02104159176700185 -0.036994363704692716 0.03317916368879778 0.012300079265089905 0.07255228247758394 -0.03812136278423177 -0.04895291227111363 -1.70872383591245
0.04942063297679031 0.1823440267930208 0.2115677590573551 0.6519499393508696 0.2030018449873545 0.5961179548458402 0.16501083321985952 -0.22393460413491795

linear_1.bias f8 [150]
00000000: 14fb 41ae d4cd d03f 0391 4340 cb31 c3bf
00000010: dd56 8876 5ec0 d4bf a276 be3c 7d8a c8bf
00000020: d35e 3e12 98ca f8bf e998 c8fb ddf9 e5bf
00000030: 6469 2cbf 2629 cd3f 68f5 65bf dc62 debf
00000040: a5de ce82 d7bd e0bf 231b acc4 354b dfbf
00000050: 7efd c2e3 0c60 dabf ff3c 76bc bbb5 e7bf
00000060: f982 cd99 5458 e5bf 7134 84d3 e46d edbf
00000070: af2b 868a 6bb7 f1bf 190e 4605 8c61 eabf
00000080: a7bc 6e72 7b6d ebbf 37da 6fe0 f1b8 e6bf
00000090: 12b9 dd11 a287 edbf 7241 7417 d34c e0bf
000000a0: 0a72 28c8 c2f5 e5bf eb9f 00ee 78ff e2bf
000000b0: ffb6 41ca 0fc5 eabf e506 82a7 331b c8bf
000000c0: 5c63 407c eae6 edbf fb6b 6142 558e f0bf
000000d0: 3049 87ef 2b8b dbbf 3e9d fbc6 a837 e7bf
000000e0: ad29 f973 4a91 f8bf 2ea8 199f 582f cd3f
000000f0: 95e8 4d34 0f58 eebf 3246 e293 7f30 e7bf
00000100: 86e3 ac30 3d54 ebbf 0c56 c29d ebc3 c93f
00000110: 8e5b 697d 081b e0bf 9238 3856 b0e4 e2bf
00000120: 577a 57f2 4209 e0bf 73fe bb64 6436 f0bf
00000130: ec2b 37ee 8f57 d7bf 1690 a9a9 b941 e6bf
00000140: db67 3346 0580 cabf f6d6 5d77 e1e1 e7bf
00000150: 348c 66c0 1dcf d5bf 5246 18a2 8161 e5bf
00000160: 7f28 3ec7 b08f e1bf e0d2 6e9e f9b5 e4bf
00000170: 9acb 05e6 742a f0bf 5776 33a6 bc54 f2bf
00000180: 26e2 4c6b 008d e2bf e0f8 2fde 054e efbf
00000190: ae40 2ea4 ed0b d0bf 7b38 5e2d 41a3 e0bf
000001a0: 89f4 7056 1fb8 f0bf 0530 70ef dc87 eabf
000001b0: a10e d0c5 6b4b fcbf c930 3215 d430 d33f
000001c0: 9cd7 141b 0995 dfbf d6a6 0d35 d12f f4bf
000001d0: f390 b0e5 f5fa e3bf 92dc cd86 db43 efbf
000001e0: 55cf 22f6 732d e9bf 4f44 8486 4f40 f7bf
000001f0: 7e56 ad3c c7ba f8bf 61e6 e9b6 8d55 ecbf
00000200: 515a 12e2 c8e9 f2bf 0ec5 b8f3 1ff0 f3bf
00000210: e892 e1b7 a3e0 debf 4a36 995d 551f e4bf
00000220: 9d4c 84ab 014f f2bf b03b bb01 8ad4 eebf
00000230: ac3c cb5c cdcd f3bf c3a5 a424 d3f0 eebf
00000240: 9af9 cd34 e5a3 e4bf 50f1 06ec 3997 efbf
00000250: 771b 660d e820 ebbf cbad b4ad 2a29 edbf
00000260: 1465 d785 d367 e9bf 97d2 5578 07fb c4bf
00000270: 62d4 4a64 9e6b cbbf ae4d 7633 c5ae e5bf
00000280: 984d 1bba 967e eebf 9e45 4a30 d417 e9bf
00000290: f080 85d8 38cb f3bf e113 ef6b a0ef edbf
000002a0: 55b4 723c 42b2 babf f39f a36e 45d5 ebbf
000002b0: 879a 5167 c566 e9bf 6664 7b78 ec8b eebf
000002c0: 7d30 1d0e b03b f0bf 6385 5e06 59be efbf
000002d0: c128 1888 06bc e7bf 36d2 1822 5443 f6bf
000002e0: c314 5d11 e49c e1bf 6b52 c22d 8393 f0bf
000002f0: e8af 3d13 610f f4bf b298 82dc bbcb c43f
00000300: c976 7cb3 2873 e2bf 324d 9f35 7d21 dcbf
00000310: 057b 1b8d 5bc5 e1bf 923d 638d e758 e0bf
00000320: 4e3f c029 dcfd f2bf c4ee ed0c c59b d1bf
00000330: 0138 c08b 41e3 d5bf 0d54 5640 297d efbf
00000340: 29df f8df 1aff debf 21a9 48d5 1f47 f3bf
00000350: 40aa d67b a2f1 ae3f f642 14a9 9480 eabf
00000360: 2b21 8e9e 911d eabf 6998 d38c 39e6 e5bf
00000370: fff2 439a 289d e3bf d771 0d69 5da0 dcbf
00000380: 56d4 4a50 e20f d6bf ffcb 56b4 615a f0bf
00000390: 6d6d e5f5 19d7 e0bf 7244 e6f8 9cdb e1bf
000003a0: 8196 96c0 3ed4 e5bf d8f1 cc78 a87b e8bf
000003b0: 01d6 ae6f be86 e5bf 6908 cb36 32a6 f5bf
000003c0: 7606 7d67 1ad6 f1bf a8fb 93f9 860e f6bf
000003d0: 2873 da0b 0aa4 e3bf 1718 46ce 1467 d5bf
000003e0: 5c60 2318 9d9d e1bf 13fb 470e 4d68 dbbf
000003f0: 607c 4bb3 883d debf 0e2c 554a e12d dcbf
00000400: 5f19 3e34 1bad f7bf f68a 0874 2e9a e5bf
00000410: fc2e e4de 8709 d7bf 4847 0111 3a95 e2bf
00000420: 5503 b673 1ad5 e1bf 36af 2455 f663 e3bf
00000430: 3f15 f6d5 3894 d7bf b990 5f5e 35c2 d6bf
00000440: ec6b a051 04cd efbf e589 0942 f34b e9bf
00000450: 5f8b 2eeb 457e d7bf 2f3d f937 f017 debf
00000460: c41e 6e34 57df d0bf b1f7 55f1 0476 e3bf
00000470: 4951 ea69 5e12 e8bf a7c5 7b73 c5c4 e5bf
00000480: 3015 ed99 a404 ddbf 0c5c c7f7 2522 dbbf
00000490: 51cb 8c15 d796 eebf adba 85e8 17e6 f2bf
000004a0: c88f f28d 9d15 d6bf 2e8c ca1e c7ba f1bf
0.26256291406018417 -0.14995709073912886 -0.32424127173849887 -0.191726355228572 -1.549461432708928 -0.6867513578079328 0.22781833967821818 -0.4747840756534374
-0.5231740527005583 -0.488965456068785 -0.4121124481425439 -0.7409342461486687 -0.6670325283012907 -0.9196647769146137 -1.1072802935693564 -0.8244075873375919
-0.8571145281802232 -0.7100762733014737 -0.9228067730853431 -0.5093780000770904 -0.6862501057945007 -0.593685593460575 -0.8365553808523315 -0.18833013228509468
-0.9344379832065033 -1.034749278353728 -0.4303693617959139 -0.7255443464645521 -1.5354713945585943 0.22800739067616987 -0.9482494374817799 -0.7246702087742902
-0.8540330839815489 0.20129151537973689 -0.503299946731987 -0.590416115186388 -0.5011305554615529 -1.0132793364463424 -0.3647193743060473 -0.6955231012075298
-0.20703187873624426 -0.7463233310106421 -0.3407663706695445 -0.668152634231044 -0.5487903491459888 -0.6472137541191749 -1.0103653893718048 -1.1456877224185484
-0.5797121139249313 -0.9782742824170576 -0.2507280448271655 -0.5199285398573602 -1.044951760922489 -0.8290848423507674 -1.7684133269366742 0.2998552519791358
-0.493471409269995 -1.2616741249461731 -0.6243848310591872 -0.9770333893674368 -0.7867984587996754 -1.4532008413846318 -1.5456001634787806 -0.8854435513050697
-1.182076342670957 -1.2461242218381048 -0.4824609084810576 -0.6288248851867106 -1.1442887019991652 -0.9634447130027777 -1.2377446770440583 -0.9668975558935745
-0.6450067550029417 -0.9872102365402871 -0.8477669011780183 -0.9112752335253672 -0.7939241041268894 -0.16391080260986676 -0.21422176262936704 -0.6775842671508394
-0.9529527315993844 -0.7841587966124057 -1.2371147592421572 -0.9355012996753623 -0.10428251243384186 -0.8697840844079096 -0.7937953012413609 -0.9545805314220501
-1.0145721961335135 -0.9919858097456821 -0.7417023332684708 -1.3914376575386433 -0.550401719964292 -1.0360137736762691 -1.253754687461873 0.1624674631795578
-0.5765574937429047 -0.4395440124182698 -0.5553415065768098 -0.5108526002385807 -1.1869775420090778 -0.27513242972029794 -0.34199560782951727 -0.9840284592233971
-0.4843203723171308 -1.204864342822994 0.060437276474961 -0.8281958868338666 -0.8161094757825017 -0.6843536139028973 -0.6129343998905766 -0.44728789576563827
-0.34471948472066083 -1.0220658344740057 -0.526257496133821 -0.5580582486455923 -0.6821588288773485 -0.765094982088665 -0.6726982289607691 -1.3530752315860133
-1.114771274806484 -1.3785466908591193 -0.6137743217001104 -0.33441658157278326 -0.5504899474572187 -0.42824102778097134 -0.47250573643936455 -0.4403002954392726
-1.4797622719502994 -0.6750709787632718 -0.35995671049816713 -0.5807161647919452 -0.5572635898571244 -0.6059524214701699 -0.3684217538323828 -0.355603544389179
-0.9937764734526104 -0.790521267870926 -0.36708209959959065 -0.4702110811822022 -0.2636316310895206 -0.60815665374661 -0.7522422856004961 -0.6802699332749186
-0.45340838462682864 -0.42395924756186854 -0.9559131070039745 -1.1811751444726426 -0.3450693021970861 -1.108100052145129

linear_2.weight f8 [150, 150]
00000000: ea17 d257 7ca5 bebf 77b5 a8b2 cd69 c0bf
00000010: 2f92 2f1b 5686 bebf c837 99a1 9892 b33f
00000020: 7279 d20b d9d0 a3bf 09bb 8b40 c5cd b3bf
00000030: 3e46 36d1 ff32 823f be30 9dad 08fc 5f3f
00000040: 3cf0 3f2c b3d8 bf3f 19a7 0e30 0630 b5bf
00000050: 1bdb 2448 31a6 b3bf 51aa 7542 4cbd 563f
00000060: 21cd ebbd b27f b3bf 29f6 5bf8 e6f1 b3bf
00000070: 1f86 5411 26cc a4bf 6a49 b33d 128d bebf
00000080: 0f6f d059 44a0 c1bf e105 b503 27b8 7b3f
00000090: b7d6 966d 4eb6 8fbf 21da e04a de45 bbbf
000000a0: 55b6 43fb b4af b9bf b4f2 3588 9a67 b1bf
000000b0: fde6 2503 a3d6 b7bf abdf 49b0 6baf 94bf
000000c0: 1c6f 481d 6b9c c0bf 5e96 73bb e18d 30bf
000000d0: 4841 0109 c0ed a13f f52b e6b9 dc33 c0bf
000000e0: c92c f30d e6a1 b9bf 2526 f9b3 3e14 c0bf
000000f0: 3333 8193 9a98 bcbf 4bdc 0c1a 9bf9 6ebf
00000100: 9d71 106e 27c8 bcbf bbf3 faba c646 b8bf
00000110: 27ff 841d cfa0 afbf 7da7 84af 1d90 bdbf
00000120: b153 663e 903a c1bf fd34 c96e a62b 473f
00000130: 5a12 cc12 8294 91bf f83d 8dce 19ba b0bf
00000140: 0ae7 b747 ea7a b6bf decc 3a43 c9ce 8f3f
00000150: 55d3 6dc9 23d5 71bf 3f2f a33e d0f9 503f
00000160: b4ac 13a8 b6da 67bf f338 3cac bc30 b23f
00000170: c6a8 d191 8e4a 5ebf 537e 6b7d 23a9 afbf
00000180: c11b 9bda 2fb4 abbf 17fb ab18 7ffd c0bf
00000190: 13fa c8cd c950 babf 26e7 71ba d1f2 b9bf
000001a0: e751 ae48 bdc2 8a3f d325 78b4 be5b b2bf
000001b0: d913 46bd 048c 8d3f fabf 4954 3927 bcbf
000001c0: 7121 d5e6 7eea a63f f5a7 b4a0 60b8 bebf
000001d0: 459a 2aad c6f9 a8bf 0cd1 d165 fa60 b8bf
000001e0: 78a4 8f3a fe88 bdbf 2705 d415 26ff bc3f
000001f0: f322 ba1b 6cbc 7d3f e3f2 084f 39cc 923f
00000200: 1e70 0b5e 3b91 93bf 59b8 95bc efb5 873f
00000210: 8968 c68c 108b b6bf eb6d 18c3 9ce6 75bf
00000220: 241a 434d 58ae a4bf 22cb 6d25 3b2f b4bf
00000230: 5dfc 8b2f d951 a6bf ca88 da14 6928 bfbf
00000240: a8f8 f752 1afd b2bf 00e3 bbdd 20a1 b7bf
00000250: ad88 a2d5 d3bc c1bf 3db8 89ff 6062 b0bf
00000260: 6e9e 1be1 1a0d aabf a0e7 5339 847c 733f
00000270: db70 f298 7719 6c3f 25cc 0b6f 6741 8b3f
00000280: f92c d867 fb65 823f 1cf8 f356 8317 a2bf
00000290: 472d 09c4 a1fd 8a3f b844 c7f3 d3e0 a4bf
000002a0: f66f fc54 d094 a8bf adcf b273 670d a2bf
000002b0: def3 c8c0 f31d b2bf c136 eb49 07b2 bcbf
000002c0: c38c 85ee c2f7 94bf 6f18 4fad 5fd1 c0bf
000002d0: 01d8 bbec c195 80bf c69f fee7 3b53 b7bf
000002e0: f81b 607f b190 633f 014d 0d36 9ba2 a3bf
000002f0: 9e8c 9f7c 6c74 b4bf c1ad 6324 0d20 b5bf
00000300: 8540 8732 beaf adbf 3aa9 52ac 4604 b4bf
00000310: 05cd 6351 be94 913f 5a5d dfc5 c8b7 a43f
00000320: db84 704b 92cf a8bf 3fe4 70e4 d812 acbf
00000330: 64da 1c21 3d19 79bf db3b 21d4 0183 9cbf
00000340: 7b20 e0bf 6243 a6bf a74a 4ad9 560b a6bf
00000350: a9dc fafd 8160 bebf ae66 2ad4 59d2 a7bf
00000360: 36d1 6af3 3923 bb3f 4aef 7fa2 8500 b2bf
00000370: e08f e0a7 c608 96bf 753d 4ca1 7526 babf
00000380: e8fd 8e48 9e3f b4bf 905a a740 e3f8 76bf
00000390: 1a95 92b5 71b5 bebf d1cf 473c cdbf bdbf
000003a0: 4a20 54d8 61a7 a9bf 7a4d 3ea7 da5d 3ebf
000003b0: e9bf a350 54a1 a5bf 4279 7cbe e682 afbf
000003c0: e409 f6b1 ac0d 8dbf dd71 4ef8 1a2b b3bf
000003d0: 0963 91b0 72a4 9cbf e744 71f8 2422 b4bf
000003e0: 42d0 1f23 4ef1 7c3f 5ada 83ed 3902 94bf
000003f0: c303 f529 89a7 b4bf 2248 b7c6 4543 953f
00000400: ceeb 4e58 39c5 c0bf 3f20 9fb2 b5f6 90bf
00000410: 0958 1454 7823 b7bf dbcb 5037 12e9 933f
00000420: af14 b2b2 0630 c0bf 9c88 10a1 95df a3bf
00000430: 1f4f e24d e9b6 b5bf aca7 cc1d 68c9 b5bf
00000440: 1544 a519 fc8f 99bf 8c28 64bb df04 bebf
00000450: e3fa f26b 7a0e bbbf da9f 33bb 8017 c0bf
00000460: ac04 04c4 a632 bdbf 2cae f27b 777a a9bf
00000470: 6e8b 0220 d369 b7bf 786f 8d81 236e 543f
00000480: e907 c2d9 fa00 c1bf b872 0dff 86b6 b53f
00000490: bf54 4b61 a1d9 b2bf 1bf2 4331 1e59 b1bf
000004a0: 0e8f 445f b78f b0bf 3ad5 f7d8 5070 bebf
000004b0: 12a9 3ecb ba24 d5bf d0bd ca31 fa85 99bf
000004c0: e0e8 669b 86ee 9d3f 2bd9 b096 e2d8 c93f
000004d0: 4910 b855 7a45 c03f 0e76 c7af 32c2 b93f
000004e0: 172b a176 09a0 c5bf 7b3e d57d 7645 a23f
000004f0: 0c49 671e aa44 6dbf 9cbd 6e5f ec88 b9bf
00000500: e1f5 4e2c 3494 b03f 5a23 4bca e0d7 a23f
00000510: 9637 e809 e01b d8bf 0f33 e528 df70 cabf
00000520: 9000 15c7 c603 e2bf 4b17 e89c f11d c5bf
00000530: 03f7 4e00 33b8 c4bf b47b a64c c03a e0bf
00000540: dbcb 2f98 780a b9bf 21f5 ccf9 5105 cbbf
00000550: 970c 3330 369e d8bf 11d7 ce99 65df bbbf
00000560: f916 6f4d de01 c33f d308 a86f 3fb5 af3f
00000570: 765b f9c1 7b9f a8bf 4cfc 44ca f7b6 9dbf
00000580: 433e 83e3 01d1 c5bf 3096 eb57 4570 e7bf
00000590: 27c9 f37b f6b2 b5bf 7609 5a02 1f80 773f
000005a0: c8d5 dc5b 7ccc c1bf 2f4b 52d4 e328 babf
000005b0: 254d 60b2 19ae c53f f266 6748 6338 d3bf
000005c0: f9d6 465a 817a c6bf 9995 0030 88ee b2bf
000005d0: 5c1e fa50 44d5 943f f9f6 9a98 4db5 d4bf
000005e0: 75ea 20e1 67e1 c7bf 83a7 3a00 7098 b3bf
000005f0: 8d55 1fb2 f35d c6bf 8341 4806 9a7b 803f
00000600: 0457 4b26 5097 d0bf f5bd c627 77ae a1bf
00000610: 27b3 dae2 d519 b8bf 46b1 e0f0 3e31 bebf
00000620: 8b2e b6d1 e71e b8bf 3347 223a a053 c9bf
00000630: 7e75 10f0 b5e0 d4bf ff6b f18f 043a e6bf
00000640: ba3e 6168 acdc a23f 25d3 a33c e71f bebf
00000650: fbc8 73b3 23b2 e1bf c864 a747 5c8f 8dbf
00000660: b1e7 ec54 447a ebbf 61d6 8a47 8a98 713f
00000670: d0dd 6d21 620c a63f 3499 91f7 0161 923f
00000680: 06a8 7a0d 7d67 e2bf 1e73 2039 f857 abbf
00000690: 5160 6bde 0cf9 d9bf 7755 99eb f7ba d5bf
000006a0: 4afe 47d3 d212 d3bf c518 8b74 ed0f bfbf
000006b0: 7a72 f8de 97bf b4bf 0af1 5f16 99b4 d9bf
000006c0: bcd9 6bba 5502 acbf b66b 3e4c ef68 9dbf
000006d0: 1c07 8e34 8ee4 c83f 910b 4565 4dcc c0bf
000006e0: dae2 9d44 5928 babf 15eb fe50 7727 ccbf
000006f0: 6a35 e89c 63ab 063f b6a1 2331 6f8e a0bf
00000700: f24b 4a5e 9fe5 d6bf 9a68 5ff7 3c15 cbbf
00000710: 8740 5b40 59c8 debf 4d25 1343 5479 cdbf
00000720: c1a3 ba2b 9bc9 d3bf 1e55 c64f 96a1 c4bf
00000730: 13fd 87ed acc9 a5bf db3b 68bd c62a b9bf
00000740: 08bf 509e 2721 d8bf aa85 b275 2bce c2bf
00000750: a382 1f28 b216 bcbf 38ff a3da dc0f c4bf
00000760: ce3a 4bcf bc59 b5bf 218d 9a8f d83a aebf
00000770: 700f 181b abf0 d2bf 11a7 234c 3bd8 c7bf
00000780: e1b6 910a 1131 b8bf fc7b cf14 f551 cdbf
00000790: da18 42bb 7de4 b6bf 9f05 01c2 12e6 c0bf
000007a0: 4837 3b50 40d4 943f 9a56 e000 1d02 c03f
000007b0: ff6c 3f31 2a96 bc3f 191f 6bfb 710c 9a3f
000007c0: 4832 927a 45f8 b03f 98ea 3994 acd3 ad3f
000007d0: da11 3e07 93df edbf 2d1b 5b32 b3c9 b0bf
000007e0: 13f1 25ae 7aa4 cfbf 078e 52b9 3093 d2bf
000007f0: ce9d 2c25 8417 bbbf bb1a 8d2d 6e7d cfbf
-0.1197126116186095 -0.12822886680207166 -0.11923731006351866 0.07645563073421535 -0.038702757542739344 -0.07735855890107869 0.008886335918563689 0.0019521794078683342
0.12440032797161477 -0.08276404069206612 -0.07675464640929557 0.0013879055712445918 -0.07616727005715919 -0.07790988505799902 -0.04062003099012323 -0.11934007650714809
-0.13770346055468294 0.0067674182894861 -0.015484440535924333 -0.10653485611042203 -0.10033732542407255 -0.06798711610276592 -0.09311884714943726 -0.020200426707077373
-0.12977351121741598 -0.00025259743729431027 0.035017014598113294 -0.12658270909409422 -0.10012662735532553 -0.12561782634502197 -0.11170354939640674 -0.003781130726931125
-0.11242910801997259 -0.09482996048877983 -0.06177375064225848 -0.11548028502570946 -0.1345997147260767 0.0007071077976178727 -0.017168075940406126 -0.06533967297331589
-0.08781303645073649 0.015531132091700813 -0.004353656570732796 0.0010361226691654871 -0.002911907912325507 0.07105616764986049 -0.0018488304406454755 -0.06183730035786241
-0.05410909217385252 -0.13273609833410013 -0.10279523157166919 -0.10136137773397688 0.013066748409792118 -0.07171241670598442 0.014427220369506987 -0.10997350986303892
0.04475781028537796 -0.12000087665060717 -0.048780640257338116 -0.09522976861791593 -0.11537159852709233 0.11326826126971366 0.007259771631318956 0.018357177208815478
-0.01910870324614688 0.011577485029843059 -0.08805945813074535 -0.005346882202072116 -0.040392646247301905 -0.07884568847456966 -0.043593203596167675 -0.1217103649055701
-0.07417454267121804 -0.09230237401414954 -0.13857505732909683 -0.06400114287109289 -0.05088123319529535 0.004757420062782375 0.003430112446563977 0.01330834205280069
0.008983577829914756 -0.03533564030111355 0.013179076952971725 -0.0407778010445638 -0.04801035916736389 -0.03525851523718813 -0.07076953369774183 -0.1120914988962012
-0.02047638493367 -0.1313895794139088 -0.00809813979820362 -0.09111380018168722 0.00238833110325087 -0.03834996256650847 -0.07990148584899479 -0.08252031458294252
-0.057981437366494006 -0.07819024760343476 0.017168973653451953 0.040464662699089174 -0.04845864458935419 -0.05483129299722877 -0.006127585207471673 -0.027843502590538676
-0.04348286239843532 -0.04305526163547784 -0.11866009188348649 -0.04652672495758502 0.10600626175693581 -0.07032046525267535 -0.021517852779780244 -0.10214934528288729
-0.07909573813866866 -0.005608451562202035 -0.11995611842083456 -0.11620791169826751 -0.050105149895956005 -0.0004633578130263865 -0.04224647030230228 -0.061545572998726886
-0.014186238461438579 -0.0748764854637964 -0.027971069361544063 -0.07864600244035423 0.007066064094022608 -0.019539742585914822 -0.08068139337866768 0.02076443696370956
-0.13101879894187934 -0.016566123034664534 -0.09038497975083727 0.01944378340358442 -0.12646564221737353 -0.038815189276889955 -0.08482225562539412 -0.08510447242284042
-0.024963320794373873 -0.1172618706224588 -0.10568966994740552 -0.1257172502585025 -0.11405412946261845 -0.04976247203861947 -0.09145850688450505 0.0012469622363004678
-0.1328424037238272 0.08481639601582003 -0.07363327622745695 -0.06776608183640358 -0.06469293666719642 -0.11890130326340378 -0.33036680076715286 -0.02492514542490004
0.029230216250405117 0.20193130834531678 0.12712029633996938 0.10061947623713527 -0.16894644062480133 0.0356862095455854 -0.003572780860147456 -0.09974553422829618
0.06476141053914077 0.03680326909449745 -0.37670136420717293 -0.20656957146493268 -0.56296099551402 -0.1649763122697386 -0.1618713141924034 -0.5071717736317312
-0.09781602588172637 -0.21109986016555474 -0.3846564741799709 -0.10887751584126827 0.14849451809839545 0.06192968595498063 -0.04809176199767411 -0.02901827976279163
-0.17044089898125678 -0.7324549405281626 -0.08476200605563076 0.005737420205721091 -0.13905291066627812 -0.10218643125180614 0.16937562188886904 -0.3003166396207312
-0.17561356456797464 -0.07395220920496683 0.020344798510022563 -0.3235658636366306 -0.18656633846861195 -0.07654476171106066 -0.17474218556769153 0.008048251454085392
-0.25923541774442094 -0.034534190755376594 -0.09414421833453145 -0.11793893223574967 -0.09422158117211603 -0.19786455954140933 -0.3262152523401126 -0.6945822535884644
0.03683985494774107 -0.117674305252717 -0.5529955391814662 -0.014433594643309525 -0.8586751612376614 0.0042958642522329124 0.043063227253636094 0.01794817994632432
-0.5751328719391047 -0.05340552995060065 -0.40582582207344325 -0.3395366478701684 -0.29802389748508473 -0.1213367852716117 -0.08104848092666286 -0.40164782700573254
-0.054705313688760054 -0.028720606831125393 0.19447496000435016 -0.13123481221017788 -0.10217817235196539 -0.2199544091689282 4.323861832143223e-05 -0.03233668780177672
-0.35776504714993884 -0.21158563688988324 -0.4809783104401579 -0.23026517176757935 -0.3091800620118726 -0.161181248619564 -0.04255428695250365 -0.09830896496008228
-0.37702360592355477 -0.14691680190030115 -0.10972131232802922 -0.15673409152804552 -0.08340053616414453 -0.05904270890212105 -0.29593923231026675 -0.18628636567819304
-0.09449869640385657 -0.22906363979470246 -0.08942399808629223 -0.13202127907611058 0.020340924164705926 0.12506449263371594 0.1116663332208425 0.025438099832881898
0.06628832094629289 0.058255570501349385 -0.9335417882398886 -0.06557769755737004 -0.24720700743990473 -0.29023378465555577 -0.10582757861686007 -0.24601533149890095

linear_2.bias f8 [150]
00000000: e383 4cca 7182 b2bf bab2 c8be d263 b13f
00000010: f094 e21a d9ec d8bf 9b95 4d0b 6b0b c7bf
00000020: 129c e625 d877 b7bf 5c5d b441 5f85 ccbf
00000030: 1281 b1d1 ed93 e23f f338 8e17 0468 cabf
00000040: 45ce 9b60 18e6 dabf 01f3 2cfe d081 bcbf
00000050: de3b 17a9 32ee bebf cb23 9d99 16a7 d1bf
00000060: 82dd 0c9c 3b34 a5bf 0a92 94ac 55c5 8fbf
00000070: 9f4e 6fec ca27 c4bf e5aa dd6d 50ea cebf
00000080: 023c 280c 3e89 d4bf da05 b034 015d 803f
00000090: 455d fb1f a56c c4bf a5d4 3e33 5173 c3bf
000000a0: 3b56 39c8 3eff be3f dcae 1ee9 24ad a2bf
000000b0: 25a8 8a36 bcb8 c5bf da5b cd70 c5b4 d1bf
000000c0: e907 a230 5da6 d5bf 4cd8 4537 c6ab 7b3f
000000d0: 8016 69c8 87c1 dc3f 8d15 9724 c613 ccbf
000000e0: 9361 bf0d de26 b9bf 4517 12aa 63c5 a5bf
000000f0: 7ae0 b206 0c09 a6bf 91ca 195f b465 9e3f
00000100: ea36 46e8 1ece c7bf e35c 4e8c d234 903f
00000110: 21e1 3245 ce19 bebf 2d3a b9f2 da81 b1bf
00000120: da7a 866e 91f3 d2bf bc89 ebc9 8133 b6bf
00000130: 5fac 6c47 6f5b bdbf 738b fb7a 7110 df3f
00000140: 1a1c 223f 6924 ee3f 680c aa92 58ea c5bf
00000150: 6753 6c95 c0b0 d2bf 0c30 33f1 279f d3bf
00000160: b6d0 edb0 b254 c3bf 6ab2 cb03 9fe5 d5bf
00000170: 174d 0271 cf3c 7c3f 57be c898 7eac e7bf
00000180: b75f 80c8 78f2 9dbf 5ac5 1e4f 44bf a73f
00000190: 6ae8 88b7 71d2 b9bf 9382 e9ce f36e 843f
000001a0: 3b54 ef10 dc6b c23f 7252 7860 cfb4 c9bf
000001b0: 429a ee0b 3944 bebf ba4f 63d6 88cf f13f
000001c0: 089a eaf8 9f74 d4bf 5f87 a830 edd0 ee3f
000001d0: 4143 728e 8579 6bbf a588 2271 d71d bdbf
000001e0: fde3 7e0b 115f b4bf ce52 3edc ed3a ce3f
000001f0: 616b ee54 cf7d d0bf fc9a 5078 7099 c0bf
00000200: 15d9 1f59 2a12 ccbf 7dd1 92b1 a1d9 823f
00000210: 225b 6fe4 eded 783f bb20 0c01 7c6a cdbf
00000220: 7aa1 0110 0994 b2bf b15b 93cc 07dc ddbf
00000230: 65b0 0254 22a3 afbf 2f01 16c9 bf8a d8bf
00000240: 2af6 bf26 75f0 cd3f e32a d1cb 0448 c23f
00000250: 8ec7 2b4c 6647 bb3f acbf cd05 3305 c53f
00000260: 044a d20e b37c bdbf dd73 241c 66d2 b83f
00000270: 974b c1ca b1e9 b8bf 5459 e77a c2e7 c0bf
00000280: 5d9d 8e77 8432 d7bf 8f91 0c07 4923 e1bf
00000290: 758d 7cf8 61f3 c8bf a7d6 72dd 4b9f c03f
000002a0: 5c6d f5a4 d1e2 b2bf 3f9c a9f7 2e07 70bf
000002b0: 5e09 2f9f 11f4 c6bf 46f4 fcac 9218 b53f
000002c0: 281c 3b58 9ed5 c4bf 72a9 67c0 c9e3 b03f
000002d0: 7fbf da02 3660 b9bf 26c3 2ead 1353 d3bf
000002e0: 717f 10f2 f99b d7bf 5290 3f81 96b6 92bf
000002f0: d77d c761 76cc c9bf 647c c48a ba37 b9bf
00000300: 4c66 c96c 1163 c9bf 049c d08c 43f7 bcbf
00000310: ed1c 79ca 710d a9bf 0aaa c661 6e71 c0bf
00000320: 3a01 f240 338a bebf 96e0 c326 ca0c da3f
00000330: 6a16 ad2c 9e2a b3bf 561a a0c8 4ed5 cc3f
00000340: 5b0e a8d7 7d6c bebf 6167 f63e 7b9c a2bf
00000350: 7db2 e736 c487 b4bf 290f bff6 be52 acbf
00000360: dcb2 93dd f104 d7bf 50e6 0f01 23de b3bf
00000370: 36a7 8b95 ade8 c1bf de26 c12e 400d d1bf
00000380: b00d 2938 013c c23f 82bd b4f6 37f4 b1bf
00000390: cb4e b210 048d c9bf a0f5 a1ee 7a1f abbf
000003a0: efab 3d9c e3d2 b2bf 1467 9f04 8562 da3f
000003b0: 0ce6 050e 4d68 b9bf d249 52b8 ba6e b9bf
000003c0: 2345 cb8a deb0 e53f ec70 993a d533 cdbf
000003d0: 638f c417 e961 ccbf 56cd 7215 5e02 763f
000003e0: e1fc 0d91 6bea c3bf f3b3 4a40 4afc aebf
000003f0: 223e c713 d4d2 c1bf 7a90 560c 5ed9 e33f
00000400: b560 77fe a411 b6bf 2e5b 063f 1cbf ae3f
00000410: cb3a d7ef 92ce f2bf 6383 2c1f b978 d2bf
00000420: 65d1 3547 51ef c63f f3f6 3616 c1d0 833f
00000430: e84f 9721 ad37 b03f a55f f54d 42a6 bdbf
00000440: 7e80 1463 7dd3 74bf eee5 c32c 148d db3f
00000450: 6945 5a00 c9e8 9cbf 0254 f307 b005 4fbf
00000460: 42d6 0f93 d95c db3f 9b47 5496 540f a8bf
00000470: 5831 a79d 907d b5bf b459 be3b 6d25 ddbf
00000480: 16d9 f1b8 d310 c33f 4f98 0fba e557 a4bf
00000490: 764a 760b d394 ed3f 79f3 b34a ac11 c5bf
000004a0: 3c15 bda2 c928 70bf 0028 aeb0 b795 babf
-0.07230292500436479 0.06792943151294653 -0.3894560587453517 -0.1800359540167563 -0.09167242932618105 -0.22282019336919745 0.5805577369283432 -0.20629931593106896
-0.4202938979571836 -0.11135584073504036 -0.12082211139862362 -0.27582325936651547 -0.041414130019286524 -0.015513104752764146 -0.15746437592189452 -0.24152570118470532
-0.3208766096803971 0.007989892406842825 -0.15956558286300485 -0.15195670129984254 0.12108223331718986 -0.036477235276235226 -0.16970017111936034 -0.2766584016403023
-0.338279054158305 0.006755613594910125 0.44931215831125115 -0.21935345446233293 -0.09824931941637365 -0.04252158595140413 -0.04303777295848561 0.02968484716843506
-0.18597780553357462 0.015826501668553383 -0.1175812643949752 -0.0683876841151025 -0.2961162165974379 -0.08672343425454349 -0.11467643255007108 0.48537861833590695
0.941944716746437 -0.17121417199459477 -0.29203810302833805 -0.30658911280329515 -0.15102227820501007 -0.34213996287034 0.006893930738573382 -0.7398064598145976
-0.029245269048345537 0.046381125124194525 -0.10086737376050939 0.009977249862630521 0.14391661478899373 -0.20083038530778513 -0.11822849789914705 1.1131676077393267
-0.3196182185005516 0.9630037260396697 -0.0033538445018809486 -0.11373659622271022 -0.07957560091644207 0.23617337469172245 -0.2576788262755852 -0.12968259691952955
-0.21930436469819684 0.009204161864865718 0.006086282030955544 -0.22981214572087602 -0.07257134094982645 -0.46655459383094483 -0.0617914893676648 -0.38346857678699825
0.23390068428118244 0.14282283737187304 0.10655822143215074 0.16422117026695326 -0.11518401252605065 0.09696043192930355 -0.09731589508127879 -0.13207274438054617
-0.36245834041115704 -0.5355572831800134 -0.19492745049602048 0.1298613387386258 -0.07377348210632334 -0.003913100687532866 -0.1793233897461261 0.08240620349256841
-0.16276912029408774 0.06597577044855088 -0.09912431306542933 -0.3019456092106786 -0.36889504088502806 -0.01827464259976381 -0.2015521981656849 -0.09850660217169743
-0.19833581745006013 -0.11314794719565674 -0.04893069836230688 -0.12846164488048856 -0.11929626784877181 0.4070306185308338 -0.07486904707647005 0.22525963588869286
-0.11884295001078142 -0.036350108562330126 -0.08019663181739563 -0.055318801517869005 -0.3596768058621771 -0.07760828758173344 -0.13991327096965173 -0.2664337593638332
0.14245620004849746 -0.0701327302274333 -0.19961596312770377 -0.052974549894297285 -0.07353041233515943 0.41226315928871426 -0.09924775688514148 -0.09934584617648248
0.6778404913731361 -0.22814431535051172 -0.2217379919103407 0.005373351588036831 -0.15559143622156227 -0.060518570278283244 -0.1392464729856196 0.6202841034869515
-0.0862067338233626 0.06005180615755133 -1.1754330986765804 -0.2886183552200718 0.1791783902841743 0.009675510874213233 0.06334955282301247 -0.11581816104205574
-0.0050845048838540335 0.4304857670936987 -0.028231754919550243 -0.0009467229391711964 0.427542108168698 -0.046991961813673565 -0.08394721840813213 -0.4554093440468947
0.14895102053169101 -0.03973310371638716 0.9244170402401568 -0.16460183761219208 -0.003945148124164629 -0.10384700835689387

linear_mu.weight f8 [1, 150]
00000000: 2574 bd6e b30e a4bf 8141 7272 be27 ab3f
00000010: 65b0 0d53 b613 893f e724 5533 3bb9 923f
00000020: f6d4 a495 2d78 9ebf eb82 ffa6 a47a a7bf
00000030: 36cc 265b b60b c13f 7847 82a7 3cac c13f
00000040: 0325 4027 93fa cabf 0687 886a 3b78 ab3f
00000050: 7a5f 5844 15db a1bf 692f 9350 5edd 9c3f
00000060: 4333 89ae 24aa abbf 9360 3c96 14e1 b13f
00000070: 3030 db1f 4064 6c3f 30c2 8712 d7f8 893f
00000080: c1c3 dc15 971b cebf db70 8fd1 927a 82bf
00000090: 6d3d 7636 7359 a6bf d52f a5c4 f83d 863f
000000a0: d224 84ff ad13 b9bf 4d13 45de 2802 953f
000000b0: f1de 7256 7f88 a7bf fb06 42d4 a44b b5bf
000000c0: eebf de11 a1bd b53f de2c 6005 877e 553f
000000d0: 62f7 1632 b402 c63f 31dc 6f66 49de a0bf
000000e0: 9470 2ab5 2b7e 7cbf 0969 c229 4f41 b73f
000000f0: e94d bb4a 3c23 8b3f 2286 6941 a59b a8bf
00000100: 0f9b b17d 0942 823f ad53 96c2 fb38 a7bf
00000110: 801c 8329 85e2 6fbf c5e4 d24e 84fe b23f
00000120: 3a86 0b31 5a5d cc3f 2020 434d 45a6 113f
00000130: 0f9d df5f 0387 853f 46b1 bb18 1c36 bfbf
00000140: b935 0438 f773 b83f 08c3 e35a 296b 4fbf
00000150: 654b ada3 3256 99bf 141c 663d d72e 903f
00000160: 870e b2af 75a7 ac3f 0543 3351 a1bb 83bf
00000170: 89c5 9447 0046 c33f 0dd7 a5a6 141a a03f
00000180: 58a8 5d1c b690 983f 2e32 e7e1 aaaf 823f
00000190: 4213 8f7a a3b3 a8bf 5aff beff fcd8 8e3f
000001a0: 48fe ef61 bb5a a53f 6ecc 9f28 9612 73bf
000001b0: 54d8 6058 a54a 9abf 2b76 7130 a352 953f
000001c0: 1da3 e58b daac 80bf 1a39 5788 c7b0 663f
000001d0: 92f3 4bcc 1a69 7ebf a3da 4e1e 2ce0 903f
000001e0: 738f e7bf 3aad 9ebf aca6 4586 8066 cb3f
000001f0: 8327 e70e 1e69 a1bf eb29 cf87 029f 913f
00000200: 5797 4b01 27a4 adbf 6d35 7efd 0ded 8fbf
00000210: 197d 7451 a7b7 c63f e3fa bf06 1d45 bc3f
00000220: 9673 8213 76ef 903f 4e71 6afd 3cf8 bfbf
00000230: 8ad2 cc36 2580 a9bf 178e e7bf 6794 c6bf
00000240: 4a6b 2bbe 52c7 b63f c4d1 0d76 3e49 7ebf
00000250: ec1b b951 9a03 c8bf e8a0 26d4 2bdb 92bf
00000260: 97ac 6b4b dbf2 9d3f 10fe d132 107e bbbf
00000270: 3604 0c04 3f35 92bf 0d61 0686 e843 8a3f
00000280: f46e 6ae9 34f3 a1bf 1aae 3199 cbca b2bf
00000290: 5916 3b95 3b29 c13f ff52 fd73 a548 d43f
000002a0: da89 0bf6 f5e9 893f 2fd9 a905 ebc0 81bf
000002b0: 9037 c8b6 e115 8c3f 5abd 6252 443f cc3f
000002c0: a963 6e84 3c8c a0bf f82c ab6a a8ec 9fbf
000002d0: 421e 3182 2658 95bf 0319 97ae 6f53 b93f
000002e0: 7c8e 744f bfae c23f b5e3 9e2d a632 ad3f
000002f0: 82fe a968 c53b 8d3f 691e b4ad 5401 943f
00000300: 0a35 782a 946f b6bf 6713 a7b0 f3c4 8ebf
00000310: 9dda 5db1 6599 9d3f ed78 979f eb16 67bf
00000320: 16b0 d157 2d19 79bf 613f 7fe1 0912 b6bf
00000330: ce3a b9de 5f7f 61bf 70c1 1657 24b3 9dbf
00000340: e820 d8dd ed83 a63f 01a2 4b17 153b a1bf
00000350: 9d92 f533 67a1 95bf 9763 2ca3 92b4 a1bf
00000360: 241b 6873 55e4 d3bf 128d 8c86 3bb1 b2bf
00000370: 9a27 91bb 06ef 8b3f e6a4 e6da 7c02 7e3f
00000380: 3c97 ff87 f9ca a03f 6a7a 76d4 bb60 a5bf
00000390: 17d0 b939 6dfd 923f 6624 9433 1a4b acbf
000003a0: 15ee f4ad f6aa a13f 4172 504a 2560 863f
000003b0: 7f2e ccbf 2f46 9fbf fee2 d3f4 f136 883f
000003c0: 7143 1d5e 665a d13f d255 f3d8 0b88 96bf
000003d0: f58e 89f6 ab85 9fbf c7d9 2266 170a 96bf
000003e0: a12e 4e4a 33f8 97bf 8bd1 69c9 dbe6 683f
000003f0: 5192 dd3c f756 8dbf ea85 9a4e e68c ba3f
00000400: d947 8649 4c43 723f 3e1b 7b70 2520 b13f
00000410: 1b23 1da0 0f05 d2bf 3945 59c4 3b0f 9cbf
00000420: 77c6 930f 4cae abbf 3abb 8751 d905 abbf
00000430: e658 1fff 301d b13f 87df 0839 c01c a1bf
00000440: 3a2f 2a41 dec8 c0bf 3d3d 6cbb 4932 bc3f
00000450: e613 d610 d28e 91bf e02b 295c 9f62 ae3f
00000460: e2c7 e16b 58fb 9fbf 11d7 16ff d429 b1bf
00000470: e692 fd43 be31 be3f e802 b483 d299 923f
00000480: 0bf4 d4fd 440e c83f 9b4b c95c 7c5d 80bf
00000490: 7652 976c 494d b43f 3dac 26f3 7d62 683f
000004a0: 03f6 09c2 e8dd 913f 5d02 e781 2b1b 9fbf
-0.03917465903098386 0.05303759715127666 0.01224462929686627 0.018284726150601307 -0.02975531793454863 -0.04585756815482064 0.133169931895823 0.13806875399728447
-0.21077193657428248 0.05365167308288048 -0.03487459620754314 0.02818820349493426 -0.0540324652725759 0.06984070461146734 0.0034657719068942536 0.012681656125068747
-0.23521698539255279 -0.009022852916978177 -0.043651199720552515 0.010860389233719939 -0.09795653808773189 0.020516050878785653 -0.045963267615148136 -0.08318548376157857
0.08492476164133198 0.0013119047703209967 0.17195751615320903 -0.03294591308070272 -0.006956263287659099 0.09084028977887128 0.013250800161961744 -0.04806248115052038
0.008915018223161235 -0.04535662412960249 -0.0038921929190994242 0.0741961185875822 0.22159888644005027 6.732748016979916e-05 0.010511423457457284 -0.12191939929806947
0.0955194961317919 -0.0009588195732971047 -0.02474288105015478 0.015803683397759796 0.055965116212090264 -0.0096352198510501 0.1505737638013154 0.031448979704619
0.023989530068697057 0.009124121684089461 -0.04824553366737529 0.01506230979418859 0.04170785494352153 -0.004656397397400187 -0.025675376433547406 0.02082304938482175
-0.008142192262953036 0.0027698418732377108 -0.007424454383678463 0.016480149602751692 -0.02995769306461633 0.21406561428311954 -0.03400510723038421 0.017208137072694567
-0.05789300814448833 -0.015588864611141695 0.1774796626786859 0.11042958655159966 0.016538472119112045 -0.12488156496914835 -0.049805796565498175 -0.17640396948182577
0.08897893088162082 -0.0073940696610077 -0.18760994902024153 -0.018414196799910437 0.029246736982639545 -0.10739232292871059 -0.017781242963796205 0.012824837293735425
-0.03505864476502821 -0.07340691080178666 0.13407082354221947 0.3169339783392359 0.012653276034545625 -0.008668743238768954 0.013713611021582556 0.2206807520173964
-0.032319918790739983 -0.031176215658700962 -0.02084407968166447 0.09892938625771212 0.14595786456731108 0.05702704722302291 0.014274160629837999 0.019536326505685517
-0.08764005696157909 -0.015024093464384781 0.028905476523017105 -0.0028185464877729023 -0.006127526398909585 -0.0862127471475538 -0.002135932203408109 -0.02900368482159038
0.04397528966006964 -0.03365388783806012 -0.021123516603796067 -0.03458078615057685 -0.3108113886850552 -0.07301685366524094 0.013639500235644243 0.007326591220057943
0.0327985743058847 -0.041753644643212365 0.018544870994858877 -0.05526048545477451 0.03450747369285182 0.010925570803061226 -0.030541177827258622 0.011823549541519093
0.27114257040835016 -0.022003350369080917 -0.030783354685254023 -0.021522870644469252 -0.023407746706239355 0.003039769431149424 -0.014326030297248911 0.10371245783837649
0.004458711621184685 0.06689676281085341 -0.2815589011775487 -0.02740186105649409 -0.0540641564383692 -0.05277899856797892 0.06685167530608602 -0.033422476732481825
-0.13113001043199707 0.11014233422996696 -0.017146379735567673 0.05934617996225433 -0.03123224409541326 -0.06704455592884197 0.117946521376847 0.018164910591624756
0.18793547052510493 -0.007990809995282613 0.07930430318021728 0.0029766521413044076 0.01744807895965118 -0.030377082637416886

linear_mu.bias f8 [1]
00000000: 45af 79ed 1dff be3f
0.12108027503717007
