model_chkpt/ensemble_networks.pt (torch, 990161 bytes, 40 tensors)

linear_1.weight f8 [150, 8]
000000 74 c4 37 a8 b1 12 eb 3f 0d 49 a5 b6 b3 e7 d7 3f
       0.8460319791321482 0.3735169681214224
000010 a1 81 56 c1 18 af 85 3f f2 f1 2e 96 46 f3 df bf
       0.010587876701550427 -0.4992233721384586
000020 60 b6 c5 67 f3 90 e4 3f d8 b4 26 15 0f 82 e1 3f
       0.6426941897204408 0.5471263325795475
000030 04 2e 07 a4 be fc e8 bf 15 2d 3f 10 2e 1d e5 3f
       -0.7808526233361026 0.6598120038337664
000040 8a 54 65 ac ad 75 f3 3f 25 d2 e8 d9 0e 5a e5 3f
       1.2162300810062185 0.6672434097332071
000050 57 27 fc 61 9b 17 e6 3f 21 3c 45 c9 a0 95 c2 3f
       0.6903817094582604 0.14519128635080938
000060 cd 18 18 c2 52 f5 ce 3f 59 8a 5c dc b0 43 e1 3f
       0.24186167218448987 0.5395130447325968
000070 51 3a 60 be 57 7e ee 3f 98 7e 25 79 42 ee f5 bf
       0.9529226988104914 -1.3706688625606258
000080 12 19 21 13 49 56 c0 bf 0b 3d db 95 03 59 c5 bf
       -0.12763322290465645 -0.16677899186331788
000090 8c 5e b2 08 0b 4d b4 bf 16 25 68 85 f1 5d b4 3f
       -0.07930058443377613 0.07955846316339818
0000a0 02 2a 73 05 05 1a b7 3f f0 97 70 0b 16 e8 fe 3f
       0.09024077780774323 1.9316616484516054
0000b0 da 68 d7 ef 94 84 ee bf 6f 33 1d c9 d8 9a da bf
       -0.9536842998889157 -0.41570109977765574
0000c0 c0 e4 8a c9 3c 7a e6 3f 8b d9 05 86 ff 9c e7 bf
       0.7024215637567508 -0.7379148118623545
0000d0 b9 93 e9 95 60 97 84 3f d1 e1 8e 6c 95 48 e0 3f
       0.010054354262317365 0.5088603134418525
0000e0 1c 19 34 16 e0 0e ee 3f bd 44 a1 c7 15 bf df 3f
       0.9393158372556942 0.4960379075537949
0000f0 72 e9 9c ab 20 fc da bf ca 56 1a 29 1c c0 c8 3f
       -0.42163864859653366 0.1933627320001306
000100 f8 7f a2 0f 1b 55 d0 bf 03 ad 90 57 49 0d da 3f
       -0.2551944401438955 0.407060943138916
000110 ba d1 fe fb b0 70 ec 3f 02 24 df 0e 9b 45 f2 bf
       0.8887562677178302 -1.141993578045231
000120 f8 37 05 19 92 a2 fe bf ec 36 a1 a8 e7 ae c4 bf
       -1.9146901109083938 -0.16158767446398004
000130 49 f2 7d 88 3a 7a 91 3f 86 16 11 1b 80 a5 d0 bf
       0.01706782777863428 -0.26010134356725023
000140 61 c0 f1 56 20 af f0 bf bf cb 75 66 fa 8a c6 3f
       -1.0427554508460377 0.17611627581535846
000150 1b cf 63 a2 d1 8a e9 3f cb a4 b8 95 37 ea eb 3f
       0.7981956645657847 0.8723409580462883
000160 7e 83 af 08 e7 83 d3 3f 2c cf a2 21 32 f5 d5 bf
       0.30492568824961797 -0.3430905655361467
000170 05 4f 2d 25 90 ef c0 3f 51 6d 1c bd b7 21 f3 3f
       0.13231088462145393 1.1957318675184363
000180 85 44 e6 a1 c3 d2 c6 bf c6 93 81 e8 13 c4 c6 3f
       -0.17830701260803408 0.17785881855811975
000190 91 75 2b 24 f5 8d d3 3f c4 00 93 db e0 b9 c2 bf
       0.3055394032688464 -0.14629755708120318
0001a0 73 6c 07 18 19 c8 c1 3f f1 37 74 47 4c 36 9b 3f
       0.13891900704661317 0.02657431779976344
0001b0 be 8e 15 0d 92 42 c2 3f 92 66 d4 13 dc a3 d3 3f
       0.14265657080533417 0.3068762010239904
0001c0 db 78 c2 fc af cf e6 3f 8a 0d 22 fa e0 72 d3 bf
       0.7128524719917338 -0.3038866465287461
0001d0 e6 cd 8d 67 ba 00 9f 3f 21 1f e1 ca 7a c8 ec bf
       0.030276215143613693 -0.8994726145255961
0001e0 39 61 61 38 92 b9 f0 3f 9f ba 18 e6 73 d3 c4 3f
       1.0453054621085143 0.1627030251997512
0001f0 e7 25 14 81 1a 50 e3 bf 08 e2 a1 08 6b ae ce bf
       -0.6035282631939339 -0.23969781800748557
000200 28 c8 24 2c 81 2e e5 3f d1 a6 fb 66 67 85 ed 3f
       0.661926828592418 0.9225346576106067
000210 bf f0 c7 a3 dd af df 3f af 3a 34 e2 54 18 cb bf
       0.4951089953826901 -0.21168004078977762
000220 36 a3 a3 39 70 60 e2 bf bc 38 ee f6 c3 2a b6 bf
       -0.5742722631231121 -0.08659004953935584
000230 23 1f 12 01 3a b6 e8 3f 82 6b 9b cc 47 78 01 40
       0.7722444554246731 2.1837306961946874
000240 a3 c9 77 28 92 1f 81 bf bc a7 f5 c1 c5 35 6f 3f
       -0.008360998020155835 0.0038098204092209247
000250 cc 84 53 2d a3 a8 d6 3f 03 6f 99 44 28 45 bc 3f
       0.3540428106917488 0.11043025660313437
000260 d3 06 4f 2c 83 89 b6 bf 51 75 d3 2b c8 82 c6 3f
       -0.08803577262645072 0.17586614742223586
000270 36 af ce f7 7b 45 a3 bf 57 b6 d8 d2 2e fb a1 bf
       -0.03763949775688362 -0.035119498479940496
000280 6d 86 3a 30 ea f4 b9 3f 46 ff cb 6a 7d 5b b1 3f
       0.1013933532472266 0.06780227525086699
000290 3a f9 56 5c cc fe d4 3f 43 87 ef e0 f0 5d b5 3f
       0.3280516530757215 0.08346467486947255
0002a0 3d a6 3b ef 0d a7 d5 bf 8f f0 41 12 28 a0 bc bf
       -0.3383211933383768 -0.11181879468671439
0002b0 1b cc f3 3a 32 4a 8c bf 82 a3 d9 1f 84 dd a8 3f
       -0.01381339304359668 0.048565033805807026
0002c0 f8 18 d6 9f c9 29 f0 bf 08 dd 0e ec 03 4c e9 bf
       -1.0102020495992843 -0.7905292139538753
0002d0 1a 97 d3 c4 f9 67 d9 bf 4e 3a 6e 5a 7c 3d ea 3f
       -0.3969711706289317 0.8200055853101931
0002e0 7c fa ce cd b2 72 f0 3f b9 76 1e d1 2a a8 d2 3f
       1.0280025519747644 0.2915141145875669
0002f0 c8 d6 d1 e5 cd 1f c2 3f 14 e8 88 ee 73 75 eb bf
       0.1415955898443626 -0.8580875071413652
000300 36 4a 4f 2d 27 10 c1 bf 69 27 83 f3 60 ed dc bf
       -0.13330545151127787 -0.45198844700336466
000310 09 ce e3 31 b9 25 d3 3f c1 85 70 49 98 cb e8 bf
       0.29917745468193907 -0.7748528894773515
000320 6a 54 8f 68 a3 01 f2 3f f1 92 09 0c 73 c3 dc 3f
       1.1253999790544875 0.44942928481604755
000330 bf 55 49 32 ff cb f3 bf e8 53 f9 bc 0a ce d4 3f
       -1.2373039211573624 0.32507580236898415
000340 41 d0 29 1d db ea b4 3f 75 3e da 70 7c b5 bf bf
       0.08170861684794863 -0.12386300807178847
000350 fb 7a 0e 98 64 c8 c8 3f ae 19 40 86 1b 75 cb bf
       0.19361550736081043 -0.21451133780665316
000360 c2 0c 31 94 81 ab a2 bf 94 1e af e8 7f 91 c6 bf
       -0.036464738216204676 -0.17631529675985702
000370 cf ef 69 67 7d 1d be bf c3 7b b2 74 77 19 b0 bf
       -0.11763747954131464 -0.06288858984997518
000380 77 b4 2f 38 34 5c f4 bf eb 09 cd ae 83 3b fc bf
       -1.272510737874908 -1.7645298793946675
000390 f0 11 a0 6b de dc bf 3f 2a 0d 53 5e 1f 39 c7 3f
       0.12446394088335189 0.18143074136433174
0003a0 7a f0 ca d5 79 0e f2 bf 38 28 df dc 46 ed ef 3f
       -1.1285341597822751 0.9977144540691887
0003b0 c3 11 09 ba 8f bd dd bf d7 85 d8 bf da f5 bc 3f
       -0.4646949116470546 0.11312644180045282
0003c0 ef 54 86 14 ab 26 d5 bf 87 95 85 3f 0e 9a f1 bf
       -0.330485124629674 -1.1001112443276229
0003d0 b2 a6 b0 cb f3 5a e8 bf e8 61 03 ab f4 26 b7 bf
       -0.761102578956715 -0.09043816733481658
0003e0 2c ee 2f d9 3b f0 f6 3f 12 21 15 b3 60 9e ec bf
       1.4336508258701413 -0.8943332193094042
0003f0 3c 22 16 26 fc 04 e4 3f 4f 9c 3b 85 fe 50 eb bf
       0.6256085151554269 -0.8536369898037125
000400 18 40 aa 42 a7 3d da 3f 94 1a a1 0f 04 5f a6 bf
       0.4100130225206171 -0.043693663509249664
000410 1f a9 90 b3 99 2a d1 3f 10 f7 1d 11 d3 73 ea bf
       0.2682251218381157 -0.8266387304608731
000420 31 9b 4f 32 cb b2 f3 bf 79 3f 2e 95 ae d0 d5 3f
       -1.2311508145591683 0.3408619362680763
000430 7f 14 76 e7 d5 63 ee bf 8e 3a 05 25 c1 73 d0 bf
       -0.9496869583823723 -0.25706509223247387
000440 9f de a5 8a c1 b2 e3 bf 7c 42 00 93 5e 30 d0 3f
       -0.6155708034484241 0.2529522357517988
000450 1d 2a b8 69 88 00 e0 3f dc 8c bc c5 4e fe bf bf
       0.5000650467712294 -0.12497417762328972
000460 42 48 e5 17 97 53 92 3f c6 a8 51 c1 f7 86 d5 3f
       0.017896996339296097 0.3363627803688697
000470 cb 0b b4 90 68 e9 ef bf d3 82 ac e7 5f a6 01 c0
       -0.9972422434078622 -2.206237611724967
000480 aa d5 05 fc 8f df e0 3f 20 7e 85 10 12 18 e5 3f
       0.5272903368301531 0.6591883013424571
000490 51 e9 ba 07 e7 ec ee 3f a6 b8 d7 03 11 b2 cc 3f
       0.9664187575320203 0.22418415725355095
0004a0 72 91 98 21 1e 26 9e bf 34 72 e4 a4 bb b5 d6 3f
       -0.029442282486472356 0.3548421011235263
0004b0 f2 5c 7e ba 34 52 c5 3f 04 c3 16 bf 8f c9 03 c0
       0.16657122713215916 -2.473418705827841
0004c0 f6 38 6b 1c f5 3b c1 bf cd 87 97 8b ff dc b4 bf
       -0.13464225661886758 -0.08149716527944335
0004d0 0c 96 9b e6 d7 f1 c9 bf 67 c2 a2 65 aa 12 b1 3f
       -0.202692973710484 0.06669106465666062
0004e0 3a 91 d9 d7 ef e6 c7 3f ba b8 04 29 8d 72 a3 3f
       0.186735134501882 0.03798333287919449
0004f0 cd a3 f3 a7 80 67 a5 3f d0 bc b8 9c ef 28 e7 bf
       0.041805286886137695 -0.7237470684975964
000500 e8 1c bf 32 83 9a f6 3f 1b fa dc 19 b7 d6 e7 3f
       1.412722776631023 0.744960356248899
000510 22 76 d5 a3 3f e6 d7 3f 43 dd 89 4c 3b 15 d0 3f
       0.3734282588901313 0.2512958762594801
000520 f5 88 17 21 30 f2 ee 3f 6b b4 9d be b6 aa ec 3f
       0.9670639654471233 0.8958390925378245
000530 bf 8c fc 67 65 15 ee 3f bc 9c 8b 5c 45 1c cd bf
       0.9401118308054704 -0.22742526072327063
000540 8f e3 a7 2a 16 fc cc 3f b7 8e fa 67 24 f8 db 3f
       0.22644307215503232 0.43702039865659564
000550 81 93 fc 8f 2a c0 b8 3f e6 1d 62 c2 91 4d b1 bf
       0.09668222441957931 -0.0675898646896865
000560 56 59 1a 07 ba e7 a2 3f c3 24 38 cf a1 40 ce 3f
       0.03692418419557224 0.23634741418962876
000570 33 98 4f 9a 85 cf bb 3f e0 ac d8 c8 89 c7 08 c0
       0.10863528268200255 -3.0974307719348957
000580 a8 50 51 5c ab 48 e2 3f a5 cf 14 3a 01 e2 ee 3f
       0.5713707736090514 0.9650884756469976
000590 03 92 1d f6 ea 28 c0 bf 8e ee 8f 3b c6 32 e1 3f
       -0.12624871270521973 0.5374480403256301
0005a0 8a 5f 5a e4 82 8c ef bf 97 85 35 dc 9b 8d d7 bf
       -0.985902257921212 -0.36801811699668846
0005b0 13 1e bd 05 1d 2a e0 bf 18 bd 62 a5 13 aa ea 3f
       -0.5051407920918244 0.8332613210858737
0005c0 c9 f0 5a 87 3d 7b c0 3f 72 16 b7 a4 bd 80 b0 3f
       0.1287609969057313 0.06446442862860538
0005d0 df 6a 6a 12 32 69 a3 3f 0f 4d cc 39 06 6d a5 bf
       0.03791195368576949 -0.04184741454641926
0005e0 64 45 e8 c8 f4 de 9c bf 8e 98 04 2f 8b 4d b2 3f
       -0.028194260370644555 0.07149572275065649
0005f0 fb 14 2c 56 67 5b ac 3f fd ee b5 38 50 0e c9 bf
       0.05538485457331351 -0.19574930924488135
000600 fa a3 bc be 76 ee cc 3f 21 06 2f d7 19 0c e0 bf
       0.2260273391086967 -0.5014771654898064
000610 63 dc 42 39 46 58 d1 3f bc 27 98 c5 87 1f e8 3f
       0.27101283637916235 0.7538489207520267
000620 02 47 92 e5 46 97 d5 3f c5 b4 c7 dc 4f 07 d7 bf
       0.3373582116993107 -0.3598212867789921
000630 46 bf 34 b3 df 57 e1 3f 92 4a c3 f0 61 73 ec 3f
       0.5419767856710471 0.8890847875976127
000640 f1 07 cb c0 ef 17 d6 3f 6f 61 61 24 bf 97 d4 bf
       0.34521097018671215 -0.32176188042423964
000650 9f 7a ae a1 d8 75 e0 bf f0 64 9a 79 47 7f e4 3f
       -0.5143855245440426 0.6405370116291618
000660 7d 18 db 3e 35 ac c5 3f 42 6b d7 2b b2 31 ec bf
       0.16931787079937868 -0.8810664039877809
000670 47 96 8a 6f 23 c3 e5 bf ef 74 d7 d3 7f aa fb bf
       -0.680070608000002 -1.7291258120597452
000680 9c 5c c0 b1 24 b4 ea bf 01 d6 9f 37 84 5b e3 bf
       -0.8344901534755027 -0.6049214445508256
000690 81 79 09 18 6c 00 d4 bf 4c 66 64 27 06 39 c0 bf
       -0.31252577159275324 -0.1267402355522783
0006a0 a0 93 65 86 dc bb f1 3f be d6 35 92 3a 14 d3 3f
       1.1083646058916443 0.29810966757154833
0006b0 0d c0 fe 52 c8 a4 f1 bf 3c 42 d7 e9 1a cd d4 3f
       -1.102730106544189 0.3250186236955732
0006c0 38 88 7d c7 06 a3 c0 bf 09 d8 08 fa ca 84 c6 bf
       -0.12997517338505005 -0.17592751702039802
0006d0 4e 71 ae 1b 9e a5 d2 bf ee a0 00 b0 33 f6 c0 bf
       -0.29135849669707603 -0.13251348585004713
0006e0 2b fb 1a fb 67 b6 c0 bf 65 7c ae b2 1e 90 c6 3f
       -0.13056659470563522 0.1762731907337837
0006f0 47 ce 6b 03 14 8f 86 bf 7f 63 80 ec 6e d4 da bf
       -0.011015087465671715 -0.419215899427904
000700 04 f3 05 18 e8 40 95 3f ea 6c 65 e2 03 aa d3 3f
       0.020755411592733544 0.3072519026661228
000710 e0 4f 2e d4 d4 a5 d2 3f cf 44 42 6e c2 35 b3 bf
       0.29137154312888747 -0.07503905479304084
000720 9f 63 28 3d 17 fc d1 bf 5a 24 f5 cc 84 28 bc 3f
       -0.28101139995993124 0.109993267096017
000730 62 2a 53 66 23 1d a0 3f e3 0e 63 ff cb 72 b3 3f
       0.03147230743487196 0.0759704111579214
000740 99 dc 1f d6 d9 45 bc 3f a1 29 d5 34 36 f8 9f 3f
       0.11044084050796456 0.031220290159845402
000750 0b 24 f7 c4 74 5d d9 3f 1b 3b 77 cd b7 4f 92 bf
       0.3963291095247434 -0.0178822249561633
000760 63 d1 e2 83 b3 5c e1 bf 68 1c 11 0c a5 61 84 3f
       -0.5425660682581505 0.009951867514372562
000770 88 20 ca 0d 17 58 de 3f 05 a3 5e 8c 55 bc c2 3f
       0.4741265902198468 0.14637250284183537
000780 c2 93 74 51 3c 51 cb bf 81 1f 1a e6 52 04 d3 bf
       -0.21341661431611497 -0.29713890524771364
000790 33 68 1a 4b b0 fe c7 bf d3 cc 2c a3 04 ce ba 3f
       -0.1874599806513416 0.10470608695759447
0007a0 52 e8 f1 a4 bd d9 d0 3f 92 a5 a1 3c f0 53 b5 3f
       0.2632898436346568 0.08331204872378908
0007b0 d0 4d 9c ea 15 da b7 3f c6 41 8c af 7a 23 b8 3f
       0.09317147233769352 0.09429137025677567
0007c0 aa 49 c8 96 59 93 c7 3f 5b 30 01 84 1c 81 cb 3f
       0.1841842638246594 0.21487766690768492
0007d0 ce 10 e2 21 4a 46 cf 3f b2 db eb 53 53 35 ca 3f
       0.24433256773421025 0.2047523650905681
0007e0 39 41 e4 f6 9b 88 f6 3f a0 73 ff a0 67 c6 76 bf
       1.4083518642620005 -0.005560307312376361
0007f0 71 fa f8 7d 52 74 9d bf c2 c9 28 c8 6f 39 f4 3f
       -0.028764046610599118 1.264022619125726

linear_1.bias f8 [150]
000000 f3 f7 3b 9f 88 67 f7 bf 14 8e 53 40 c1 99 fc bf
       -1.462776777275846 -1.7875378144025307
000010 18 b5 25 da b3 f5 f7 bf 23 3a 91 ea fd 26 00 c0
       -1.4974859734896366 -2.019038994366626
000020 26 62 29 1b d0 1e e6 bf 30 b0 0c 97 ed 8a db bf
       -0.6912613420964291 -0.43035449744161536
000030 6c f1 29 71 7d 76 f9 bf 2f c5 2b 8d 35 2c 76 bf
       -1.5914282246077063 -0.005413254914615791
000040 46 d2 4b d5 95 fb d4 bf f4 6c f2 fa 07 e0 ed bf
       -0.3278555472345811 -0.9335975552852731
000050 76 e3 15 7f 53 2f f0 bf e7 ff da 02 b3 83 f3 bf
       -1.0115542377736495 -1.2196531402150812
000060 af 2e 7a 0e a6 10 ea bf 63 a7 14 17 85 05 ef bf
       -0.8145323069342875 -0.969423813895656
000070 bb e8 49 18 58 0e fd bf 6b 71 3a 37 7a d3 ea bf
       -1.81600198257233 -0.8383151129415131
000080 c8 44 91 b1 07 a1 f0 bf 4a f6 68 be f9 04 f7 bf
       -1.0393139778355351 -1.438714736737341
000090 d3 45 ee a8 05 e5 f4 bf c3 3d 39 6b 88 7d f0 bf
       -1.305913600812677 -1.030647677271063
0000a0 32 1c e3 5e 4e b7 e3 3f b1 86 a6 a0 21 95 f8 bf
       0.6161262372269276 -1.5364090228471634
0000b0 07 1c 00 62 ff 50 fb 3f d4 06 f6 ca b6 1f df bf
       1.707274802030726 -0.4863106710473464
0000c0 a8 ac 3c b2 38 27 01 c0 1a b3 00 18 34 35 e3 bf
       -2.1441511082426423 -0.6002445668033005
0000d0 87 23 72 ae a6 96 00 c0 38 0e 8f 5b e6 6b f4 bf
       -2.0735601070959464 -1.2763427330509227
0000e0 9a d4 21 1e 68 84 f0 bf 8f 0e 85 c2 56 7c fe bf
       -1.0323258568799134 -1.9053561781337611
0000f0 a1 e3 14 35 f4 7a ec bf 19 ed 96 ba 22 d8 f4 bf
       -0.8900090252637832 -1.302767495027018
000100 93 23 36 35 d0 71 f4 bf a1 20 ae 37 b9 68 ef bf
       -1.277786453111024 -0.9815336310866948
000110 67 b8 36 3f 1e d6 ee bf 94 52 19 cd 13 4e ec bf
       -0.9636374697345332 -0.8845309263075074
000120 1f da 4a 80 a4 80 e8 bf 73 27 ad 43 bb 16 f7 bf
       -0.7657034402571447 -1.4430496829613417
000130 c1 25 09 71 70 ba f2 bf fd a2 20 d5 4a 61 f3 bf
       -1.1705173888643545 -1.2112530064861737
000140 5c 36 41 28 85 3c ea bf 02 35 d1 12 e0 7d f5 bf
       -0.8198877130723292 -1.3432312712714638
000150 8e a6 d5 db 92 7d f0 bf dc 27 d4 c4 19 4b f7 bf
       -1.0306576335227962 -1.4558351219770804
000160 52 5f 84 5d 91 9f f3 bf a8 4d 97 54 38 5c e4 bf
       -1.2264569905291478 -0.6362573291939286
000170 a2 82 0f e3 dc c7 fa bf 5d 35 4d 20 d3 f8 fc bf
       -1.6737946385912115 -1.810748220613582
000180 e5 56 09 54 b6 9a f2 bf 6c 4d 13 62 bb a8 f3 bf
       -1.1627715380358776 -1.2286943274565045
000190 2e 5f 4e 7b 5b 13 f0 bf ea 6f bb bd 81 91 f8 bf
       -1.0047259155889594 -1.5355241214192525
0001a0 dc 02 88 3b 78 3d e6 bf 79 29 73 76 bc 68 f0 bf
       -0.6950036204071597 -1.0255703570315673
0001b0 a7 a0 68 55 68 d9 f3 bf f5 02 60 60 22 a6 f1 bf
       -1.2405780159261128 -1.1030601277017784
0001c0 a3 4a 2a 91 4d c3 ee bf cd da f8 fd f7 47 f2 bf
       -0.9613406977899398 -1.1425704880509102
0001d0 54 ac eb ae c9 5f d3 bf 4a 07 a4 a8 41 eb f3 bf
       -0.30272142488565135 -1.244935663941265
0001e0 fa 0d 5e 6a 55 6d ff bf e1 72 0c a5 ec ab d8 bf
       -1.9641927866913407 -0.38549343221693105
0001f0 78 79 d9 fd f4 a9 ed bf bf af b0 56 50 7d f9 bf
       -0.9269967039106595 -1.5930941950164053
000200 6d 0c 54 47 6e 07 f0 bf 3c ba a4 33 6e fc ec bf
       -1.001814154268483 -0.9058142670308551
000210 34 6c 1b 4f 87 ea d4 bf ee 52 f7 42 48 a6 e0 bf
       -0.3268144867449252 -0.520298128884489
000220 d9 65 e6 8f db dd fb bf 24 a3 08 99 e6 33 d8 bf
       -1.7416644688695355 -0.3781677717657195
000230 46 eb aa 6f e5 d1 f2 bf ce a8 89 95 d3 5f 9b 3f
       -1.1762441980378795 0.026732736589487875
000240 75 b7 61 2f 37 68 e3 bf 57 fa 2f fa f2 86 f4 bf
       -0.6064716267990052 -1.2829465649553151
000250 a8 b2 5c 8e a3 3a f9 bf 50 a7 03 89 68 79 ec bf
       -1.5768161355037282 -0.8898203540859217
000260 a5 3b cf c4 73 99 e4 bf 62 ee 94 33 4b 39 e8 bf
       -0.643731960671961 -0.7569938666778848
000270 31 f0 cd 12 f2 80 f6 bf 4a 71 46 42 e2 7a db bf
       -1.4064808592365916 -0.42937523338493533
000280 60 31 b0 75 36 79 f1 bf 0c 34 ef 54 25 81 ba 3f
       -1.0920929524609946 0.1035331089362474
000290 ab b7 09 7e 73 ce f4 bf 5c 62 10 50 5e 60 f8 bf
       -1.3004031108243719 -1.5235274436473878
0002a0 3d 76 40 fb 00 2b 01 c0 ba 60 61 52 db 5e da bf
       -2.145997965721817 -0.41203959507903287
0002b0 89 f1 73 06 85 51 00 c0 6a a2 7d 3f 79 ef fc bf
       -2.0398045066960475 -1.8084652404887955
0002c0 92 b3 16 fc a5 83 ee bf 96 68 77 69 4e 2a 00 c0
       -0.9535703586203559 -2.020657371479568
0002d0 e5 c1 b1 94 2e 3d f1 bf a8 c7 91 8a e2 c1 e5 bf
       -1.0774370010732295 -0.6799175936159729
0002e0 38 9e 74 e4 9a 74 e4 bf 39 3b 3d 4b de d5 fe bf
       -0.6392340147039652 -1.9272139491110478
0002f0 89 6c 52 7e 0c 64 e9 bf de ab 00 f3 97 3b fe bf
       -0.7934629885889005 -1.8895492069520894
000300 9e 7c 04 e9 a9 bc e7 bf 43 2b db 5c a7 3e f3 bf
       -0.7417802382587018 -1.2027963282768759
000310 32 ed 4f 55 ed ee f2 bf b1 a6 2c eb 44 c5 dc bf
       -1.183331807375748 -0.44954035726787384
000320 2a 4d f7 8b df 6c e9 bf eb 0c 78 12 5b 61 f4 bf
       -0.7945401891433097 -1.2737684937899825
000330 af d6 15 a6 68 cb e0 bf c5 8b d4 7a b8 7c e9 bf
       -0.5248301738599447 -0.7964746855762931
000340 94 5e 33 11 dd b5 f5 bf ba f3 4b 1f 70 b0 ee bf
       -1.3569002792263847 -0.9590378390563423
000350 28 12 8c cb 45 6e 03 c0 ba e2 d4 8c 65 d5 00 c0
       -2.4288440611001256 -2.1041975977389855
000360 e5 43 91 ce 48 19 fe bf 29 60 1c 0b f9 ed f6 bf
       -1.8811729496994698 -1.4330988344208981
000370 ac c9 99 e9 e5 25 fd bf 0b 39 fc ce e4 27 ff bf
       -1.8217524647740033 -1.9472396931992673
000380 75 54 2e 98 a1 87 fc bf d9 42 6f cc ef 56 f7 bf
       -1.7831130928582557 -1.4587247834899044
000390 66 ea 6d 17 53 47 ee bf 5d 4d 76 93 fe e2 f3 bf
       -0.9462066133122107 -1.2429185638655647
0003a0 8f 0a 8b 47 7d 83 e3 bf 85 df 4b 97 41 78 f6 bf
       -0.6098009488417392 -1.4043594274535007
0003b0 e0 0f 93 7f 4b de f2 bf 86 44 b6 41 96 e2 03 c0
       -1.1792712195756323 -2.485638154387348
0003c0 f9 ca d3 db d6 cf eb bf 35 bc 43 e9 fa 1d da bf
       -0.869121007299639 -0.40807984142060444
0003d0 05 1a e5 34 21 12 f5 bf 56 b0 3d 15 5e 49 ee bf
       -1.3169261995514046 -0.9464559950697644
0003e0 93 f5 2a d1 f6 b1 f4 bf d2 81 92 65 91 5e 01 c0
       -1.293448273717648 -2.171175759824316
0003f0 b8 69 90 a8 e4 f8 f5 bf a4 e7 fc cb df ad f4 bf
       -1.373264940694396 -1.292449757411739
000400 2d e5 84 11 ce e1 e7 bf db 61 4d ed 66 56 01 c0
       -0.7463140813989974 -2.167188505100268
000410 22 7f fd ef 10 3e d3 bf d7 a9 c6 15 40 3d e9 bf
       -0.30066321789307626 -0.7887268472016399
000420 3d f5 6e 62 b4 37 f0 bf ca 7f 3d 25 f0 56 fc bf
       -1.0135997624450532 -1.7712251143166093
000430 d1 0c 46 51 14 3f 97 bf 1d 5f 33 8d 3a 34 02 c0
       -0.022701566181706326 -2.2755023032476758
000440 68 fd 91 85 09 64 ec bf 03 b0 e7 26 42 bd f6 bf
       -0.8872115715784448 -1.4212056655624117
000450 e3 96 88 de 7f 0b f9 bf 9b 3d e8 cd 54 36 f9 bf
       -1.5653074925152672 -1.5757644694566355
000460 a4 df 27 5b 51 26 f8 bf 6e c7 ab c4 c2 80 f9 bf
       -1.5093549309512833 -1.593935745473995
000470 e0 2e d1 de 7c df f4 bf 46 ec c8 f2 7d e9 f1 bf
       -1.3045624450486955 -1.1195048793586166
000480 6a 44 f5 40 85 66 00 c0 5d a8 62 54 74 89 f0 bf
       -2.0500588488435385 -1.0335582062057462
000490 c5 ca df 4c 4f 24 fa bf 8d 78 73 70 de cc f0 bf
       -1.633864689149662 -1.0500168221110784
0004a0 05 d5 22 2c 8d b8 f0 bf d9 d9 e3 10 f5 bf c2 3f
       -1.0450565074982603 0.14648307156285403

linear_2.weight f8 [150, 150]
000000 9f 7d ff a5 66 7a d3 bf ed e5 0f bf 2d 47 c6 bf
       -0.30434576235526295 -0.17404720143512922
000010 f8 06 03 f5 39 f9 cb bf c0 53 76 be 32 8e cd bf
       -0.21854328597515127 -0.23090204524910796
000020 e7 12 d4 11 e1 88 df bf b0 4e d9 01 5a c2 a7 bf
       -0.49272944203430175 -0.04640465996331267
000030 64 56 47 7e 3c 5b b3 bf fe a7 b3 71 19 77 c4 bf
       -0.07561090548491617 -0.159884624975632
000040 eb 1c 6b 86 d2 ad ca bf bd 6e 80 42 fa 40 a8 bf
       -0.2084296375598805 -0.047370739572412536
000050 8d 10 e6 cb a5 21 f0 bf e5 5b 04 f7 d3 c6 e2 bf
       -1.008214756469019 -0.5867709946204483
000060 66 b7 04 4f 7a 76 e5 bf 50 97 5b f4 0c 0e de bf
       -0.6707126181915839 -0.4696075807863638
000070 ec 34 08 ef b3 c9 e7 bf 4e d4 01 16 47 36 c8 3f
       -0.7433719318957208 0.18915642332618393
000080 68 ff 38 d7 69 51 bb bf 6f ff 5a 91 88 a0 e7 bf
       -0.10671102051219139 -0.7383463705991583
000090 7b b5 c4 b0 46 2a e7 bf 03 c0 29 9a 40 c8 e2 bf
       -0.7239106609828662 -0.5869448672292495
0000a0 5b 4e e9 dd bb 64 e0 bf 62 bf db 20 8a a0 b6 bf
       -0.5122966131406871 -0.08838713934141887
0000b0 5d a8 49 d1 74 1b d0 bf 22 b7 ae 37 32 f5 d9 3f
       -0.2516758006883089 0.40559058606855747
0000c0 ef 0f 8e 27 8f 6d cf 3f 91 d4 e2 87 06 f3 61 bf
       0.24553098136323068 -0.0021910789065154386
0000d0 02 59 05 90 7a 89 c2 3f 86 99 59 a7 7f 3b df bf
       0.14482051880140295 -0.4880065092351277
0000e0 f0 a1 8a 3f e0 cf cc bf 50 69 35 c4 f4 49 d4 bf
       -0.22509387114156665 -0.31701392327308486
0000f0 5f ef 26 10 44 1c fc bf 6d 44 20 68 dd 10 b4 bf
       -1.7569008475247399 -0.07838233749522923
000100 3e 0e da fe 0b 30 aa bf 01 54 28 85 f3 ae c8 3f
       -0.05114781843169823 0.1928390884574185
000110 5c f6 1d cf c1 ca b8 bf 19 9c e7 e1 16 eb cc 3f
       -0.09684382731026048 0.22592435865883045
000120 df 63 f6 14 dc f9 de bf dd 21 74 d9 52 06 d2 3f
       -0.4840002255164659 0.2816359637804718
000130 a4 65 02 90 e2 1f 59 bf 59 4e a1 d2 78 d6 e1 bf
       -0.0015334808850070237 -0.5574306596631217
000140 8b 03 30 52 bb 64 b4 3f 1a df 42 43 82 fd d1 bf
       0.07966204411060411 -0.28109795158842277
000150 5c 78 84 18 65 d0 c1 3f 2f 96 2f a7 12 16 ce 3f
       0.13917220780507733 0.23504861033795652
000160 dd a9 2e 6a f5 75 cd 3f 9d 03 1c d9 d2 4a d3 bf
       0.23016231236154186 -0.3014418716630248
000170 ba 85 54 d5 61 20 c4 bf 50 7f 99 02 8e 8f 91 3f
       -0.15723822514068592 0.017149180325190472
000180 3d ab 03 0c fd d7 e7 bf d8 4c bb 07 77 e8 93 3f
       -0.7451157793669619 0.019441470953847823
000190 b7 51 60 4b c9 6d ae bf 24 27 ea 9a 34 84 c1 bf
       -0.059431353045656214 -0.13684709133331652
0001a0 08 a5 3b b7 44 45 ac 3f 4f 16 af 5d 7f 4b e9 bf
       0.055215976111705756 -0.7904660062565173
0001b0 a0 77 3c 5d 09 fd b7 bf 00 81 84 e0 1c 24 c4 bf
       -0.09370478178286001 -0.15735207522175898
0001c0 1c b8 25 e3 bf ee a9 bf 17 e5 d8 70 a9 cc d7 bf
       -0.0506496395854443 -0.3718665697120555
0001d0 f4 f0 ce f7 e0 fb d5 bf c5 e5 e5 c3 62 0f ca bf
       -0.34349846076999246 -0.20359453740438319
0001e0 69 2e 69 31 94 5e 9b 3f 60 6f fc 66 d5 bd d5 bf
       0.02672797729091628 -0.33971152360185464
0001f0 f8 e6 08 47 7d 31 d6 bf 6c 55 0a a6 39 a0 9f 3f
       -0.3467705911349266 0.030884648093509368
000200 70 00 27 13 21 6c d6 bf 92 7a db 7c eb 5a f0 bf
       -0.35034968252512666 -1.0221972348441892
000210 e3 b0 04 1d e8 e7 f2 bf a5 19 59 f4 32 45 d4 bf
       -1.1816178449180874 -0.31672357427705783
000220 ea 25 02 0d 20 29 c9 bf b5 56 45 da 72 03 d0 bf
       -0.19656754145789473 -0.25021048846734156
000230 65 56 9a d2 e2 72 e5 bf 1d 1b 3d e1 df aa e3 bf
       -0.6702741731011882 -0.6146087073510419
000240 2a 48 d0 6f 59 9f da bf a4 35 f4 43 d0 e7 b7 bf
       -0.4159759132318209 -0.09338094386131118
000250 cc df 9b 43 1f a9 b2 bf b4 b8 68 77 fe 42 c6 bf
       -0.07289309883697043 -0.17391949491997638
000260 f9 4e da fb 6c 22 c3 bf 73 68 e7 6d 35 3a e3 bf
       -0.14948808953760542 -0.6008555552064209
000270 7c eb 4d 68 cd e9 b9 bf 81 b6 59 80 01 80 be bf
       -0.1012237910889961 -0.11914071448856058
000280 0c d6 96 9b e1 10 e3 bf 8c 36 da bf 04 ec dc bf
       -0.595810703168071 -0.4519054292257827
000290 ac 93 60 98 64 b0 db 3f e4 bf 0d 84 ad de c4 bf
       0.432641171270286 -0.16304558704314254
0002a0 ab 0a 53 d2 3f 2f b0 bf 71 6f 27 5f 35 8b e9 bf
       -0.06322096714851948 -0.7982432230451036
0002b0 2b 7f c3 00 a4 be e4 3f a6 d4 ea 1a c3 7c f4 bf
       0.6482715620913714 -1.2804595042664828
0002c0 29 b2 41 26 e2 8e b4 3f f5 80 19 e2 34 54 c1 bf
       0.0803052276039088 -0.1353822807313986
0002d0 7b 03 66 33 3e 97 cf bf d6 65 d5 c4 6f 47 db bf
       -0.24680306920711445 -0.42623514387159156
0002e0 97 fc 8e 6e c6 a6 da bf 1b 34 f7 a4 b6 37 d3 bf
       -0.4164291457818278 -0.30027547941136995
0002f0 c0 94 b0 21 21 6f c2 bf a2 32 70 63 1d e6 c9 bf
       -0.14401640076645172 -0.202335046342701
000300 b5 5f d6 0b 76 c0 dd bf 7c c9 b7 e5 3a 49 b0 bf
       -0.46487189441676985 -0.06361740215633022
000310 95 72 62 b4 08 bb db bf ef 7e 9a 2b 89 5e d8 bf
       -0.4332906495635965 -0.3807700086417602
000320 eb 98 0d de 52 b4 e6 bf ef 03 5e 53 16 5b d1 bf
       -0.7095121705031294 -0.27118452206928984
000330 76 f7 93 86 ae 67 cb bf 22 3d 6a bc 9d 0c c9 bf
       -0.2141016156310191 -0.19569751453352874
000340 98 4a 11 f0 de 22 e4 bf 8e 7a 8a 78 b3 98 f0 bf
       -0.6292566956347683 -1.0372805317526033
000350 82 05 cb fb 7d 49 bf bf a9 4a e5 00 60 92 e9 bf
       -0.12221515080729797 -0.7991180436605038
000360 17 e4 26 37 db ee dd bf b7 ad 3e 13 95 0d d7 bf
       -0.4677036322205494 -0.3602039993226884
000370 3e 97 13 17 fa af ad 3f 0a ef 98 91 c5 33 d5 bf
       0.057983222310026936 -0.33128489702697606
000380 ea 18 50 7d f6 b2 e8 bf 6c b9 be c1 df bf d4 3f
       -0.7718460509793463 0.3242110626259975
000390 d4 43 bc 34 a8 a4 da bf fa a1 0b 98 c2 9a f0 bf
       -0.41629986905996685 -1.0377832354807865
0003a0 a7 f4 d8 c7 5b d7 d4 bf dc 7b 29 a2 84 2a ac 3f
       -0.32564444080692073 0.05501188735501447
0003b0 e6 55 95 aa c3 ba c9 3f ff bf f6 d7 42 c3 df bf
       0.201012094776771 -0.49629279222699546
0003c0 95 d4 60 9f 5c a3 cc bf 0d 5d 58 97 98 ac de bf
       -0.22373540670529182 -0.47928442745019667
0003d0 dc ac 61 7c 84 92 e0 bf eb 4e df 50 56 15 d4 bf
       -0.5178854398085622 -0.31380231759724947
0003e0 4a b3 b0 8c 87 24 e9 bf c0 df 30 69 e3 57 a4 bf
       -0.7857091663223426 -0.03973303469723488
0003f0 9d 38 89 b7 c2 5e d3 bf fd 41 d5 fd c9 fd c2 bf
       -0.3026587288230845 -0.148370026533044
000400 84 3c 96 f4 68 ba e7 bf 4a f8 d9 1b 33 11 ae bf
       -0.7415051247679831 -0.05872497286780794
000410 01 e7 3e 65 a2 a7 c0 3f 05 1e 87 cf e9 b5 de 3f
       0.13011579459799097 0.47985310808550735
000420 06 37 dc b4 c4 27 db bf 6f 7c 70 f6 45 42 c2 bf
       -0.4243022695744546 -0.14264750035451665
000430 1e bc 49 e1 53 22 d0 bf ce 9f db d1 fe 79 ed bf
       -0.2520951938703905 -0.9211420153414964
000440 08 98 26 4f 85 e1 e2 bf 5f 19 37 25 8c a1 e7 bf
       -0.5900293870843152 -0.7384701468334177
000450 8c c5 b0 9c 97 89 d5 3f 3b 6e 47 27 8b a4 cb 3f
       0.33652296354110756 0.21595897119446925
000460 b8 63 b4 e2 ba c9 8e bf 08 cc c9 65 1e f7 e0 bf
       -0.015033206981159938 -0.5301658618976726
000470 c6 ca 1d 6e 7f c9 d4 bf f5 d0 1c 82 0a 01 c2 bf
       -0.3247984481196621 -0.1406567702594043
000480 af 6b 39 80 39 84 9c bf f5 4d 6f 7b b7 63 b5 bf
       -0.027848146868887088 -0.08355280650658144
000490 1f 77 15 ef 58 60 b5 bf 2d d9 66 e2 61 7f e6 bf
       -0.08350139462478666 -0.7030496045979696
0004a0 73 e0 0d 4d 46 42 ce bf a2 e3 04 3d 71 0b db bf
       -0.23639754068767935 -0.4225733848466523
0004b0 d5 b2 98 d1 bd ad b8 bf 8f 91 f8 cc 06 9b d3 bf
       -0.0964010845861581 -0.3063370706243171
0004c0 47 8a 8f bb 4c 12 d6 3f a7 0b a5 1e 92 9c ee bf
       0.3448669273040292 -0.9566126440553163
0004d0 60 ac f0 76 05 e3 bf bf 28 8a 91 eb 68 bb d6 bf
       -0.12455782083331846 -0.35518858914125184
0004e0 2f 8b e2 25 82 a3 c2 bf 94 2e 6e 0d b9 51 e1 bf
       -0.1456148800835648 -0.5412259352028337
0004f0 bf d4 9d e1 67 ea d4 bf b0 27 6e b4 94 d9 b2 bf
       -0.3268069937979127 -0.07363252072369053
000500 36 6b ee 93 75 63 eb bf 49 b8 9e 63 0c 6f d4 3f
       -0.8558910264285717 0.3192778561450536
000510 d3 a9 82 17 5c 2a b7 3f dc 74 8c 38 99 b8 d1 bf
       0.09049010824188679 -0.2768919994576444
000520 55 f2 6b f3 fe 7e d3 bf 53 28 d0 76 b3 54 b8 bf
       -0.3046262147106849 -0.0950424351759989
000530 7e 2a 29 f1 ff 1c 92 bf b6 4f c7 d6 69 5b bf bf
       -0.017688750356948273 -0.1224886082994193
000540 0a 61 2d e5 7a 96 cc bf 57 c3 c6 8e 2c c4 b9 bf
       -0.22334228697105402 -0.10064962850334545
000550 d3 80 86 a8 03 29 dd bf 7d b8 69 b0 05 04 a1 3f
       -0.4556283136134997 0.03323381212690977
000560 3e d1 99 43 2a 5e c0 bf d0 53 b5 02 b9 0a 91 bf
       -0.12787369061300952 -0.01664246634512151
000570 e1 5e be 02 4d 73 dd bf 34 ab 62 9e 77 41 d9 3f
       -0.46016240375455025 0.39462080447508474
000580 97 49 f4 36 d0 d0 a3 3f b2 a4 95 65 fe f2 9c 3f
       0.038702494343073095 0.028270697546223196
000590 2e 5a 2a ad a5 c9 91 bf 11 39 cb 85 82 f3 84 3f
       -0.017370785421542738 0.010230083187164259
0005a0 61 49 0a a3 55 7b e8 bf 87 41 85 ee 9b e8 ac 3f
       -0.7650554832819517 0.056462166658664485
0005b0 a6 4f c3 84 da b4 b8 bf 1a 96 72 d3 4a ce c7 bf
       -0.09650960675509043 -0.1859830410441397
0005c0 21 ab 99 cf c2 75 b5 bf 15 76 83 09 4d d6 ad bf
       -0.08382813995710282 -0.05827561131603091
0005d0 e8 9a 69 5c db f3 63 3f 76 cb 38 fa 1c a6 82 bf
       0.002435615958620619 -0.00910589827171802
0005e0 0c 5a 6f 76 f2 35 b7 bf 7d 66 54 4d 2f cc d8 bf
       -0.09066691771963792 -0.3874624495671027
0005f0 51 ab de be 5b 60 c9 3f b3 4a 44 58 a7 c4 de bf
       0.19825312442602663 -0.4807527887325406
000600 13 bf 7b ed 8d ff e6 bf 36 b4 95 b5 7b 91 d8 bf
       -0.7186956060740805 -0.3838795922554853
000610 7e b5 40 f2 af c7 b3 3f 08 6b 14 44 05 d5 95 bf
       0.07726573624014141 -0.021320421486147573
000620 dd b1 4d dd 3c f9 74 bf e4 1e dc 37 e8 7b ae bf
       -0.005120504142592766 -0.059539086169079686
000630 09 6f 9d 63 ee 6f ea bf 86 a3 37 fb a8 75 a8 3f
       -0.8261634774785033 0.04777267519586474
000640 98 92 cf b7 f5 89 ae bf 59 04 7b 96 32 50 9f 3f
       -0.059646300018163234 0.030579367098429653
000650 11 e3 dc 45 33 88 b9 bf 86 03 bd 97 21 ad a0 bf
       -0.0997345014155935 -0.03257088639521215
000660 7d a2 e5 c0 ca 09 de bf 5e 38 3e 13 42 0d ac bf
       -0.4693476566085691 -0.05478865132236942
000670 cb 23 da a8 5e c1 eb bf 48 4a 91 31 28 db be bf
       -0.8673547075169322 -0.12053157053132069
000680 22 9c 11 01 68 db a6 3f 0a c0 7d d6 9f 42 84 bf
       0.044642686968295445 -0.00989270089459639
000690 8c ae 05 dd 12 fc a5 bf 43 98 5f 55 ad ee 9e bf
       -0.0429387945940479 -0.030207355819492198
0006a0 7a 08 ec cf e9 2f e5 bf b5 5c 20 ac 43 bf b6 bf
       -0.6620987950302741 -0.08885596229844135
0006b0 90 06 c3 87 07 65 d5 bf 1b c9 e0 e5 56 c5 eb bf
       -0.3342913461493504 -0.8678392877393749
0006c0 51 f9 7b 15 f6 5e df bf 12 6f bf 4c ef c3 e5 bf
       -0.49017097566674744 -0.6801678179722066
0006d0 61 41 e6 a6 65 66 9b bf 4f d6 a7 0e 3f a1 ab bf
       -0.026757801353200054 -0.053964586771979677
0006e0 bc 87 e9 f7 60 df 96 3f 7c d8 83 5a ed 07 b1 bf
       0.022336497432099853 -0.06652720889892011
0006f0 70 90 40 9a 8c 06 ba bf 04 31 f1 4c e0 b3 aa bf
       -0.10166243329928348 -0.05215359629855423
000700 ce 9e bd e1 2a 6c b4 3f f2 f7 5c 69 94 4b 9d bf
       0.07977550517318407 -0.028608626299721558
000710 01 63 a6 77 4d 8d a6 3f f8 c7 7a 45 0d d0 d2 bf
       0.044046803336817326 -0.2939484766494611
000720 49 70 42 3f e4 6e bb bf a0 22 77 80 26 35 d8 3f
       -0.1071608213846399 0.37824404282995694
000730 7f 05 cc 6e 04 a5 d0 bf 0b a4 bc fa 81 be b8 bf
       -0.2600718576432754 -0.09665691730027974
000740 c4 5d 63 85 5f d7 ef bf 59 30 40 bd 3f 3a b9 bf
       -0.9950406651723189 -0.09854505892161693
000750 00 1b 06 55 dc 3c 89 3f 68 25 9f b3 38 ed a8 bf
       0.012323113770219773 -0.048684856344673844
000760 84 46 8c 7d 1f 02 dc bf 2f 5a 8d b9 49 63 b5 bf
       -0.4376295782140931 -0.08354626445848433
000770 3e 72 54 c2 8c 41 bb bf 1a 1e 20 b4 83 cc ac bf
       -0.10646896118527935 -0.0562478215579711
000780 e6 bf e6 12 4e da af bf ee bf 7c 4b ff 29 bb bf
       -0.062212409789367304 -0.10610957711173771
000790 0a e7 50 9d 61 ef e5 bf 40 0d 62 db ff b9 b3 bf
       -0.6854713509157773 -0.07705687624006874
0007a0 1e 59 68 3c 5b 21 c4 bf 51 3d ac 55 6a 3c b6 bf
       -0.15726795625295947 -0.08685936538335183
0007b0 c7 7c fd d1 03 b7 c6 bf 40 09 2f 9f bc c4 b6 bf
       -0.17746017220904362 -0.08893946539231923
0007c0 f0 3a a4 a2 28 d5 9b bf 65 0a d2 71 6f d6 67 bf
       -0.027180323531008577 -0.002909867921119957
0007d0 76 d5 03 2e 23 09 a2 bf d0 4f 26 27 8c 55 d1 bf
       -0.03522596298891305 -0.270846403343282
0007e0 d2 c4 a2 96 bd 49 9a 3f 72 61 dc 09 05 cb 91 3f
       0.025671922988014746 0.01737602112470555
0007f0 22 48 20 91 b9 65 d9 bf b6 27 76 e5 e8 79 cb bf
       -0.3968337933775975 -0.2146578903596585

linear_2.bias f8 [150]
000000 cc 41 ae 8a dd 3b d1 bf 3d e8 40 98 35 0f f0 bf
       -0.2692788938811901 -1.0037132213024187
000010 e6 05 83 7a be 30 f7 bf 39 5d ed 5f 9e 55 e6 3f
       -1.4494004045121698 0.6979514955118368
000020 1b ba 00 5f 3b 76 f3 3f 84 41 da a2 bc 29 de 3f
       1.2163652144478252 0.4712974157673886
000030 8f 55 9f d2 96 2e e1 bf c0 b2 30 36 fb 75 f3 bf
       -0.5369371522635208 -1.2163040272527468
000040 3d 08 fc 76 f2 46 f5 3f c6 ce a1 94 56 04 e4 bf
       1.3298210761863765 -0.6255295660943936
000050 c0 ec 90 7a 12 70 c2 3f 06 41 ee 35 89 e4 d2 bf
       0.14404517159150565 -0.29519872919719636
000060 76 89 bc 6c 98 6c f2 bf d8 21 9e 64 2b df ef bf
       -1.1515125510710198 -0.9959923711003809
000070 7d 2f 91 a5 52 23 f9 bf 3f 74 ac 09 ca 1d db bf
       -1.5711237399545717 -0.423693189093516
000080 c4 d8 42 32 14 25 fa bf 83 79 91 be e9 ae c5 bf
       -1.6340524638485912 -0.16940042309847678
000090 33 7b fb 6b 40 a6 c9 3f 62 be 18 df da 1c f3 bf
       0.20038609764648072 -1.194544669600781
0000a0 a7 a3 87 b2 28 ed f2 bf 01 74 a2 49 0e bc e2 bf
       -1.1829001401731405 -0.5854560316253129
0000b0 21 0e 87 9e 37 14 f4 3f 01 b6 2c c1 28 f9 e8 bf
       1.2549358551485812 -0.7804149411146569
0000c0 3c d5 42 40 c2 d4 d8 bf 2d 78 80 61 a2 9c e1 3f
       -0.3879857661771273 0.5503703979809466
0000d0 41 b5 9c 23 ca dc e7 3f 5f 51 6c e9 99 d5 e8 bf
       0.7457018561887382 -0.776074367432141
0000e0 a8 92 c6 c7 31 48 ce bf 0a ba e2 33 8e 80 eb bf
       -0.23657819990798612 -0.8594428075210214
0000f0 44 df f7 c9 46 f5 f1 bf ef 8c b5 a9 cc 63 cf bf
       -1.1223819627175127 -0.2452331379564394
000100 fa e6 10 2f 28 2f da bf b5 c3 8e 06 d5 28 e5 bf
       -0.4091282329205651 -0.6612343910293165
000110 12 1d a0 85 44 cb e1 bf 45 63 9c cf 00 85 e2 bf
       -0.5560629472610421 -0.5787357382679167
000120 fb 26 04 ee 82 c1 ef bf b2 04 0d 91 f6 08 d7 bf
       -0.9923720024828236 -0.35992206730959275
000130 ee b6 9b 99 69 5a df bf 4b cf c5 75 87 52 ee bf
       -0.4898933410721459 -0.9475743580100952
000140 aa aa cb b8 b2 b1 f6 bf 8f 00 02 ef 5e 78 ed bf
       -1.4183833330704751 -0.9209437053796296
000150 c4 bb 62 38 28 f5 d1 bf 58 09 e6 ec f2 a0 c7 bf
       -0.2805882025376685 -0.18459927146256905
000160 f0 71 59 02 19 20 e1 bf 23 d3 c3 5f fb 8a cd bf
       -0.5351681753050439 -0.2308038919069527
000170 fb f6 b3 5a 6c f4 dc bf f5 e4 99 33 e6 24 e3 bf
       -0.4524184118052827 -0.5982542999110182
000180 c9 07 6f c9 75 82 00 c0 63 de fe e7 df 91 d9 bf
       -2.0637012230881493 -0.3995284810621113
000190 6a a4 d1 e7 3e 4d f3 bf 2a 9a db ca 6c e0 01 c0
       -1.2063588195253723 -2.2345825050608896
0001a0 57 6d 97 b4 10 c3 fb 3f 50 2f 85 a5 7a 74 f2 3f
       1.7351233534198707 1.153437277377595
0001b0 6c a1 96 d6 19 73 da bf 4d 77 89 85 44 a2 a2 3f
       -0.41327520328424927 0.036394254017734974
0001c0 97 b7 d2 f9 ed 37 c2 bf 61 ef fc d8 a4 d0 e1 bf
       -0.14233183573145133 -0.5567192304656424
0001d0 e7 bd ae 22 47 74 eb bf ed 59 33 a4 f4 4c d1 bf
       -0.8579440762895815 -0.27032199893201786
0001e0 63 b3 7e 1e e6 35 dd 3f b6 7d 81 f7 58 ef d4 bf
       0.45641472795505517 -0.3271086136864726
0001f0 bf 66 a3 7c 63 f1 79 3f 6b 61 f6 d7 e0 e3 e3 bf
       0.006333721752719234 -0.6215671747222989
000200 c4 21 a6 16 a6 23 e7 bf 7e 45 e3 bf 97 95 c7 3f
       -0.7231016580927236 0.1842527090980574
000210 20 18 a3 6c f4 5d f6 3f c4 05 ce 9d 88 e5 ec 3f
       1.3979381793628889 0.9030192453503152
000220 c3 89 e1 c3 ee 48 e5 bf 54 d6 bc 39 cd 34 e7 bf
       -0.6651529146004623 -0.7251955154121767
000230 a0 87 b1 50 8a f1 ed bf df 5f 35 30 fe e5 00 c0
       -0.9357348991436432 -2.1123012319840053
000240 f5 b5 dd 17 6b ec ec bf c6 c5 89 7c ed dd cb bf
       -0.9038596597799243 -0.21771019535985497
000250 0b f4 88 6a 81 87 d1 bf f9 93 37 b9 25 bf b0 bf
       -0.2738956013088802 -0.06541667720701118
000260 81 ae cf 0b f6 6e df bf f0 35 2d d8 3a 37 db bf
       -0.49114752915804877 -0.42524596320148955
000270 09 70 e7 c1 0d e4 d4 bf 1e 0b 5e ad 54 e1 ef bf
       -0.32641929565375044 -0.9962561975556559
000280 14 45 8b 47 bc fd dc bf 65 ed 7f bd c9 74 dd bf
       -0.4529867838546846 -0.4602531767447629
000290 26 42 5c 2a cf b1 a5 3f 51 63 13 17 87 7b ee bf
       0.04237220184416328 -0.9525790644357618
0002a0 ac 3a 15 b6 c0 3b d9 bf 3d 1f 7b 56 ab 68 ec 3f
       -0.3942720201638774 0.8877770127373662
0002b0 64 2a 31 9f d9 42 f7 3f 72 b3 90 4e 5e 13 e7 bf
       1.453820821613271 -0.7211143049695308
0002c0 1b 05 6a e8 40 ff dc bf 2f 1e 46 93 3a ed d4 bf
       -0.4530794400853481 -0.3269792974683438
0002d0 42 c0 fc e0 f4 a3 d9 bf e7 bf d7 2f fd 23 ea bf
       -0.4006321141378103 -0.8168931898526325
0002e0 fd c9 ef 43 bf d5 00 40 de 93 8f cc 89 9c ff bf
       2.104368716006546 -1.9757173529298977
0002f0 88 c5 2e 1c 1c fa fa bf f3 c9 96 cc b3 38 f2 bf
       -1.6860619641196042 -1.1388433448561244
000300 dc d6 a5 01 ae 3d f1 bf 56 cc 0c e7 dc 2a c3 bf
       -1.0775585235946243 -0.1497455719159883
000310 fe be a1 c1 6c fc e8 bf f9 55 52 0e 34 7f ea bf
       -0.7808135778304572 -0.8280277518958307
000320 31 c3 59 b1 34 19 e2 bf d8 71 5c dd f6 6a ed bf
       -0.5655768836860259 -0.9193071673831197
000330 9b dd c4 6e 19 6f f2 bf 6e 4c a2 41 1b 4a db bf
       -1.1521238638796152 -0.4263980999905418
000340 d8 c7 7e 2d 1e e9 ec bf 8a f7 a3 71 bc c3 da bf
       -0.9034567726687284 -0.4181967839975803
000350 4d a3 29 77 5a 6c d0 bf bf 41 bd 7e 6d d8 e6 bf
       -0.2566133655259833 -0.7139193988205575
000360 44 57 60 27 ab 6c e4 bf 5a af c8 08 fb 0c d7 bf
       -0.6382652062481857 -0.36016727311902275
000370 64 2f ee 33 b5 4f e0 bf 30 70 48 92 e0 64 e1 bf
       -0.5097299589410622 -0.5435641152466868
000380 4e 09 c7 2d 5e fb e4 bf 23 61 89 c0 c7 e1 f0 bf
       -0.6556845563975828 -1.0551221390688361
000390 0f 86 8a 5a bf b6 f1 3f c4 48 9c df 32 3c d3 bf
       1.107116082836345 -0.300549238557448
0003a0 b7 5a 9f 27 49 05 6f bf 4b 86 58 86 a0 e2 c9 bf
       -0.0037867001346783796 -0.2022286087022159
0003b0 50 44 6b 3f bd 18 e4 bf 69 07 22 02 f3 01 e5 bf
       -0.6280199278500138 -0.6564879457148268
0003c0 74 66 b7 ad 33 1a df 3f fa 95 e3 55 2e 9b ec 3f
       0.48597423519604566 0.89394299292752
0003d0 6b 7d ac ba 4e 3a f8 bf b1 6a 3d 8b b9 fb ef bf
       -1.5142352382607338 -0.9994781226663091
0003e0 0a 4a e1 d4 ab d3 f2 bf 5a a4 1a 42 23 c5 f6 bf
       -1.1766775432230383 -1.423129327982926
0003f0 d1 49 ad b9 35 68 e2 bf fc 27 99 3a e0 1e e6 bf
       -0.575220930719576 -0.6912690300462141
000400 a7 05 fe 2e 93 cb d8 3f 01 45 10 48 04 99 e4 bf
       0.3874252280148433 -0.6436787993899601
000410 49 c2 bf 04 ec 2e d6 bf 5b e1 a1 bb 89 03 e9 bf
       -0.3466138883950732 -0.7816818871206509
000420 90 d8 c3 20 2a dc f3 bf 10 9a 0a 55 03 22 e0 bf
       -1.2412511138805122 -0.5041519795384506
000430 68 a6 20 a0 97 f7 cc bf 0f cc ac 2e e7 ab 04 c0
       -0.22630591696479319 -2.5839370390399448
000440 e2 cb 51 59 13 18 f1 bf a4 9a e0 5b 58 ec fb 3f
       -1.0683778275531428 1.7452014531096802
000450 37 a2 3d f1 2a 94 e4 bf 81 20 13 5a a3 50 e4 bf
       -0.6430868827565693 -0.6348435172340176
000460 d0 4f 4b fb 16 20 d7 bf e7 82 6d e2 fc e1 c8 bf
       -0.3613336042446891 -0.1943966012577427
000470 b8 cb 29 e6 ff ab e1 bf 2f 62 da dc b8 9b ed bf
       -0.5522460456253304 -0.9252590478454915
000480 87 47 e4 be 44 7d df bf 79 40 af 01 7c 6c cc bf
       -0.4920207847763937 -0.22206068117384684
000490 a1 ed d4 5f 29 34 c0 bf 96 16 08 79 c0 0c e3 bf
       -0.12659184626850808 -0.5953066219232876
0004a0 43 1a 67 2b 61 01 c5 bf 05 94 02 2f 1f 87 e2 bf
       -0.1641046010901893 -0.5789943617024852

linear_mu.weight f8 [1, 150]
000000 b2 de 21 bc 71 56 b2 bf 33 2f c2 e1 bb 08 8a bf
       -0.07163153498720012 -0.012711971118072185
000010 bf da 33 15 52 d5 b2 bf 04 32 a4 4c b8 b7 9c bf
       -0.07356751458778897 -0.028044585874384978
000020 96 0d 90 71 ea a9 a9 bf 3e 8d fe a8 b9 a3 ca bf
       -0.05012447963965909 -0.20812149764706506
000030 6a 16 3f be d6 52 b8 3f 1c c7 ee 1d ca 9e d3 3f
       0.09501402039230702 0.30656674311750165
000040 21 fd 47 9e 30 33 d0 3f 12 dd 42 95 eb 7e 9f 3f
       0.25312438447140734 0.030757599816493793
000050 1c f8 83 55 33 02 e4 bf ee 25 cc ee 7b f8 c0 3f
       -0.6252686186051082 0.13258313331634447
000060 aa 59 45 ea 89 47 a3 3f df 38 df c8 2a aa c6 bf
       0.037655172202608014 -0.17706808860970732
000070 62 94 05 17 3c de 71 3f 66 e8 a8 89 65 74 5d bf
       0.00436233017567131 -0.0017977706508092383
000080 9a 98 7b bd e8 b6 b1 bf 9e 6d cb 05 a4 83 9c 3f
       -0.06919722200436454 0.027845919469525186
000090 81 41 c0 e3 ff 72 d3 3f cf 69 8d c9 20 24 d6 bf
       0.30389401665981813 -0.3459550827298274
0000a0 ec 16 29 98 2b 29 c3 3f 6d 06 62 46 83 73 7c bf
       0.1496939175578328 -0.006946099083621965
0000b0 96 ab e8 7e f0 ad b0 3f 64 9c fe 00 09 0e d6 bf
       0.06515410517083206 -0.344606638880981
0000c0 f1 ff e3 5c 49 bb b7 3f 27 1b 9a 27 de 1d b9 3f
       0.0927015163215399 0.09811199633450639
0000d0 90 8e fa bb 37 9d d3 3f 55 9a 0d 9f 28 7a c6 3f
       0.3064708076219427 0.17560298696772017
0000e0 46 4e aa e5 48 71 b8 bf d3 0b 20 b4 33 a8 b4 3f
       -0.09547858817159591 0.08069155833804524
0000f0 6b 20 88 90 f2 77 bd 3f 8e 08 72 ca 83 a4 e9 bf
       0.11511150387389228 -0.8013323740017471
000100 83 9f 7e 4e d8 0c b6 bf 78 4a 46 68 43 ea 6e 3f
       -0.08613349834797472 0.003773814825941909
000110 3f 75 e5 cb 6e ac cc bf 91 38 5c 70 6a 69 b2 bf
       -0.22401223140597357 -0.07192101710481526
000120 6e 9d 81 a3 ed d0 bb bf 36 9c 55 14 8a 5d 91 bf
       -0.1086567424950908 -0.0169583868895666
000130 65 34 c4 8c 0a dc bd 3f 3a 15 de b4 9b 17 e2 3f
       0.11663881241493497 0.5653818638390142
000140 77 c7 c2 18 51 5d c3 bf b5 0d d6 20 83 1a c5 bf
       -0.15128530224825074 -0.16487158873870347
000150 7a be 4a 89 06 aa c9 bf fa 8c ab f6 59 72 b1 3f
       -0.2005012674685423 0.06815111419887279
000160 8b 57 6e c9 7e 95 a3 3f e0 74 80 d5 b0 33 ac bf
       0.0382499333274345 -0.055081869184712806
000170 68 04 f3 c5 9d bb c5 bf bb 31 55 14 04 a4 d1 bf
       -0.1697880951451538 -0.2756357382357028
000180 22 46 da 9d 41 f0 96 3f de ba fc a1 3d 8f bd bf
       0.022400880107460115 -0.11546693043485898
000190 46 34 da ec 4d e8 b1 bf d6 2a f6 4f 1a 77 bf 3f
       -0.06995093376663516 0.12291111423671039
0001a0 6c 2e 7c 48 3a 79 d0 3f a8 59 2d e8 67 04 bc 3f
       0.25739914969083233 0.10944222849261698
0001b0 ae f7 9e 43 8e 96 9d 3f 39 0d f0 d0 9e 60 98 3f
       0.028894636990791582 0.023806077482743524
0001c0 57 1f 86 71 94 a3 c2 bf 98 2f 8c f3 dc d7 b2 bf
       -0.14561706107292124 -0.07360630937563284
0001d0 d9 21 0a 5d eb 20 d0 bf 5e 88 48 ab 67 ac 8a 3f
       -0.2520092400159491 0.013024148859646253
0001e0 52 a6 ef 52 f2 cd b2 3f bf e5 48 8c de 06 95 bf
       0.07345499539192105 -0.020534016907026272
0001f0 7c 2a 72 4e af a1 d7 bf b1 ed ae d9 c8 c4 7c bf
       -0.3692434564660869 -0.007023605891784455
000200 a2 28 31 79 9f 68 b2 bf 1a a6 c6 d4 cb 7f c4 bf
       -0.07190891941823677 -0.16015003098918684
000210 1b 83 46 7e 77 13 a1 bf 20 57 6f 6b 2c ab c9 3f
       -0.03335164467285364 0.20053630109639986
000220 c6 de 5f 52 5a d0 9c 3f da c4 a2 b6 9b ac bb 3f
       0.028138552930584003 0.10810254296190483
000230 c7 d5 af e3 c5 40 75 bf 86 47 08 c8 b7 a5 b2 3f
       -0.00518872547671862 0.07284115441896519
000240 26 f7 4d a3 57 e3 d3 bf d0 fb 81 d5 e2 ba c1 3f
       -0.31075087497434806 0.13851581025298154
000250 3e c9 c1 ad 0f 79 f8 3e e2 74 4c 85 c9 92 73 bf
       2.333917187553294e-05 -0.004778659048296082
000260 f2 68 7d 87 3f a7 b5 3f 05 44 37 de b1 3a c5 bf
       0.08458325441225492 -0.165853723052834
000270 b8 d2 7f 00 a8 64 b4 bf 97 b6 b5 65 91 6a c4 bf
       -0.07966089260282672 -0.15950219599055934
000280 8a 59 5e f8 12 c7 d6 bf cd e7 f9 ae fc e3 aa bf
       -0.35590051893941477 -0.0525206531137453
000290 19 26 9f 0c c0 53 db 3f 40 f0 71 f8 48 fa a8 3f
       0.4269867060907884 0.04878452332283745
0002a0 68 36 7b a4 ed 4d 82 bf 60 59 50 fa ba 8f c2 bf
       -0.00893769891936387 -0.14501130316120747
0002b0 0b 82 06 30 df 21 f0 3f ad 0d 65 b5 2e 1d 97 bf
       1.0082694889061965 -0.022572259732681555
0002c0 e8 d9 e8 45 40 70 be 3f d5 47 5c 34 85 a6 b2 bf
       0.11890031534935697 -0.07285339859325231
0002d0 be 6a 3f 8d bd a5 99 bf 4d 1a 7a f6 a6 8e c0 bf
       -0.0250463120899933 -0.1293533996105957
0002e0 4c 23 52 5b 30 f9 ba bf 0a 91 90 ae 43 66 b1 bf
       -0.10536482076180426 -0.06796668063958947
0002f0 43 c3 4b 68 ab 19 c5 3f 7d 06 74 d0 33 0e b8 bf
       0.1648458728082237 -0.09396671141805686
000300 8a c1 ed 00 8e 7c b2 bf c4 35 d5 26 cb aa 71 bf
       -0.07221305391954594 -0.0043132720578120155
000310 f2 e3 d6 4d 61 49 b6 3f 37 88 93 b4 24 6f 95 bf
       0.08705719137550696 -0.02093179084921123
000320 6a 5a 61 ff 3d 30 c3 3f a5 22 b8 e4 25 0f ad 3f
       0.14990973443737526 0.056756195230325525
000330 e5 0e a8 c0 58 89 ab bf 03 93 ed 2e 06 a1 d3 bf
       -0.05378224708331717 -0.3067031343728532
000340 b6 50 01 51 ec c7 bf 3f a8 f2 53 4a 3a c0 b2 bf
       0.12414433458008287 -0.07324566187521475
000350 6f 5f 12 11 5d f8 c9 3f 8d a7 85 35 b6 81 b6 bf
       0.20289195378859 -0.08791674429599379
000360 3c 8f a6 cf 7c d4 97 bf bf c7 f5 af 23 0c 85 bf
       -0.023271513151157594 -0.010277060325026953
000370 ed dd 35 bb f0 4e 41 bf 0f 03 43 f8 19 ba 78 bf
       -0.0005282092519526806 -0.006036855167793189
000380 43 b5 9b cb 0a 5b e0 bf 65 92 e8 47 0e f4 98 3f
       -0.5111135460589725 0.024368498934693856
000390 08 ec bc 09 d1 8e b4 bf ed e8 8b ab 70 28 bc 3f
       -0.0803042076849324 0.10999206722400219
0003a0 56 7d 4c c6 3a d8 b0 bf 2d 14 5c 2c 7c a2 b1 3f
       -0.0657994016769313 0.06888557513237066
0003b0 16 f2 d9 97 6f 68 d1 bf 97 a3 51 bd fd d0 b0 bf
       -0.2719992621348707 -0.06568895217937008
0003c0 3b 3c 07 e3 a9 62 b3 bf 93 ea f7 36 f2 2c d6 bf
       -0.0757242373722286 -0.3464932953644759
0003d0 64 c1 ef 88 7c 13 d3 3f b5 95 a5 79 99 3f 99 bf
       0.2980643594046539 -0.024656675386173627
0003e0 54 66 46 3a a1 20 d2 bf 6d 6c 44 10 70 32 9f bf
       -0.28324156466405737 -0.030465842240215247
0003f0 39 4d 61 51 fb 17 d1 3f 84 c0 13 8b 14 f3 cd bf
       0.2670887274482144 -0.23398072043301366
000400 0a 70 2b 69 6b d8 c6 3f 50 74 b3 59 9d cb 7b 3f
       0.17847960124242973 0.006785978937128581
000410 6c ce e4 ff 57 33 9c 3f a8 08 7d 7c 03 5f d2 3f
       0.02753961085654881 0.2870491710383569
000420 df ad 71 69 a0 ae b3 3f e6 51 dd e7 2d 45 ad 3f
       0.07688334059064726 0.057168421319747684
000430 91 10 64 75 f7 d1 a3 3f ab 82 05 3f 8f 66 ea bf
       0.03871129329675783 -0.825019476975361
000440 b6 ba b9 ca 53 c2 c7 3f a0 82 7a cf ea 6c a1 bf
       0.18561789892870245 -0.03403409750649655
000450 de d1 4f 3a 85 34 a1 3f 1c 5f 43 79 18 57 b6 bf
       0.03360382401288907 -0.08726647339369403
000460 77 ac 4f 65 bc 69 b9 bf cb f5 c6 55 08 48 91 3f
       -0.09926965211313808 0.016876344905304024
000470 a2 b6 6c 3c f3 31 a5 bf a2 e9 0c 3f 5e d3 c5 bf
       -0.041396714330727905 -0.1705129440177418
000480 fa 65 0a 31 da d1 b2 bf 24 c3 e8 57 02 77 7d 3f
       -0.07351459214478231 0.007193574098480569
000490 a1 01 2b 2f 45 9c ae bf 5d 60 5d 55 74 e5 b0 bf
       -0.059785997398196906 -0.06600119670963651
0004a0 39 12 3c 19 a7 7b 90 3f 5c 7b d1 1d d2 6f ac bf
       0.016096697726441376 -0.055540624751975826

linear_mu.bias f8 [1]
000000 82 48 f2 29 10 c5 b6 bf
       -0.08894444488604061
