model_chkpt/ntk_network.pt (torch, 741498 bytes, 13 tensors)

layers.0.weight f8 [150, 8]
000000 ac 9a ee be 95 26 d4 3f db aa 44 4e 8f 00 ca 3f
       0.3148550381251123 0.20314208337489145
000010 fd e7 c3 ad ab 7e dd 3f a1 56 ca dd a4 ff d2 bf
       0.4608563610960344 -0.29685327204911444
000020 35 72 36 88 37 c1 a6 bf 8f f9 fb db b0 de b7 bf
       -0.04444287812950557 -0.09324174280843621
000030 d8 37 74 c7 9d c3 82 bf 6f 08 1b 9a aa 5a c4 3f
       -0.009162171029426888 0.15901691937148452
000040 5a c6 1a 43 a7 97 b4 bf 08 2c 32 d6 89 39 c4 bf
       -0.08043904674811966 -0.15800593336857127
000050 3f f9 44 7d 23 66 c4 bf 28 7a 4c 03 fd 54 8d bf
       -0.15936702362700747 -0.014322258628053211
000060 43 cd 22 59 ea a7 b4 3f 73 de 91 5a 1d 0d c0 bf
       0.08068718601389428 -0.1254002277598719
000070 b2 33 97 08 61 31 cc bf 12 a8 dc da 00 4a e0 bf
       -0.22025692862953644 -0.50903361078713
000080 f1 24 73 7a ff db c5 3f 75 d5 46 63 92 01 99 3f
       0.17077630499833377 0.024420058545464102
000090 dc e7 5e 71 01 3a a1 3f f3 db 40 d4 79 8e 7c bf
       0.03364567288322437 -0.006971813101748647
0000a0 99 3e e0 47 82 02 d0 bf cd da 72 80 54 34 dd bf
       -0.2501531316674828 -0.456318974912773
0000b0 83 25 d7 b7 5b fe c7 3f ac 5b 2d c8 02 53 ca bf
       0.18744989849646396 -0.20565829061771745
0000c0 e9 68 d8 67 4d 6a e2 bf 3f 86 59 50 40 50 d9 bf
       -0.5754763630132206 -0.39552314612055633
0000d0 db 0b a1 5e 3f 23 c5 bf f9 e6 ca 42 27 91 d5 3f
       -0.16513816948471924 0.3369844581862789
0000e0 46 e8 8e 34 ce af c9 3f 12 79 a5 fc 79 e4 83 bf
       0.2006776577598563 -0.009713128111510847
0000f0 70 a0 49 4f c8 ba a1 3f 04 37 89 fb fd 9f a7 3f
       0.034628162077582014 0.04614251800067673
000100 59 e5 7f 66 dd 92 8f bf 2c 7a 00 16 15 ec c0 3f
       -0.015416841211833331 0.13220466207799697
000110 8a d6 91 5b 3e 6c 86 bf 63 9a 42 a8 55 be df bf
       -0.010948645753369197 -0.49599210197121674
000120 85 e3 5f f0 ec cd de bf 75 08 48 ef ab 89 d8 3f
       -0.4813186976821771 0.38340280883142636
000130 e0 22 9a ce 37 4c c8 3f de 63 89 31 81 18 a4 3f
       0.18982598865502265 0.03924945573516657
000140 2e 46 9c 6d 62 91 94 bf b8 85 10 97 d3 cc 90 3f
       -0.020085847797480287 0.016406351180312945
000150 52 c7 4e ae 2d ac bc bf c0 2c e0 72 68 71 b5 bf
       -0.1120022345119456 -0.08376171879369831
000160 93 55 9f 09 6f 57 73 3f ac 07 f0 f7 41 f5 c0 bf
       0.004722055187774815 -0.13248467069939573
000170 f2 2d e7 a8 15 b0 94 bf 0f 39 37 33 68 46 d4 bf
       -0.02020295947458623 -0.31679730416807755
000180 f6 08 a2 e2 52 b6 7e bf 17 ba a0 36 fd bb c0 3f
       -0.007498096247333877 0.13073697249770141
000190 39 1b e7 1b 4d bb c5 3f cc 80 6d b9 fb e2 ba 3f
       0.16977847921790515 0.1050259902672252
0001a0 5c e9 80 42 c4 b4 b7 bf ef 09 dc ee ea b4 a0 3f
       -0.09260203002569284 0.03263029256597238
0001b0 f8 e9 84 63 41 40 ba 3f d3 5b 16 c9 b4 f7 91 bf
       0.10254295997302865 -0.01754648663844789
0001c0 cc c1 8b af 2c 90 b8 bf 61 32 24 ce c6 85 c2 3f
       -0.09594992910184102 0.14470753732202282
0001d0 d7 da ea 0b 76 35 67 bf 47 91 08 1a 3d 86 ad bf
       -0.0028331094357228847 -0.05766478483954756
0001e0 a9 7e f6 14 79 4d c0 3f 1c 44 29 44 c5 55 c1 3f
       0.12736428760125776 0.13543001011069655
0001f0 69 ca 5b 57 0b f6 7d 3f 2c 19 ef 67 3a ce b2 3f
       0.007314724256263541 0.07345929181528693
000200 58 a1 78 43 88 80 b7 3f e4 10 da 5c fe 33 ca bf
       0.09180499694105515 -0.20471171888141904
000210 39 65 d4 c0 a0 ea ce 3f e5 3c ab d0 30 05 a8 bf
       0.24153527656089027 -0.04691460177638777
000220 04 dd bc d9 f4 10 dd bf 45 7e f0 80 2d a6 b8 bf
       -0.4541599394173803 -0.09628567121443961
000230 f8 c6 50 b9 9a d9 d5 3f e6 77 19 25 fb 05 b1 3f
       0.34140651795597377 0.06649751334904827
000240 d5 3b 31 4c b9 1b c6 3f c6 23 d5 21 fc 4e 49 3f
       0.17272106380775534 0.0007723551858954617
000250 16 f4 cd 96 ec 76 b8 3f e5 22 3d 0f 69 4e d2 3f
       0.09556463891745212 0.28603579033055687
000260 49 9e 38 19 8e cc bf 3f 78 0f e5 fe 9b 46 cf 3f
       0.12421501270056824 0.24434232660325583
000270 52 a8 92 e8 00 04 da 3f 81 bb be 48 e1 f1 a1 3f
       0.4064943572253742 0.035048523073206723
000280 e6 52 d9 b0 fe c1 d1 3f 32 c6 73 e5 46 08 d0 3f
       0.2774655081787344 0.2505051842445908
000290 d9 ed bb 71 fc 03 bd 3f 06 c1 3d 28 cd 20 b0 bf
       0.11334207321845415 -0.06300050957156964
0002a0 0a ef a6 37 fd e7 c6 bf 1c 9f ee f6 08 a9 b9 bf
       -0.17895474641215287 -0.10023551968208405
0002b0 25 e6 4c 67 db 3d 87 bf 17 d0 65 8e dc 9d c1 3f
       -0.01134845170018923 0.13763005211842547
0002c0 8f 5a 6c 86 8d 87 8e 3f d9 68 47 3b 9b 02 bc 3f
       0.01490698400952553 0.10941477010001978
0002d0 bd 11 02 30 3f 62 76 3f 69 33 8a 36 98 41 94 3f
       0.005464789224906172 0.019781473473404008
0002e0 cd e6 a7 aa 2a 3f a0 bf 95 5f bd 35 7c 64 b5 bf
       -0.031731923419966536 -0.08356453239446034
0002f0 49 1e d1 80 90 77 83 3f 96 a2 d8 60 89 50 c8 3f
       0.009505394869974941 0.189957783020209
000300 47 97 aa a6 bf cb ce bf 9d bc 03 39 2f a7 ae 3f
       -0.24059291494375598 0.0598692662332436
000310 a8 ef 27 90 61 03 95 3f ba e4 2b 49 b1 7b b8 bf
       0.02052071039541628 -0.0956373981133706
000320 9b 94 4e 8e 73 6e e0 3f f1 44 aa 4c 2f dd d9 3f
       0.5134828357155529 0.40412504660441956
000330 22 a1 da 47 0b b8 c2 bf c1 ae b9 a8 53 b7 bd 3f
       -0.14624157913682106 0.11607859486837936
000340 84 f6 88 be 7d 8a a4 bf c1 9d 00 3c d5 a3 c5 bf
       -0.04011910391680565 -0.16906228475384746
000350 4f 63 c1 73 f2 c5 c0 3f e5 32 16 4f 55 3c c2 3f
       0.13104086544151491 0.1424662243047329
000360 8c 6b 79 d8 dc cb bd 3f cf fd 52 83 34 80 b9 3f
       0.11639194760338806 0.09961250501782291
000370 6d bb cc cb 45 40 d4 bf 61 0c 70 f6 a9 15 a9 bf
       -0.3164228906852518 -0.04899340756676263
000380 c6 5b 6f ef 5e e9 a1 bf 4e b8 39 ac de 98 6d 3f
       -0.03498360321798759 0.0036129330708752133
000390 64 57 57 b0 6e 01 c4 bf e6 a8 af 49 d4 3e 82 3f
       -0.15629371271523518 0.008908899782870749
0003a0 73 b4 51 ad bf ac b7 3f c9 8c cd f7 32 6c c5 3f
       0.09247968655991361 0.16736447429420867
0003b0 3c 14 a8 a9 18 48 a8 3f 9e 2f 64 6e 9c 43 d3 bf
       0.04742505141261019 -0.3010016515770476
0003c0 86 7d d0 7a cf df 93 bf ed 21 99 a7 f8 89 c1 3f
       -0.019408456679341345 0.137023050150915
0003d0 fa 48 ae 80 7e 5d d2 3f 6f dc 8a 06 7f 52 b2 3f
       0.2869564301155517 0.07157129201628874
0003e0 4e 6d 9e 3b 62 2d e4 bf 07 85 53 ca 5a 15 c1 bf
       -0.6305400051527756 -0.13346419219218594
0003f0 64 b3 3d bd e8 a2 4e bf 57 40 61 ce 88 80 c1 3f
       -0.0009349476263032894 0.13673505856650323
000400 de b5 30 fe 3a 48 aa 3f e6 b8 bc 83 66 d3 99 3f
       0.051332324532591164 0.0252204912096027
000410 86 62 30 6a d0 9e 99 bf ac 0f c3 a0 16 a4 d5 bf
       -0.02501989029051057 -0.33814016055498075
000420 57 a1 a2 45 c2 fe b5 bf cb 84 46 dd e8 18 c3 bf
       -0.08591856193618717 -0.14919768146959309
000430 a6 04 b9 42 58 91 a0 3f b8 a3 d8 0e fa f4 c3 3f
       0.032358892578949125 0.15591359829821072
000440 59 a0 46 b4 97 71 c9 bf af 57 fe 83 e1 32 c7 3f
       -0.19877907087834748 0.1812402624606739
000450 1d e8 48 54 fd 29 84 3f 41 1c aa a0 5f 4f d7 bf
       0.009845713743846624 -0.3642195767392345
000460 83 7e 74 7f 13 83 b7 bf bb 3b 19 f9 d5 80 a8 3f
       -0.09184381353088082 0.0478579393935585
000470 b2 2c 19 15 d9 51 9e bf bc f7 fa c5 79 03 ab 3f
       -0.02960910025857961 0.05276089231254796
000480 08 8a 8c 7d 76 50 db 3f ae 37 e9 98 e3 52 c4 bf
       0.4267860628189344 -0.15877957311971386
000490 15 37 3f e0 77 f3 b3 3f ed 41 d3 c5 48 83 b3 bf
       0.0779337809064738 -0.07622198896138573
0004a0 3c cc 59 5c 42 d4 97 3f 80 ad ac 4f cd c9 b9 bf
       0.02327064217247375 -0.10073550410441179
0004b0 33 2c af 88 fa dc bd 3f 9e 39 89 e1 4e 2d db 3f
       0.11665311657922998 0.4246403887272211
0004c0 eb 55 40 55 88 98 8d 3f b4 9e b7 cc 52 9f c5 bf
       0.014451089002288383 -0.1689246654125235
0004d0 05 ed 1f 72 7a 76 c2 bf 1a c3 d6 81 52 8b c0 3f
       -0.14424067089553474 0.12925177898207424
0004e0 85 34 5d f5 40 ef a7 3f db 4d 81 56 6b 3d bd bf
       0.04674723620574021 -0.11421843397084024
0004f0 1a 20 9b 80 b5 40 b3 3f e3 f4 00 8a ae 9e a5 3f
       0.07520613088411246 0.04222627100578238
000500 56 48 4b 7b 66 6b bc bf c8 74 25 15 f2 07 a5 3f
       -0.11101379881009285 0.04107624538549143
000510 e0 f0 23 6a 22 4b b9 bf 34 3a ab cd db c3 9f 3f
       -0.09880271045034617 0.031020578792601408
000520 73 17 1c 65 17 79 b3 3f 40 d1 a9 e6 57 81 b0 bf
       0.0760664579248365 -0.06447362309865401
000530 28 f2 13 0d 53 7d 98 bf 4d 3f 13 86 ac 47 ca 3f
       -0.023915574715816984 0.2053123144783008
000540 8d ed 1f 6e f8 8c bb 3f 40 25 b7 1b e8 ad b0 bf
       0.10761978806106338 -0.06515360523839764
000550 ce 5a b9 ab a3 2b c3 bf 36 fe 30 a7 8e ab a8 3f
       -0.14976926693881015 0.04818387785826099
000560 3d 2d 87 f0 0b b4 c2 3f 8d 6a 0d 64 fb 4c c5 3f
       0.14611958736927902 0.16641180405970993
000570 52 a7 9f 1c 2a 4d 7f bf 11 2f bc f8 64 ed 9b 3f
       -0.007641949176084699 0.02727277534636047
000580 50 1c 68 ff c7 4a bd 3f 06 a1 be aa 7c 8e 8c bf
       0.11442232118143747 -0.01394364734717658
000590 cd 24 94 32 2a 71 d2 3f 8b 6e 99 92 47 9a b0 bf
       0.28815703334164483 -0.06485411957822344
0005a0 13 39 6a ae da a7 ca bf 57 94 74 8d 06 17 be bf
       -0.20824750439027948 -0.1175388427114553
0005b0 de 94 d0 93 35 d0 b8 3f 99 a4 c1 aa ca 23 a3 bf
       0.0969270215869815 -0.0373824437563794
0005c0 5b ac 6f 78 00 84 c7 bf 16 d7 fc 5d b2 9d c3 bf
       -0.18371587639498696 -0.15325002278557837
0005d0 0b d9 8f 89 8c d3 b6 3f 1e f9 4a f0 8b 7e c4 bf
       0.08916548117108307 -0.1601118968300818
0005e0 58 0b f4 76 f6 2d c5 bf e9 d3 e4 8f 01 7a 90 bf
       -0.1654651718928004 -0.016090416343292367
0005f0 aa 1f bf 2f 99 ef bd bf 50 64 a2 76 7e 99 d5 bf
       -0.11693723121345437 -0.3374935301340587
000600 be 5a 49 de c3 17 a3 bf 8d 72 40 07 fa 5f a4 bf
       -0.03729068840464354 -0.03979474390528024
000610 18 47 92 5c 7c a6 94 3f 5e 7e b1 dc bf e0 72 bf
       0.02016634287844629 -0.004608869038832701
000620 3d 2a d9 e7 5f 5a 8f 3f 06 c7 c0 26 db ec c4 bf
       0.01530909467978347 -0.16347827331770065
000630 18 df 92 ad b9 c8 b1 3f e0 76 c3 e5 1f 49 a6 3f
       0.06946907508506361 0.043526646420770865
000640 9f e6 be e4 e0 82 ab bf d4 fc bc ec 7f 08 b6 3f
       -0.05373289863878238 0.0860671952223016
000650 85 c2 e1 b5 d7 21 d1 3f a3 32 b3 cb cb 9b bf bf
       0.26769058954145236 -0.12347100947517702
000660 ea 6a 45 e9 d3 bd c0 bf b3 df 43 ff 3e fc bb 3f
       -0.1307930840510701 0.10931771976527109
000670 69 0d 49 32 69 98 d1 bf 08 05 c6 85 e9 68 b2 3f
       -0.2749274245326974 0.0719133330913061
000680 5e c8 10 e9 ee 31 c0 3f 67 e4 ef dc 96 6e c1 3f
       0.12652384166864555 0.1361874178690272
000690 27 93 5e f1 1f 09 c9 3f 22 32 fa bd 3a 47 c0 bf
       0.1955909660875019 -0.1271737506507558
0006a0 89 c5 3e 0d b3 92 a0 3f 7c fe 5e d4 ed 95 cf 3f
       0.03236922775921431 0.24676297063523467
0006b0 82 e2 1a 1d 33 67 be bf 61 65 5c f7 8d ce d5 3f
       -0.11876220188686129 0.340732089579964
0006c0 47 f6 8d 00 01 c6 bc 3f b2 a3 7d 9f fd 8e ca 3f
       0.11239629996813348 0.20748873031268783
0006d0 a0 ff ce 18 a1 82 c1 bf 69 de 42 0d 2e 7e c2 bf
       -0.1367989894042667 -0.1444757046462997
0006e0 ef c7 29 ef 4f 7c be bf 26 d4 48 d7 6a ea b4 bf
       -0.11908435429521068 -0.0817019248577969
0006f0 c9 b0 6f 4b 5a d1 c1 3f 03 a6 55 8d a7 63 c1 3f
       0.13920143779194508 0.13585371399976517
000700 66 a3 66 59 0e cf 78 bf 1c 77 34 c3 8d 7d b3 bf
       -0.006056839038515038 -0.07613454833741823
000710 c0 51 57 0c ee d5 d1 bf 55 fa 6b 94 df b4 ca 3f
       -0.27868224339661296 0.20864481684835093
000720 24 a3 86 f0 ad 65 ab 3f 94 c7 45 70 41 0a df bf
       0.0535101276503325 -0.48500095333212667
000730 77 96 cb 94 48 f9 a4 bf 85 a4 2b 4f 39 55 d1 3f
       -0.040964382327541786 0.27082665187351324
000740 ad f3 a9 d7 3b d6 a0 3f 48 95 dc fb fe b9 c4 3f
       0.032884473873287724 0.1619261483948924
000750 33 03 3b 96 1e 67 ab 3f 3e 5a d8 0c b5 89 a0 3f
       0.05352111419552443 0.032300622766503015
000760 3e 1a df 5f 17 8c b6 3f 5a 98 ce 65 78 7d c8 3f
       0.08807512369740153 0.19132904978795545
000770 41 7d 96 b9 61 36 d0 3f c8 81 33 55 b4 f8 bd 3f
       0.25331919788182594 0.11707617836100959
000780 15 ee cb 91 fb 72 ba 3f 31 f7 04 0f 8b 3d a9 3f
       0.10331699666488021 0.04929766233770606
000790 d3 18 a1 83 5e a0 9f 3f 0e 5d 75 07 05 24 a3 bf
       0.03088519743348501 -0.03738418308301493
0007a0 df 13 4f 45 86 1f b2 bf a8 89 4b e8 c7 c2 b8 3f
       -0.07079352562057249 0.09672212048784579
0007b0 19 8f 29 cb 88 74 bd 3f b2 09 3c 47 72 69 ec bf
       0.11505942306535778 -0.8878718749331738
0007c0 b8 47 63 3f e1 70 ca bf 92 9c c5 af 59 67 b5 3f
       -0.20656982035739957 0.08360825101191185
0007d0 05 49 ae 1d e1 00 88 3f 2a 60 18 8b f5 18 d1 3f
       0.011720427244459328 0.2671483858443958
0007e0 96 92 de aa b3 48 b8 3f 0d 97 22 74 e6 4a a3 bf
       0.09485934182755282 -0.03768081824936873
0007f0 be 4c 9e 88 9a e8 c9 3f 8d 51 30 9c 4f 6f e6 bf
       0.2024109999734715 -0.7010877657472051

layers.0.bias f8 [150]
000000 ee 8b d7 d3 90 dc ba bf 20 3a de ce 8e e4 d3 bf
       -0.10492806598590196 -0.3108250637241401
000010 3a 9d 00 98 97 d3 cc bf 69 57 e0 7d 1f 7a c1 bf
       -0.22520728036873 -0.1365393986349617
000020 27 1d 5f 8d 63 70 d9 bf 61 4a 2f f8 bd 1d cf bf
       -0.39748467260183634 -0.24309515589137035
000030 4a 48 bf 61 a1 dd c4 bf 37 0c e8 09 cd 8e c8 bf
       -0.16301362297832817 -0.19185793861115183
000040 e8 65 05 84 5e 53 bb bf e5 88 1c 04 82 6d d2 bf
       -0.10674086306735087 -0.2879338302756323
000050 56 78 e6 06 71 a7 c0 bf 45 a9 71 b0 d0 66 ba bf
       -0.13010990940978456 -0.10313133533205583
000060 6b 8c 25 8d f1 86 b7 bf 79 5f 99 33 f5 8b c8 bf
       -0.0919028253170368 -0.19177117366302435
000070 41 6b 88 e5 12 7d bf bf aa 1c 39 5f 2a 82 c3 bf
       -0.12300222495870818 -0.1524098362881195
000080 9f 24 ac c3 0e bc c2 bf 74 cc a3 bb 05 a8 c4 bf
       -0.14636406473463112 -0.16137763654805648
000090 b3 fb b8 fe a2 f5 a5 bf 5a 6a 6c b8 10 bd ce bf
       -0.04288968428999542 -0.2401448154931412
0000a0 7f 7b 0b 92 85 69 c0 bf eb 32 aa b6 88 60 b5 bf
       -0.12822026854606958 -0.0835042425116616
0000b0 cc a7 2a 50 0a eb bd bf e3 be 27 8f 28 df c4 bf
       -0.11686768014138166 -0.16306025495531803
0000c0 95 4c a1 cf ed 0d bb bf d7 e2 b2 07 e1 9b d1 bf
       -0.10568128890126822 -0.2751391005690897
0000d0 35 79 f6 e5 4e 0f b4 bf b9 85 d0 70 bf d6 b9 bf
       -0.07835858454061369 -0.10093304161320917
0000e0 58 ce 91 07 c3 cf ca bf 7c 5a a6 30 8d 3d b0 bf
       -0.20946538800818604 -0.06343920171489431
0000f0 5a 3e 1f 7e 58 66 dd bf 35 ce ae e8 ee 65 b3 bf
       -0.45937168423276875 -0.07577412777646304
000100 2a ea 24 0a 5f da d0 bf ca db 28 fc 27 9e c3 bf
       -0.2633283232750353 -0.15326404392700815
000110 5b 98 b9 62 88 f4 c2 bf a4 a9 de 6c 11 41 bd bf
       -0.14808754749828065 -0.1142741099162437
000120 a3 ba ee f1 bf 48 c6 bf 67 7a e0 03 52 43 c9 bf
       -0.17409514725792005 -0.19736695470142537
000130 ad 62 b4 01 74 c0 b2 bf 95 20 d7 e6 89 b7 b2 bf
       -0.0732491020356842 -0.07311307798147688
000140 49 cf e2 33 ec 8d c7 bf 10 0e db ad 27 ff ca bf
       -0.1840186360692491 -0.21091171254202878
000150 40 80 64 68 f1 b7 c4 bf 29 2f 1c 64 8e c9 9a bf
       -0.16186349484724083 -0.026159500942454592
000160 0c 56 22 bf 65 1f d9 bf cc fc b5 e3 09 da b1 bf
       -0.3925413481277651 -0.06973325547550074
000170 06 60 cf 4c c4 07 c0 bf 30 36 90 30 74 e5 80 bf
       -0.12523702383509788 -0.008250148517642136
000180 40 6b ff eb 97 ea 83 3f 0f a2 c6 a9 a1 0d cd bf
       0.00972479523618619 -0.22697850026931163
000190 78 2c b0 04 8b ba dd bf 4c 9e 6f c9 94 ca c9 bf
       -0.4645106836112016 -0.20149478755705486
0001a0 d4 06 e4 80 45 a2 a2 bf 5f f9 4e 67 39 d2 c6 bf
       -0.03639428327916297 -0.17829053444252005
0001b0 c8 c9 0f 6e 1b a4 73 bf 93 c4 99 4e bc 13 cc bf
       -0.004795176647336814 -0.21935228193209308
0001c0 81 ac da 82 8c f8 c6 bf de 26 16 82 32 a7 b5 bf
       -0.17946010960926986 -0.08458247829380691
0001d0 3d c6 f5 47 41 db ba bf 55 fa c0 5a bd b3 bc bf
       -0.10490806586110409 -0.11211760965032032
0001e0 dc e2 d7 07 fe 0b d3 bf 38 90 94 51 a9 9f c2 bf
       -0.29760695234248913 -0.14549747928060852
0001f0 14 36 26 ec 05 64 ce bf cd a6 0d 56 96 b3 d0 bf
       -0.2374274638245174 -0.26096113589902076
000200 d7 d2 75 64 a4 2d d5 bf 0f e4 52 4a 5a 3c d2 bf
       -0.33091077623911985 -0.28493363626654483
000210 19 b9 b3 e7 0b de cd bf 8c b4 6a d2 db f0 c1 bf
       -0.23333882154060673 -0.1401629235673777
000220 7e 28 35 de f9 82 cf bf aa f0 00 ca eb 9d bd bf
       -0.24618457174284808 -0.11569093400697975
000230 95 14 da 68 6c 4e c3 bf 18 49 98 61 53 05 d1 bf
       -0.1508307945224813 -0.26595005541561667
000240 31 40 c0 98 74 12 d5 bf 46 e6 f5 99 a8 ea cd bf
       -0.32925143162811127 -0.23372371213536008
000250 c3 85 b3 2a db cf b2 bf 0c 77 13 07 7e 55 bf bf
       -0.07348413269530511 -0.12239825890307204
000260 e9 b3 60 f6 65 f5 b7 bf 98 4a 1a 76 f0 c6 b8 bf
       -0.09358823075372381 -0.09678557284704892
000270 52 d9 d5 45 f8 f8 c0 bf 4f 60 02 82 ae 73 c4 bf
       -0.13259795579842631 -0.15978032444104648
000280 1a a5 0e 11 8c a9 7d 3f 5d 89 a3 e3 4e d1 cb bf
       0.007241770873329468 -0.21732507815529348
000290 2c c7 f1 f6 83 40 d4 bf d4 0b ff 19 df f5 dd bf
       -0.31643771281879896 -0.4681318048353067
0002a0 89 2c 98 81 4b 3f c6 bf a9 86 50 c4 41 50 af 3f
       -0.1738066084657002 0.06115918656747727
0002b0 09 04 7a 56 76 72 b4 bf 57 d6 fb 86 6c 72 ba bf
       -0.07987155543561654 -0.10330847068311165
0002c0 d8 e1 2e 79 1f d4 cd bf 8f 2b 86 05 e5 1d d6 bf
       -0.23303597848077007 -0.3455746225305853
0002d0 20 d9 ea 20 a6 b5 bb bf b0 3b 38 e8 d2 c9 e2 bf
       -0.10824049285551895 -0.5871367011585473
0002e0 de 32 c1 4a 17 2e d9 bf af b0 88 1d fa bb c6 bf
       -0.39343817043554263 -0.177611603184578
0002f0 6c 57 d0 f3 db db c9 bf 2f 4b 24 04 61 d2 85 bf
       -0.2020220699784504 -0.010655172289749963
000300 99 2e d9 65 0a c8 b9 bf 22 88 a4 19 27 5c ba bf
       -0.10070862757236866 -0.1029686391453031
000310 7b eb ec 29 cd 2c c9 bf 69 de 26 a9 3d 6b ae bf
       -0.19667973086492538 -0.05941193284837427
000320 42 93 70 53 e0 6d cc bf d9 f5 ba 5c 41 58 cd bf
       -0.22210315775114436 -0.22925583865973811
000330 1a 9b b2 fe 19 4c c3 bf 8c 13 d2 0c 63 82 c9 bf
       -0.15075993477258792 -0.19929159284597764
000340 b2 7f 27 79 ae 6f d2 bf 15 0e fa 68 86 97 c8 bf
       -0.28806650001024103 -0.1921241772252961
000350 ae 26 53 99 b6 35 ce bf d6 2b 45 21 7a 8e d0 bf
       -0.23601419912875116 -0.25869611023943884
000360 14 c3 29 bb 5f ca c0 bf 0d 68 f4 3b 13 96 b6 bf
       -0.13117596281838273 -0.08822746480692008
000370 f0 c4 b9 4d 1c 00 c3 bf 9a a8 f2 41 bf 6b c1 bf
       -0.1484408740539389 -0.1361006805430563
000380 a3 6c 9d 82 fb 74 d9 bf 82 96 b8 70 57 50 c9 bf
       -0.3977650428329957 -0.19776432994801857
000390 99 a8 88 0c 2f 11 cf bf dd c1 dd dc 3d ee b7 bf
       -0.24271190750124985 -0.09347902910463497
0003a0 2d 69 8c 04 18 a9 a9 3f c5 60 d7 28 9a 55 72 bf
       0.0501182084610313 -0.004476167855919926
0003b0 4a da 30 51 f9 44 c6 bf af 1a 76 08 8b 3c c0 bf
       -0.17397991623302494 -0.1268476287188682
0003c0 3c 87 c4 38 90 28 cd bf be f7 22 b3 0f f4 b9 bf
       -0.22780039569721022 -0.10138033030940982
0003d0 f3 df ee 85 02 3d ce bf e9 90 c5 dc 34 66 cd bf
       -0.23623687305166605 -0.2296815946566604
0003e0 b3 b6 fc b9 dd d2 d3 bf c8 19 54 0c 41 5e bf bf
       -0.3097452465325247 -0.12253195334424227
0003f0 d5 58 c6 64 a8 93 c0 bf 1d 5e cb 48 19 f8 c6 bf
       -0.12950615807193935 -0.17944637350477502
000400 16 c5 5c df 68 17 d3 bf 01 ed f5 48 ba 73 90 bf
       -0.2983038121484055 -0.01606646604839757
000410 7f 5e 91 79 72 19 a3 bf 2d c3 01 31 94 0a c2 bf
       -0.03730352148039361 -0.1409478415767124
000420 00 e6 0d fa ef b4 c1 bf 91 77 80 73 7c cf c8 bf
       -0.13833427152330557 -0.19383197440850755
000430 7f de 48 ba ff 6d c3 bf bc 6f c6 2d e8 f0 b4 bf
       -0.15179440113000806 -0.08180094831044377
000440 c5 90 83 b3 08 21 b5 bf ec 0f 9c 09 64 cf d9 bf
       -0.08253530867256405 -0.4032831281513143
000450 da 69 27 ba 57 f3 c3 bf 93 5a 74 76 5a 90 b0 bf
       -0.15586372937725806 -0.0647026576228689
000460 87 01 77 6b 96 70 b6 bf f5 72 b2 84 29 9a 6d 3f
       -0.08765545009283048 0.003613549318812632
000470 5b a5 15 68 a2 03 a7 bf 3a a1 22 72 ed be a4 bf
       -0.04494960327685745 -0.04051916139843788
000480 4d 5e 6d 20 33 38 cb bf 7a 09 e1 18 12 67 d2 bf
       -0.21265257914886818 -0.2875409357985955
000490 4f 4b 46 ba 6b 31 d0 bf d6 00 9c 9e b0 cb c0 bf
       -0.25301640692594146 -0.13121612305258762
0004a0 5a f8 4a 18 d6 d9 d0 bf d7 55 4b e9 da b7 c0 bf
       -0.26329567310665924 -0.13061081305811115

layers.2.weight f8 [150, 150]
000000 21 d1 91 7e 69 5c b7 bf 11 3b 73 b2 7e 2f c0 bf
       -0.09125384655073222 -0.126449429639671
000010 4d 52 d0 34 80 3f c6 bf f6 f3 49 34 c6 55 c5 bf
       -0.17381289080425902 -0.16668012192886267
000020 a0 8f 8d bf 61 d3 aa 3f d4 b5 66 37 da 61 93 bf
       0.05239396537106633 -0.018927964812680845
000030 c6 58 80 2b e6 cb c2 bf 59 b1 df 90 5c c8 9f 3f
       -0.14684750675286845 0.03103775629271985
000040 72 78 16 52 a3 16 a7 3f 19 c4 f7 ae 3b 42 8f bf
       0.04509458901451148 -0.015263048436255077
000050 2e bf 1d 82 5b 3b b7 bf 2c 2b dd 3a e8 bf cf bf
       -0.09074947287240029 -0.24804404138770886
000060 98 b9 83 08 c2 5e a1 3f 21 72 fd 96 a1 b9 c6 bf
       0.03392607072770487 -0.17754001495895103
000070 6f 44 e8 ff f6 14 c3 bf 73 ae 07 57 31 90 84 3f
       -0.14907729621384955 0.010040650814480778
000080 8e e0 6d e8 2d 4e 97 3f c1 3c a8 0c 07 3c 95 bf
       0.02275916796813298 -0.020736799380810526
000090 0a 27 81 67 db e8 ba bf 74 71 e3 97 bc ea a3 3f
       -0.10511561657872562 0.038900273839064164
0000a0 d8 b5 be 83 b3 4d c7 bf 96 69 d2 ad 30 0f 90 3f
       -0.1820587533269833 0.01568294583248927
0000b0 72 b4 15 7f 7e 70 c0 3f a3 45 42 80 cd 2a a6 3f
       0.1284330482989478 0.043295308977700196
0000c0 cc a7 99 67 9f 41 bf bf 66 7c 6c f3 89 33 c5 bf
       -0.12209507254888691 -0.16563534151007103
0000d0 1b 0d 8c 46 6b 29 bc bf d2 9b 6b 30 70 1a 71 bf
       -0.11000700447407434 -0.004175604094348766
0000e0 a0 49 a9 3b 5d 0a 94 3f 56 8f 2a ce bb cc c3 bf
       0.019570786253390815 -0.1546854740782872
0000f0 55 90 13 86 a2 76 a6 bf 97 2b 84 3f 84 8a be bf
       -0.043873862139464016 -0.11930109549227406
000100 02 b1 30 b5 d9 68 a1 3f 8b 15 fe 46 a4 81 74 3f
       0.03400307022852368 0.005006448467502432
000110 a1 92 db a7 ec c1 85 bf b6 19 42 81 52 f1 a1 bf
       -0.010623787758455907 -0.035044267920102554
000120 1c e5 8f d2 85 31 7c bf b1 9f b3 78 1b da c6 bf
       -0.006883166069195281 -0.17853110688815613
000130 db 98 e5 d3 bd 32 b7 bf a9 b0 c3 94 2b b2 b4 bf
       -0.0906180040670707 -0.08084366208976469
000140 72 d7 63 4c e2 95 91 bf 23 51 40 c0 34 35 c2 3f
       -0.017173324501491512 0.14224872004764064
000150 7b f0 2e 6e e6 96 ac bf 74 c7 70 63 39 d6 bc 3f
       -0.05583877654086763 0.11264380147693293
000160 c8 b5 75 bc 45 60 c1 bf 61 58 b7 f4 30 3f 72 3f
       -0.1357505006994144 0.004454795106957205
000170 94 f3 b9 5d 53 20 c1 3f 66 b3 42 ce f9 e9 9d 3f
       0.1337990005157762 0.02921285935797204
000180 11 74 db 03 69 22 9c 3f b0 74 19 a2 71 1e c2 3f
       0.02747501455347751 0.14155407347690163
000190 c4 4e ad 04 80 e9 b4 bf f8 02 a1 08 00 46 b7 bf
       -0.08168792833503874 -0.09091186724345934
0001a0 2f 09 7b 9c 0c 5d b1 3f 78 fb 6d a5 f8 fb b5 3f
       0.06782606907203069 0.08587602652367632
0001b0 47 a4 84 43 77 c4 b3 3f 6f f6 0d ff c2 03 b7 3f
       0.07721658132926833 0.089901149052787
0001c0 7b 37 97 d9 66 ae a9 bf e5 15 5f 6b b8 0a cd bf
       -0.050158704816211284 -0.22688966028924465
0001d0 e4 df 2a 66 a2 1d c7 bf ad 03 61 d9 c9 b6 b7 bf
       -0.18059186924597193 -0.09263288075545857
0001e0 75 72 35 24 ec 7c be bf b0 e3 76 d0 93 1c a3 bf
       -0.11909366497043002 -0.03732740325671757
0001f0 4d 6f fc c4 83 fe a9 3f 0c bf 8a dc c3 1c bc bf
       0.05076991824736741 -0.10981392034841181
000200 ef 08 a4 ff ed 3a be bf b5 65 66 7c 40 80 9a bf
       -0.11808669558743977 -0.02587986716534881
000210 67 1d f4 fe ae a1 a4 bf 83 87 5c 29 d8 1c a5 3f
       -0.040296047804129036 0.04123569016361641
000220 6d 9e c2 78 bc 96 a8 bf 90 a3 ca bd 31 2b b9 bf
       -0.04802502607463741 -0.09831534274657217
000230 68 fa 13 39 2f 60 b9 bf fa 8b c9 8e 0b 21 a4 3f
       -0.09912390845782115 0.03931461446770608
000240 57 ea e2 2c 7c 07 9e bf 0c 7f 70 87 63 cb ba 3f
       -0.02932542823757908 0.10466596657397192
000250 e3 e8 6b 48 61 a5 a9 bf 4c 71 73 c1 d8 db c0 bf
       -0.050089874353902684 -0.13170918889853522
000260 a9 d8 a1 ee 15 c3 ab bf 33 59 d0 8e 4d f8 bf bf
       -0.054222760562809676 -0.1248825524965909
000270 35 7f cf 2b 3d 7d c9 bf ec df 62 e6 14 c7 c0 bf
       -0.19913448943315762 -0.13107548951461412
000280 cd 9e be 76 99 34 b9 bf be 6e 53 39 f9 b8 a5 bf
       -0.09845885418928475 -0.04242686104563863
000290 28 1f b0 d2 66 07 93 3f f7 5c e4 55 4f 48 7e 3f
       0.01858292256295538 0.007393178848608565
0002a0 75 24 04 02 59 66 b0 bf 66 07 a8 b0 90 44 c5 3f
       -0.0640617017671888 0.16615494371222467
0002b0 b2 dc f5 47 09 9c ba 3f 60 b5 43 66 a5 3c cd bf
       0.10394342429013895 -0.22841327184088822
0002c0 99 73 47 81 ac e2 a3 bf 99 9b a0 14 f6 b9 c5 bf
       -0.038838759213582104 -0.16973758704372413
0002d0 30 b6 03 a4 5d e8 82 3f 92 e9 06 3e 56 3d 76 3f
       0.009232265060258177 0.005429589160878117
0002e0 4d 2b 3e 0d 8b ce c1 bf 7b 4b fd 0b 05 e0 bb bf
       -0.1391156973516793 -0.10888701956473128
0002f0 bb 65 ac 51 2b a3 a6 bf ba fd b8 c6 2b 93 b6 bf
       -0.04421363231649474 -0.08818315126062873
000300 34 8c aa 7b 6b d5 bd bf 99 5e 75 2b 9b 09 c0 bf
       -0.11653777856058484 -0.12529315587993464
000310 6e 86 20 21 a2 f1 ab 3f f2 31 1f 89 58 d5 b8 bf
       0.05457789091475439 -0.09700539920522269
000320 56 29 b5 e8 8c 6a 8a 3f e4 2a a2 32 2c ba b4 3f
       0.012898541309046035 0.08096576915901782
000330 91 c8 75 65 5a 75 6e 3f bb 76 85 f5 34 9b c0 bf
       0.003718067698792523 -0.12973653782221625
000340 61 bb b5 fd 73 7b c1 bf 4c 9d b6 cc 5a 8c bc bf
       -0.13657998932054752 -0.11151664255031796
000350 3e b3 25 c9 30 53 a9 bf cd 55 ef 45 01 e6 b3 3f
       -0.0494628186741921 0.07772834737200825
000360 e0 8b dc 5d 93 e9 a8 3f 66 39 c3 97 11 67 9d 3f
       0.048657040794090056 0.028713488471845315
000370 25 2e 51 b0 ae 03 a7 3f 29 1c 49 03 1a 0d aa bf
       0.044949969313702355 -0.050881207371780875
000380 84 55 48 e4 70 7a aa bf 07 22 7b a9 22 55 ab 3f
       -0.051715400568507014 0.05338390654430119
000390 19 0e 0c 7d 25 41 9b bf 7b 3a c7 a2 66 be c3 bf
       -0.026615701443928417 -0.15424807499080714
0003a0 d5 d5 c4 db 84 a9 bd bf 4a a6 3d 8f a7 6d af bf
       -0.11586790433360446 -0.061383472667170993
0003b0 3d f5 29 50 69 a1 b2 bf ef e1 bf 22 26 eb 85 bf
       -0.07277544219137595 -0.010702417312118377
0003c0 56 cc 76 3b 74 e9 a1 bf 72 a1 b3 94 fd 8e b3 bf
       -0.03498423791770537 -0.07640061264431156
0003d0 e5 6b 74 90 73 a7 bf bf 81 07 86 cc a1 40 c8 bf
       -0.12364885594108406 -0.18947241293431819
0003e0 62 cd 49 1f 5e f6 b4 bf bb a5 c2 1b 0b 20 ac bf
       -0.08188427223085662 -0.054931971682275336
0003f0 02 e7 f8 d5 ea c4 bc bf ae 61 6f 01 ee 36 99 bf
       -0.11237971996242993 -0.02462360271224078
000400 3f 87 95 3f 30 82 b8 bf 08 3e 61 4d 9c 07 9e bf
       -0.09573651840539997 -0.029325906966105847
000410 9c 0d 4f ff 1c 90 ad bf c0 11 82 4a c5 c5 a4 bf
       -0.05774012199938314 -0.04057137045404913
000420 b3 63 01 de aa 33 b6 bf 87 f3 94 8a 8e 14 b4 bf
       -0.0867258827214659 -0.07843867190690733
000430 b6 0f 10 c8 d4 ba c1 bf 07 a9 1e 13 18 4e c8 3f
       -0.1385141350621077 0.18988324102003437
000440 c1 31 56 41 af f4 ba bf a7 2e 2c a0 3e 12 b8 bf
       -0.10529609055647084 -0.09402839098418757
000450 3c 81 ba 42 39 f9 b5 bf 65 06 d4 b8 c5 3b ab 3f
       -0.08583410147776233 0.05319040185169114
000460 c2 b4 48 1b 76 3d b5 bf 30 dd 8e 9d 85 2d 4a bf
       -0.08296907583344917 -0.0007988836688274433
000470 d1 8e b5 a4 57 bf b0 bf 12 bc f9 dc ad 30 90 bf
       -0.06541965266438445 -0.015810696232105022
000480 f4 8f 28 48 b0 02 aa 3f fd 89 d4 fe f8 96 b4 bf
       0.05080176239815151 -0.0804286596435659
000490 a8 2b 2a 87 be 7e bf 3f 02 a3 20 1d 75 f4 ac 3f
       0.1230277137748731 0.05655256252823017
0004a0 10 14 0b 9c 08 f5 b7 bf 29 f3 52 42 fc e0 a8 bf
       -0.09358266648912683 -0.04859150228137416
0004b0 fd 6b e5 18 7b 7f 93 bf 33 e5 ab b0 65 da c9 bf
       -0.019040988344709565 -0.20197745443855694
0004c0 e7 ff 13 3a 98 2e b0 bf 4b 1e e9 92 ab 4d c1 bf
       -0.06321097772524774 -0.1351828067147259
0004d0 2d 50 4f b1 34 90 bb bf e1 de 27 61 90 82 c1 bf
       -0.10766915634968717 -0.13679699653561442
0004e0 2a 97 97 51 61 ba 71 3f b6 6b e2 e4 42 c2 a8 bf
       0.004328136588332568 -0.0483570961379977
0004f0 77 a6 b5 b9 0f 32 95 bf 33 a6 bb 07 5c e8 c2 bf
       -0.020698781690418912 -0.14771604898059962
000500 24 ba 13 0e 02 5c c1 bf 53 ac b0 3c aa a0 b4 bf
       -0.13562036216122053 -0.08057655317013372
000510 1f 45 ec da ad 64 78 3f b7 55 25 e3 96 24 9d 3f
       0.0059553900926101735 0.02845988999736956
000520 ee 4e 87 d2 d7 9d ab 3f a0 fa dc 5a 82 f1 aa bf
       0.05393862194946829 -0.05262381896181023
000530 bb 6b 80 a0 a7 3a ba 3f 78 dc ac 9e cf c9 86 bf
       0.10245750111100353 -0.011127111463436132
000540 61 d9 f6 d5 4a c2 a8 3f ee 4e 44 7e 27 8c be bf
       0.04835733281963673 -0.1193260844486834
000550 b8 ee 71 d4 58 02 b4 bf 69 88 db 23 29 0a d0 bf
       -0.07816081225058269 -0.25062016011918914
000560 a7 42 67 81 3a 79 aa bf 2f fb e0 92 b0 78 8d 3f
       -0.05170615033751363 0.014390353662859205
000570 02 2f ec f2 f6 d8 a6 bf 40 de 24 33 2e 45 a6 bf
       -0.04462405886996913 -0.0434965550834332
000580 0b b3 31 16 15 17 a1 bf 41 d4 7c 1c 4f 43 ad bf
       -0.033379229506726636 -0.0571541521334571
000590 6a 52 d3 5c fe 6d c3 bf 44 6d 5c cf c5 08 b2 bf
       -0.15179423840040168 -0.07044636070752569
0005a0 aa cd 5b 68 a1 90 8e bf 0d 28 6b 45 82 09 d2 bf
       -0.014924298283836308 -0.28183037547262374
0005b0 20 50 36 bd a1 2d c7 bf 51 09 6f 0c 5f e6 9d 3f
       -0.18108007182002073 0.02919910920514585
0005c0 d5 99 c3 51 f4 68 b7 bf 94 47 de 6c e9 7f c3 bf
       -0.09144522663300532 -0.1523410588820836
0005d0 20 2a 64 38 ab 6a b5 bf 44 ab b3 66 3e 6b 85 3f
       -0.08365888716449676 0.010458457478724655
0005e0 da 5b 38 7e d7 e8 a7 3f 42 db 12 41 77 29 c8 3f
       0.04669831672452292 0.18876543691086495
0005f0 1c 19 6a 3e 0c 12 c0 3f 6e 03 49 cb 3d 6b c5 bf
       0.1255507759817157 -0.16733524728808952
000600 bd da 89 63 b6 d2 c3 bf 89 ab ca d6 e8 ce 93 bf
       -0.15486793384817146 -0.019343984708636994
000610 f4 d6 45 3d 51 50 c5 bf 75 6d e4 1d de 71 c8 bf
       -0.16651359073482974 -0.19097496471008993
000620 53 8f 2a 5e e1 4a b0 bf a0 9f 96 79 af 6d 7c bf
       -0.06364258336048793 -0.006940541695634211
000630 7b d0 f3 37 ea dd 85 3f 95 60 e7 b2 e1 b3 82 bf
       0.010677175362140403 -0.009132159492694117
000640 1f f9 e3 c5 51 42 c2 bf 9c 15 fd bc 91 49 cb bf
       -0.14264890825865792 -0.21318265655478974
000650 53 8a 97 fb 21 bd 9a bf 38 29 11 e3 b0 50 ca bf
       -0.026112109166101693 -0.20558749282128885
000660 d0 a1 41 64 6f 23 a7 3f 7b 25 ed c1 cd ce a8 bf
       0.04519222353775698 -0.04845278732552579
000670 0b 4d a4 eb 36 65 c7 bf f1 e3 b9 f0 08 9d 90 bf
       -0.18277632242152494 -0.016224040692097878
000680 e3 19 d7 f7 61 c7 c4 bf d6 43 3f e9 ab 5b c7 bf
       -0.16233467675756605 -0.18248509301204646
000690 e2 ea 63 c3 84 e1 b8 3f d6 a8 d4 05 d2 11 c3 bf
       0.09719114084502281 -0.1489813354940625
0006a0 d9 e9 54 71 5c f7 ce bf 7e bf 16 34 5f 18 ca bf
       -0.24192386182569584 -0.20386877101327266
0006b0 26 21 b7 32 d8 28 a7 bf 59 50 d3 4e 3f a2 ba 3f
       -0.04523349398692948 0.10403819727372489
0006c0 75 f9 eb 1f 08 80 c3 bf 4a dd 07 4f b2 a4 cb bf
       -0.15234471853905132 -0.21596363886758702
0006d0 68 a7 0f 77 78 bf c2 bf cc 39 b9 f7 66 e8 a4 bf
       -0.14646821797878862 -0.040835588206948964
0006e0 a8 b7 fe 50 81 e0 bc bf 2b dc f3 bf 4a 1b 8a bf
       -0.11280067660729165 -0.012747367842605403
0006f0 d1 5e e9 6e 80 5e b0 bf b5 e8 7a 17 48 00 c7 bf
       -0.06394198139002617 -0.17969609400262745
000700 db c5 7a 58 d0 64 ac bf cf 08 c0 09 25 27 b3 bf
       -0.0554566486365606 -0.07481605041542426
000710 a8 39 75 67 42 dc 9e 3f 75 5f c9 11 fc 20 5a bf
       0.030137097897119297 -0.0015947782150273735
000720 ac 7b 9f fc 68 55 9e bf 0c f8 ae 35 68 ce a6 bf
       -0.029622688692935092 -0.044543510964544536
000730 53 42 46 31 4c 4d 86 3f 67 3c 17 70 7d f6 a3 bf
       0.010889621022927154 -0.03898994439406849
000740 06 c5 ac 29 dc d0 b8 bf 64 0f e7 71 d5 f6 ce bf
       -0.09693695085004003 -0.2419077688374457
000750 72 1e c2 5f 69 88 9a bf 42 02 98 4d 19 f6 b5 3f
       -0.025910994023915675 0.08578642029170516
000760 7e 24 fa 23 a3 14 b2 bf 32 8b 87 17 ca 6f c2 bf
       -0.07062739971492424 -0.14403654240512648
000770 92 fc 1c 11 81 84 a1 3f bf 03 50 09 b7 1d b6 bf
       0.034214051569955065 -0.08639091470105507
000780 15 9e 20 fc e5 90 9e bf 36 0c ff 0e 85 7e b2 bf
       -0.029849618447910304 -0.07224303833122367
000790 fb 0e cc e8 de 9b b0 3f 13 2b a0 e6 e5 df c5 bf
       0.0648783987381271 -0.17089532624262257
0007a0 0d a5 34 e0 b0 38 a1 bf 32 12 3d 39 8c 36 b5 bf
       -0.033635642403462375 -0.08286358258653406
0007b0 37 e0 ed fb 98 a8 c1 bf e4 8b 06 a1 d7 eb bd bf
       -0.13795769025068846 -0.1168799179200018
0007c0 30 8d aa cb 13 c4 9e bf 51 cf 72 71 12 d7 aa bf
       -0.030044850641059273 -0.05242211947316256
0007d0 15 be ff 8c 61 e0 6e 3f af c3 2d 05 88 f4 ac bf
       0.0037691026009196806 -0.05655312598435757
0007e0 10 e3 fd 75 c9 4b c0 3f 0a 00 ea 50 18 b3 ac bf
       0.12731283437076302 -0.05605388629646775
0007f0 c9 f2 67 58 54 ed c5 bf f4 00 d9 a9 ef 52 c3 bf
       -0.17130522076322155 -0.15096851151793766

layers.2.bias f8 [150]
000000 24 92 71 99 15 8b aa bf 4f 88 29 88 0d 27 b5 bf
       -0.05184237955180418 -0.08262714933656067
000010 ba 06 b9 84 b1 92 ae bf 08 86 33 ab bd 45 8e 3f
       -0.05971293206358781 0.01478145769800944
000020 ba fc 77 fc dc 6b ac bf db 10 26 a8 f9 72 a7 bf
       -0.05551043111699401 -0.045799066329921444
000030 66 3d 50 e3 13 0c 98 bf ac 50 0b 91 a1 ec 9c bf
       -0.023483572720633637 -0.028246426084323303
000040 d1 a8 09 0f c3 1e a4 bf c0 52 3c 6f 4d 14 b2 bf
       -0.03929719503942553 -0.07062229123796282
000050 3b 67 f3 20 43 c1 b9 bf be 92 c2 29 33 39 b0 bf
       -0.10060519747221701 -0.06337280053646574
000060 ba 01 dd 47 48 b3 b1 bf 23 6e 91 84 e9 40 a8 bf
       -0.06914188150859149 -0.04737024062407282
000070 c3 4c dc 7b 81 05 b8 bf 49 c7 56 7d b6 ff 76 bf
       -0.09383401178301924 -0.005614960527440102
000080 93 74 34 47 c2 0c b3 bf 7e f1 c3 55 f2 7b b6 bf
       -0.07441343534852 -0.08782877534753727
000090 27 b5 1b a0 dd 61 a7 bf 41 00 cf dd 80 b7 b4 bf
       -0.04566853122183039 -0.0809250394368073
0000a0 74 8c 3d 31 ee 7e b6 bf 7a 23 29 61 e8 28 a3 bf
       -0.08787430479201125 -0.03742147623103782
0000b0 12 bc 65 54 72 8e aa bf 58 6e ae 65 5c 3f b1 bf
       -0.05186803131334029 -0.06737306101279594
0000c0 c1 d6 86 ef e4 df a6 bf a1 42 f1 50 80 80 be bf
       -0.044676927794552686 -0.11914827324040768
0000d0 33 0a 61 0e e2 be 85 bf e6 91 0f 84 ee ac b5 bf
       -0.010617986739935059 -0.08466997837201226
0000e0 2f 17 b2 fc e3 c6 b8 bf 7c ab ff 61 10 9c a0 bf
       -0.09678482932403364 -0.03244067379258461
0000f0 95 3d 91 8a 16 2b b6 bf c9 e5 2e 3f 4e 6c ae bf
       -0.0865949714945969 -0.059420056546013074
000100 6b 13 3f c0 69 93 82 3f c4 72 14 52 db cb b1 bf
       0.009070230655092456 -0.06951685670760371
000110 21 45 51 89 b2 58 c4 bf f5 0f f6 0a 80 85 ae bf
       -0.15895683007196573 -0.05961227544597129
000120 b4 5e e0 c6 df 2e af bf a8 1c cd 7d 08 45 aa bf
       -0.06090449621859531 -0.05130793128642469
000130 43 54 93 9a 56 83 9b bf 61 0f 84 27 99 ca a0 bf
       -0.026868203339138096 -0.03279570205088934
000140 44 d6 34 b9 3e 1c b2 bf b0 22 f9 c0 67 3c c0 3f
       -0.0707434847034501 0.12684342310446572
000150 57 46 79 2d a1 bd a8 bf c1 2c a1 7b 2d e7 b2 bf
       -0.04832175903414953 -0.0738399912672092
000160 74 a9 13 00 c5 43 af bf 81 21 2c 97 e1 c2 ae bf
       -0.061063915500045335 -0.060080575660381726
000170 cf 90 fa b6 39 e3 b1 bf 75 c2 9c aa 24 66 ac bf
       -0.06987343518500498 -0.05546679098768418
000180 95 64 9f 59 35 41 a7 bf fc 6c db 23 19 8d a8 bf
       -0.04541937560106494 -0.04795149386128547
000190 1d e0 cc 90 72 ec ab bf b1 65 95 f0 35 ef b0 bf
       -0.054538326431100105 -0.06615006564734106
0001a0 0c 89 2d 84 f5 eb b2 bf e1 fd c8 9f 4b ad b3 bf
       -0.07391294934271658 -0.0768630280590439
0001b0 2d 65 32 55 fe 00 9d 3f 08 54 3b 9c 47 b9 a0 bf
       0.02832410235405296 -0.032663572140940345
0001c0 9e 59 26 1d e3 ea b6 bf 6b b8 86 f2 18 3d b0 bf
       -0.08952159368195686 -0.06343227311183035
0001d0 07 b2 f4 43 6f 18 9f bf de 92 a0 89 4a 6f c9 bf
       -0.030366648218818095 -0.19870883674697998
0001e0 93 55 f9 6c 9b 10 b2 bf c6 9e cb a3 59 f7 b4 bf
       -0.0705659047174179 -0.08189926384840893
0001f0 46 6f 26 fb 24 0f a1 bf ea 3a 08 29 63 88 b2 bf
       -0.033318668039298546 -0.07239360572587442
000200 dc 44 95 61 73 2f ae bf 60 aa a8 4b 12 3b ac bf
       -0.058955770170209226 -0.05513817952699607
000210 af 9f 6a 19 5a 2c b2 3f eb 4a f8 83 0f 49 70 bf
       0.07098925705451962 -0.003975926024866831
000220 18 1c 2e 40 b4 25 c1 bf f1 54 38 e7 fc 10 ab bf
       -0.13396313794893966 -0.05286398241529778
000230 68 b2 18 19 33 15 a6 bf 5d 50 f4 61 be b9 aa bf
       -0.04313049012521192 -0.05219836183292224
000240 c8 d8 fe 64 a2 fc af bf f8 2a 55 96 6f 8e 84 3f
       -0.0624743221555249 0.010037299895562665
000250 7f ac 2c 83 6f 6a ad bf 67 c9 b6 39 82 d2 ba bf
       -0.05745266414881999 -0.10477460774453605
000260 30 07 71 a3 c7 67 ab bf 89 22 a4 50 34 f7 b6 bf
       -0.05352615232597058 -0.08970953911569714
000270 b8 ab 50 45 f0 91 ce bf d4 25 5e 51 71 a0 aa bf
       -0.2388286913349853 -0.052005330259884325
000280 b2 7e 0a 8f bd 3d b1 bf 2d 26 15 9f 8d c8 95 bf
       -0.06734833471500215 -0.021272862276680172
000290 08 13 9b 55 d6 c4 bf bf bf c2 8a c8 fd 69 b3 bf
       -0.12409724798187594 -0.07583604951902155
0002a0 2b 07 05 f7 18 72 b7 bf 0e c1 79 65 d9 cd ac bf
       -0.09158473997834153 -0.05625800479617925
0002b0 04 de 86 2e 8b 3f a8 bf 4d 80 5d 43 8b 24 b2 bf
       -0.04735979979471597 -0.07087011713656573
0002c0 0b 32 18 a3 b3 b1 b1 bf b9 e3 3d 74 02 d2 b8 bf
       -0.06911776286887787 -0.09695449197705742
0002d0 16 ef 94 cd 0f 4f b5 bf 7a a5 b9 d5 9e a1 b3 bf
       -0.0832376362713457 -0.07668488233470852
0002e0 65 d3 1a 12 59 5a ab bf 35 cf 39 bf 87 00 a7 bf
       -0.05342367502217974 -0.04492592057513748
0002f0 13 90 32 61 68 4a b6 bf c2 06 b9 b2 ba 09 b1 bf
       -0.08707287190424066 -0.06655470717762582
000300 c0 a1 1d 7d bd 08 b6 bf 30 06 4d 6f b1 dc 93 bf
       -0.086070864721143 -0.01939656488253244
000310 16 26 6e 72 8a c3 8a bf e1 50 bb 6a fe a8 aa bf
       -0.01306827699387995 -0.05207057049634201
000320 fa 90 5b 8e b5 95 a2 bf 54 21 fc c7 dc 84 b6 bf
       -0.03629844057812366 -0.08796481974070974
000330 06 1f 76 1e 16 3b c5 3f be 0d 79 b9 e1 7d b4 bf
       0.16586567389844492 -0.08004580286165372
000340 4b b0 88 c9 ae 0d b1 bf 07 c4 f9 36 d3 51 ae bf
       -0.06661503238928039 -0.05921802564706274
000350 5f 4b 35 75 57 70 bc bf 8d 60 63 c7 00 6b ad bf
       -0.11108919726875176 -0.05745699342668429
000360 d0 dc 48 ce c8 7d 9e bf b0 f8 c1 f5 a8 36 a6 bf
       -0.029776704397787068 -0.04338577270481048
000370 ba 9d e9 cf c6 ad ac bf b2 39 e7 99 84 09 a7 bf
       -0.05601331031794694 -0.04499449137402979
000380 ea 91 ca 4b ff ff cf bf 26 12 e0 ec d8 47 b6 bf
       -0.24999991608377964 -0.08703380377853218
000390 49 3b b7 17 5c ce b7 3f 94 57 da 2f a4 3f bc bf
       0.0929925496959473 -0.1103460900143019
0003a0 8e 49 d2 8d 66 81 b4 bf 4c b5 33 fb a1 60 a6 bf
       -0.08009949648320555 -0.04370599929266436
0003b0 96 a0 7b 27 c5 87 b6 3f 73 d1 4c c2 7d 39 a3 bf
       0.08800918783129172 -0.037547998398085
0003c0 92 1d b5 af 08 1e ae bf b4 7c 7a a8 1b 30 b8 bf
       -0.05882289070955972 -0.09448407042735846
0003d0 f7 3f 08 1b 7c 26 c3 bf d0 52 2b 06 22 d7 ad bf
       -0.14961196250851547 -0.0582819588213731
0003e0 09 ae 25 93 21 d6 ad bf c6 a9 4c 42 6b c2 79 bf
       -0.0582743160365134 -0.00628892801322895
0003f0 ef 08 cf cf 86 95 b8 bf 67 5f cd 6d 55 f9 b1 bf
       -0.09603159497695278 -0.07021078043669392
000400 a1 7c 30 38 62 d2 ad bf 14 51 4c e7 69 0e aa 3f
       -0.058245725020463775 0.05089121769393237
000410 ac 04 6e 28 2b e5 b8 bf 6f db d9 05 b1 37 75 bf
       -0.0972468351083246 -0.005180064673928494
000420 d7 cf a8 28 07 f4 af 3f 2c bf 16 cf 43 72 b3 bf
       0.06240866061526134 -0.07596229368095625
000430 cc 52 d1 a4 98 11 7c 3f 4a 14 52 8d c1 d7 ad bf
       0.006852718605917029 -0.058286713124325276
000440 81 82 54 f5 92 ad a0 bf 3b 2b 93 96 10 71 b0 bf
       -0.0325742649531593 -0.06422523189682476
000450 cc f4 7c fb a1 4c ad bf c3 17 c3 4c 3a 51 81 3f
       -0.057225286435348716 0.008455710857003034
000460 7b 0d ed b9 a7 92 a5 3f 4f 34 34 17 e5 da b0 bf
       0.04213451523403485 -0.06584007088186293
000470 25 b2 d3 89 f9 bb cd 3f 64 2f 2c 84 05 01 ab bf
       0.23229903440314206 -0.052742168793058736
000480 33 15 27 59 c2 dd bf 3f 8e 3f c1 3f a6 e8 a0 bf
       0.12447752644137182 -0.03302497413881077
000490 69 b7 b9 fc c2 09 8e bf 4f 42 ff 08 1d d1 b0 bf
       -0.014667056405609906 -0.06569081754356286
0004a0 bc 41 30 08 9b 94 9b bf 1f ae e1 7f d5 bf b0 bf
       -0.026934072851931154 -0.06542715427502131
