model_chkpt/ntk_network.pt (torch, 196407 bytes, 7 tensors)

layers.0.weight f8 [150, 8]
0	0xbfc1e2d2b90d0336	-0.1397345927780635
1	0x3fb09a211d593b8b	0.06485182730214782
2	0x3f778351df2904ab	0.005740470706372107
3	0x3fc74ce9501b7140	0.18203464900478572
4	0xbf99ef8acbeb50d1	-0.025327843376388885
5	0x3fd4e28d976f82d6	0.326327703367537
6	0x3fceafeaf0a5c0d7	0.2397435832058423
7	0xbfd5c6bb5c95c861	-0.34025463143837525
8	0x3fd9d879ab0d5ad7	0.4038376017028162
9	0x3fdc169597796036	0.4388784388770576
10	0xbfd30d13c025568e	-0.2976731659340225
11	0xbfd4a3c51bd648b0	-0.32249572485410294
12	0xbfb464e1bcae9342	-0.07966433388226071
13	0xbfdf3d3267d031d3	-0.4881101621438379
14	0xbfb59b2e1783146d	-0.08439910959266834
15	0x3f43141ca55d3fcc	0.0005822315094778873
16	0xbfc912cc0e226e2c	-0.19588614168320484
17	0xbfc23cdfdec1de0d	-0.14248274208851833
18	0xbfbcc7dc19743738	-0.11242461797175174
19	0xbfc5cbf33476e90b	-0.1702865606474194
20	0xbfd09b6701361064	-0.2594850074604038
21	0xbf9241785436810a	-0.01782787336344519
22	0x3fa78f9f8b54afbe	0.046017633207469086
23	0xbfcb52144535639e	-0.2134423578197841
24	0x3fb49e80882fd862	0.08054354977488878
25	0x3fcb4ac7ba9ff74b	0.21321961033384648
26	0x3fa779e24816afdb	0.045851775455360864
27	0xbfc74d70e8f8c55e	-0.1820508134419851
28	0xbfbc7a6bf2dc3a8c	-0.11124300650792857
29	0x3fcb5553be4beb23	0.21354147712539726
30	0x3fc779ba8f32ce11	0.1834023665629592
31	0x3fd81c1680b800f0	0.3767143494624312
32	0xbfb74482b659f1d4	-0.09088913871705212
33	0xbfc8bf4b704f5dcf	-0.1933378504170222
34	0x3f8ec093134d2515	0.01501574423459088
35	0x3fbb30c6f46d9be7	0.10621303050503138
36	0x3fc1640f3990b904	0.13586607275778573
37	0xbfc0aa7e296d2349	-0.13020302794236674
38	0x3fb7ca5c089cf048	0.09293151102332431
39	0xbfbd0f61103d5b90	-0.11351591726757548
40	0xbf8921bc32d4208a	-0.012271375943342617
41	0x3f9d308a34f33bce	0.02850547741109804
42	0x3f9039f055bbcfc3	0.015846019013181733
43	0x3fd4edc002aa03c2	0.32701111087959245
44	0x3fcaabc1e1c46247	0.20836661838326817
45	0x3fdd0458c69ffebe	0.45339030644388945
46	0x3fe1acc29ff61018	0.5523388981096131
47	0xbfd202e243250ea2	-0.2814260154448026
48	0x3fba8d256e78f930	0.10371622035106465
49	0xbfbf933a930a7c3f	-0.12334028329722545
50	0xbfc1125487613e90	-0.13337189302773256
51	0xbfc2a15e8cf139d9	-0.14554960138271048
52	0xbfa55cdd173bb53d	-0.04172411831482712
53	0xbfb33032e67c24fe	-0.07495420577119558
54	0x3f92534475bffcc0	0.017895765005957243
55	0x3fed0b8304a90753	0.9076552477856502
56	0xbfe309716e315ea5	-0.5949027206615553
57	0xbf5514d378f49bbe	-0.001286703601928826
58	0x3fceb1749f708843	0.23979051385055258
59	0xbfd943562a24a59a	-0.39473489871542145
60	0x3fb50b071c394726	0.08219952048355292
61	0xbfe5c43ee77fca20	-0.6802057763546294
62	0xbfe07241ef0afc6b	-0.5139474552924076
63	0xbfe1f2fc9d796abd	-0.5609114719075802
64	0x3fc17e8b07660f4b	0.13667428838027215
65	0x3fd416a2c73ac500	0.3138815827943091
66	0x3fde6bc4aa7c382d	0.47532765053699927
67	0x3faa17bc62cebc44	0.05096234041354156
68	0xbfc5f3e4813d5cff	-0.17150551138431777
69	0x3fc6c7b30de2f07d	0.1779693429761017
70	0xbf82c73434e62521	-0.009169013847684373
71	0xbfe6bb4d6602f89e	-0.7103640549101049
72	0x3fbfaf4845c20af9	0.1237683458621567
73	0xbfb727cc0540018c	-0.09045100334333805
74	0xbfc2e120b9e5d630	-0.14749535634079924
75	0x3fc3ad090e8cc0fb	0.1537181206745187
76	0xbfd7dbb6f663f624	-0.3727853208691576
77	0xbfe4eb9434b75549	-0.653757193528386
78	0x3fe57787d24b8008	0.6708411319086744
79	0x3fc1759bcca3d801	0.13640162937343805
80	0xbfca566a08bbae87	-0.2057621519701238
81	0xbfa4e3cafa553e27	-0.04080042177031045
82	0x3fbdf093314f4413	0.11695213273857545
83	0x3f99cf4d7a80855b	0.025204859353953207
84	0x3fb456c2546c05be	0.07944883881648132
85	0xbfaf5e1a0cf4b26a	-0.06126481445457872
86	0xbfb73ae90a2e385e	-0.09074265001820112
87	0x3fb01cc93d565fb5	0.06293924090857568
88	0x3fd538e7724ffce8	0.3315981499035403
89	0x3fd27becda107753	0.2888137940916426
90	0x3fd6a3c6d6f428e5	0.35374613753869105
91	0xbfd70ff23974a9a2	-0.3603482781496955
92	0xbfeb450c3ba8d4f0	-0.8521786847328752
93	0xbfd5178e9c5a4e5b	-0.32956280964683565
94	0x3fd26dda97ba9bd7	0.2879549485900816
95	0x3fc24305605e42e9	0.14267031865576676
96	0x3fdfc90e0d59bf58	0.49664641670005016
97	0xbfc23a83a184a221	-0.142410711160907
98	0xbfc54cbb06970598	-0.16640413114332087
99	0xbfdcd9ba032b783c	-0.45078897771407234
100	0xbfcb13a68c62f24e	-0.2115371880990033
101	0x3fe01192d7f81d6c	0.5021452158115784
102	0x3fc24721beabd5b9	0.14279577074164054
103	0x3fba525fb693dda5	0.10281942565403897
104	0x3fdcd8e8563fd9f3	0.4507389871863829
105	0x3f7d53d37fcd24b6	0.0071600209892689805
106	0xbfc5996eb671ab1d	-0.1687448874320915
107	0x3fdc9cc68a4692cd	0.4470688200329221
108	0xbfe370f7e336f3c4	-0.607540076998355
109	0xbfd64ab0fcc68c14	-0.3483087986480211
110	0x3fa7eae51463acee	0.04671398042577289
111	0xbfe90471fe64be8e	-0.7817926376937565
112	0x3fd5c50c97f9d4bb	0.3401519283427878
113	0x3fc7f7068c2bf079	0.18722612232511773
114	0x3fd8b0319a255692	0.3857540135698879
115	0xbfdb8655e5480edb	-0.4300741900517388
116	0xbfd408aec59138bf	-0.3130299500816242
117	0xbfc089ae01e9d760	-0.12920165151052299
118	0x3fe75a42073ce364	0.7297678128589777
119	0x3fc0af3f17dc0c8f	0.1303480974675932
120	0x3f6f46af66bb853f	0.0038178849989526638
121	0x3fc09a0406c5ecd9	0.12970018702239974
122	0x3f9fd3708bf5baea	0.031080015699838016
123	0xbfc2dd50b1c55dd0	-0.1473790042898444
124	0xbfc331678ef47ed5	-0.14994520645358614
125	0x3f5bfcdcef0d7955	0.0017082364613184204
126	0x3fb7fcc19438d766	0.09370050305082386
127	0x3fd42519803f77e4	0.3147643806859135
128	0xbfbe77f3c0270a55	-0.1190178245661085
129	0x3fcfe93deca12d08	0.24930547765902866
130	0x3fb788e78021dba6	0.09193274381855918
131	0xbfc27dd56b613537	-0.14446513884687714
132	0xbfb92288f42f4076	-0.09818321191346677
133	0x3fa7e4b7ef38b00c	0.04666685862716244
134	0xbfc5409b8c7211d7	-0.16603416783995215
135	0x3fb3a7643786590d	0.0767729411657891
136	0x3fb1d207a26dab2a	0.06961105075394572
137	0x3fbfa932955d96ea	0.12367550036068634
138	0xbfe7fb69be194320	-0.7494400704254964
139	0xbfe0be9d18a38842	-0.5232682687021752
140	0x3fe253f7a13df94e	0.5727499150523643
141	0x3fe774a73379a5f3	0.73298988393543
142	0xbfbfd54f2c8db4ea	-0.12434859121067957
143	0x3fb41b4c453d941d	0.07854153337901022
144	0xbfbebfe929346d08	-0.12011582618690764
145	0x3fc0d11d842fc5fd	0.1313816924517112
146	0x3fc2b3b1854fe336	0.1461088086068913
147	0x3fa1000116af31c8	0.033203157443128684
148	0x3fb6b168e354d29b	0.08864455747682103
149	0x3fab8ef9b70318fc	0.053825191107124554
150	0x3fad8bb39b3bab0c	0.057706463527059965
151	0x3fc046dffe08e219	0.12716293243444524
152	0xbfc5f63d48d80c7e	-0.17157712990601576
153	0xbfd4bff3e19da528	-0.32421586067956065
154	0xbfc419ca207d9bc1	-0.15703703485925583
155	0xbfa7761598ed50c8	-0.04582278720650518
156	0x3fc25fbed7caa4d4	0.14354692017267345
157	0xbfde9d77aef7c36d	-0.478361054293649
158	0xbfd14f9f901895b1	-0.2704848200977166
159	0xbfb6f09263d33ea5	-0.08960833489549687
160	0x3fc78dbbdf6fa43d	0.18401287469831287
161	0x3fa92748ad1b4b4f	0.049127837306193294
162	0x3fc8cbcaaab414e3	0.1937192281258496
163	0xbf8da2837faf91e6	-0.014470126470720279
164	0xbfb008338fa28f5b	-0.06262514359201303
165	0x3fa1451ba4c27b25	0.03373037706591323
166	0x3fa808a64085159f	0.04694098985286676
167	0xbf9334d0255c3c38	-0.018756153373996137
168	0x3f9e13376886cce8	0.029370179896159337
169	0xbfca41c91ef7c3c4	-0.2051326180658447
170	0xbf9b2065e367060a	-0.02649077606634446
171	0xbf9da644de347922	-0.028954578459086673
172	0x3fcb6d9d60fe71c6	0.21428267704039977
173	0xbfc3b5c4a889db3c	-0.15398462514323252
174	0xbfb13a7972ea6ebf	-0.06729849868355141
175	0x3fd8b4fd92dbfbe4	0.38604678479890553
176	0x3fca12a18fdcd0fc	0.20369357609309435
177	0x3fcf877af93fdab4	0.24632203264601105
178	0x3fad0b1486b5984b	0.056725160068524426
179	0x3fcd134fc365c09f	0.22715184250728712
180	0x3fdc5bd0a0058f92	0.4431039393150452
181	0x3fc9c94b6254129d	0.20145551968757483
182	0x3fa14f1c99369931	0.033806699469368325
183	0x3fedbfc3ecf430b0	0.9296588542943223
184	0x3fa93ae3bd3cf4c1	0.04927741704020994
185	0x3fde66796dd433bc	0.4750045368717186
186	0x3fd44d901eed3ae9	0.317234068109356
187	0xbfdcdc32e19f504c	-0.4509398654311141
188	0x3fc65f2033f4875d	0.1747780088126615
189	0xbfe5a5bd5526ee17	-0.6764818823934914
190	0xbfd91dc68cc40247	-0.39244235750814876
191	0xbf722b0ab3971e1a	-0.004435579111891319
192	0xbfcd832491016168	-0.2305646617921966
193	0x3f9152745f24edbc	0.016916101748604126
194	0x3fbd9a752d27d49e	0.11563808777266835
195	0xbfc1484392172f10	-0.135017820676119
196	0x3fbb5c871f7e6051	0.10688061255348315
197	0x3fcd0ce1a597f91d	0.2269556101381988
198	0xbfbb126507f6fe9e	-0.1057494301267021
199	0xbff955b844097f79	-1.5834276826571723
200	0xbfe08e09c09ce730	-0.5173386346789126
201	0xbfe69b544db1b3d7	-0.7064610974754214
202	0xbfa57fc5a9993b3f	-0.0419904489068501
203	0x3fc984c307eb29ca	0.19936406981135085
204	0xbfe5c98def7c88dc	-0.6808538129301058
205	0x3fda5f9f62b5f614	0.4120863403294106
206	0x3fe451cf3b653327	0.6349865112366374
207	0x3f9d68ed775be68e	0.02872057953843537
208	0x3facae6e49f694ab	0.056018301514350576
209	0x3fa965a4286808b8	0.04960358613244992
210	0x3fb3cf39502a9b45	0.0773807354658916
211	0x3fc187343304490b	0.13693859568645225
212	0xbfa4e2c9adf8cda1	-0.040792753683855716
213	0x3fbe3b7f5285f976	0.11809535755853581
214	0x3fb117b09a9350dd	0.0667677285558201
215	0xbfaeea87e0e93b27	-0.060383077816928137
216	0x3fc1e9b33c0282f9	0.13994446211020042
217	0x3fc03917a809dd6a	0.12674232201582508
218	0x3fb3c366b3c4b1fb	0.07720033539653308
219	0x3fded831b20eaaac	0.48194544208915135
220	0x3fe0bbcf21f5a442	0.5229259169838161
221	0x3fba7236489ac629	0.1033052375085154
222	0x3fc73efc60683b00	0.1816096754777945
223	0x3fe21e3668f75f17	0.5661880540965026
224	0x3fa8aca8156a6706	0.04819226514264412
225	0x3fcc7dfa3eabe38d	0.22259452877167654
226	0x3f7e971bdc6b8542	0.0074683273621485875
227	0xbfc27ef299b6df3c	-0.1444991350706405
228	0xbfa2099f231c1288	-0.035229657207343
229	0x3f75a977ac50dc3e	0.00528856990154397
230	0x3f7224be59999dee	0.004429572634399899
231	0x3fb4bbbc215dbbc2	0.08098960699656657
232	0x3fd0259c35ce2b5e	0.2522955441897262
233	0xbfc708d36fe3a03c	-0.17995684588754723
234	0x3fd3de6f8f41d88d	0.31045140256845444
235	0x3feadca7e8dc3686	0.8394355342913549
236	0xbfb6b02c7e5e20c2	-0.0886256989016401
237	0x3fe59abc1ebe95fe	0.6751385307767916
238	0x3fdbc924f99873df	0.43415188192903814
239	0xbfa6968e00ae6ecd	-0.044117391188789414
240	0xbfb5419bd0a53cf6	-0.08303235858805977
241	0x3f94101942bb214c	0.019592661569533917
242	0x3fb1c5eb6b59d7e8	0.06942626353142567
243	0xbfb0a1b11b8ce5ee	-0.06496722147576126
244	0xbf918f44f2847376	-0.017148091604315373
245	0x3fbd6df5a9a60203	0.11495910064514452
246	0xbfaf853f065a5ebf	-0.06156346275855417
247	0xbf79da052602dea3	-0.006311435805563956
248	0xbfd0b2e6c5511a28	-0.26091927785128854
249	0x3fc93048a2174d6b	0.19678600229836304
250	0xbfc7a168e1ee06f5	-0.18461333305099684
251	0xbfed64f3e0a66b0a	-0.918573321122808
252	0xbfbd3564fceb5479	-0.1140959851721436
253	0xbfc1ed393fe1b287	-0.14005199069233162
254	0xbfd9fcb27148bb94	-0.40604840338613113
255	0x3fb03388c125fe61	0.06328634944474622

layers.0.bias f8 [150]
0	0x3fdbee919e409013	0.4364360852653146
1	0xbfe821bf0d5d774e	-0.7541194211041586
2	0x3fe7e61d47101bd0	0.7468401325175993
3	0x3fd80d0313e3faea	0.3757941908115031
4	0xbff91cc1b43c6e0e	-1.569520668074691
5	0x3fccc001702cb9e7	0.22460954644471018
6	0x3fea1512e6eec30e	0.8150724897769537
7	0xbfd7d4c167a6637c	-0.37236056444231
8	0xbfc8435defb7ab0d	-0.18955587582544134
9	0xbfc28417d2c96af3	-0.1446561602814068
10	0xc0016f37e7deceb0	-2.1793058504934706
11	0xbff4834b668f28dd	-1.2820543295115876
12	0xbfec0cf758f4dd69	-0.8765827882224758
13	0xbfc390f4503515e4	-0.15286115566611536
14	0x3fa5a501f54b2e79	0.04227453345592109
15	0x3fe13f5ee4382dd5	0.5389856774722214
16	0xbffdbf53c9dc9316	-1.859210766336394
17	0xbff13e9d1b1bb982	-1.0777865466039604
18	0xbfeb9a1803c45859	-0.862560279233331
19	0x3fd35dee9af852cc	0.302608157480148
20	0x3fd1ca0ff77b1348	0.27795790832560785
21	0x3fe5fe55adcae2a9	0.6872967142472436
22	0x3fd0dbb08c93de43	0.26340879181177373
23	0xbfedaa8cda927777	-0.9270691174494762
24	0xbfbefd54e145fe4a	-0.121053032873527
25	0xbfd9f45bfaefcb7b	-0.40553950791871046
26	0xbfe2471545da0aba	-0.5711771358768012
27	0x3fdbee3f4eee433a	0.4364164610679385
28	0xbff16f84b587d7f8	-1.0897261706390946
29	0xbfe3b025a894f17e	-0.6152523319829439
30	0xbff3cae12188074d	-1.2370311078852467
31	0xbff2fec024013f8c	-1.1871949583473649
32	0xbfe4211d2e3b4bd8	-0.6290422347032019
33	0xbff50d462e1586f2	-1.3157407570037631
34	0xbfe48bfbd3372701	-0.6420878529836217
35	0x3fe99d8c732c02c1	0.800482010789061
36	0x3fd512b2cfbbcb99	0.32926626478654836
37	0xbff526063bfdf409	-1.3217832892835324
38	0xbfba373e6d4fd64d	-0.10240545433756516
39	0xbfe937f57109af67	-0.7880809028406305
40	0x3fb4e8a170d66866	0.08167466168234369
41	0x3ffc742ee06f170c	1.7783650176001542
42	0x3fd4f6bc9a6f52d5	0.32755961495904035
43	0x3fb6a475b2f59e08	0.08844695681693093
44	0xbfdb90ec5f5cba4d	-0.4307204180976541
45	0x3ff1166444fcc4af	1.0679667181796437
46	0xbfd5cc03ed3e3b8a	-0.3405771080805883
47	0xbfebecb1a67a4920	-0.8726433040158419
48	0x3fe7a78bb575ad02	0.7392023605474665
49	0xbff5bd00b8e2a1fb	-1.3586432668763553
50	0x3fc18358d3d5ac3a	0.13682089179505558
51	0x3fe4a484be1f527b	0.6450828278853601
52	0xbff1a8608c94460a	-1.1036077014326815
53	0x3fd358c30a3d3bb7	0.30229259490891586
54	0xbff09a3760ef8baf	-1.0376504694511188
55	0x3fd402f16a6a342e	0.31267962829662366
56	0x3fe535fbcbc4bb03	0.6628397922375772
57	0x3fdd9da2df1ddd89	0.4627463511346482
58	0x3fd282ea7844238b	0.2892404722666064
59	0xbfe9706cb8f957d0	-0.7949737179540026
60	0x3fe1d5b57c4b905d	0.5573375156059331
61	0xbfd702678ef5eca6	-0.35952176056862084
62	0x3fe82382554cb8be	0.7543346086511276
63	0xbfabf62689b727a0	-0.054612354575126476
64	0x3fb511e960198275	0.0823045596712378
65	0x3fe73576d5324149	0.7252763904562382
66	0xbff3639639259220	-1.211813185910735
67	0xbff8abca1f52bcd3	-1.5419408057749038
68	0xbfa992ea6212b456	-0.04994900176220855
69	0xbff20aa1cbb1ffa2	-1.127595706639092
70	0x3fd0e625feea11ec	0.26404714483240244
71	0xbfd18a7eca826278	-0.27407808090496344
72	0xbff54d9c535b439e	-1.331447911845522
73	0x3fd47d93d2b55d3c	0.3201646382999177
74	0xbfcf4b8b32e511b0	-0.24449291215036117
75	0x3ffdfe55112bf6a3	1.8745928450365816
76	0x3fe4f4b73329080b	0.6548725127433966
77	0xbfe546ecc85c4fed	-0.6649078286450255
78	0xbff15e0816e3040e	-1.085456933404433
79	0xc00367bc782f94ea	-2.42565244574745
80	0xbfc3e275c27aea1d	-0.15534851070499736
81	0x3ffe7eab185a4074	1.9059248877784087
82	0xbfd36513640b97e9	-0.30304417390868693
83	0x3fe15b14b9a85e3f	0.5423682809950562
84	0xbfe84c1884193e0f	-0.7592890338946193
85	0xbfa2496c5fa5f639	-0.03571642558652539
86	0xbfde39454dfe1de1	-0.4722455274245175
87	0xbfe3900d2e9fd565	-0.6113344107276758
88	0x3fd31035d0e4ae27	0.2978643932317219
89	0xbfce1d7e6776f29a	-0.23527507831558553
90	0xbfe5ed9eadc95eeb	-0.6852563280362721
91	0x3fc096b3c16a4fda	0.1295990652475883
92	0x3ff26b5024547a28	1.151199476160068
93	0x3fc410a54b9c5cbb	0.15675798599179366
94	0xbfce802082a0ff88	-0.23828512552608694
95	0xbfec03aa874c72da	-0.8754475252677267
96	0xbfd589ecf48705cd	-0.33654331092483575
97	0xbfba3e8caccc8dde	-0.1025169298050552
98	0xbff2998256f63c2a	-1.1624778172442896
99	0x3fe2f7f5889698e7	0.5927684467067394
100	0x3fdf7cfbbaa2d943	0.4920033762567934
101	0xbfe6d6bb224ca215	-0.7137122793110985
102	0x3fd2eebdfcb4df55	0.2958216636502489
103	0xbfefc8c450e119f1	-0.9932576732324475
104	0xbff26641d0524fd3	-1.149965108638743
105	0xbff672c7fd681ce2	-1.4030227564524513
106	0x3fe1299f8996ed50	0.5363309562011782
107	0x3fde7d35ba335028	0.47639220412861727
108	0x3fef21b8bcf841bf	0.9728664103332035
109	0xbff8c59e8a99b5c9	-1.5482468999938297
110	0xbfe64b2065d77c3b	-0.6966707219215843
111	0xc0018149d29162bb	-2.1881290865534004
112	0xbff4d717ad1755e0	-1.3025128136990745
113	0x3fd46225f607053d	0.3184904959308204
114	0xbffb60ebc9c01707	-1.7111623650429821
115	0xbfed3971a513d0d6	-0.9132621978920052
116	0x3ff4376668ee55a9	1.2635254000536895
117	0xbff44f9f9fd14230	-1.2694393389575787
118	0xbfabc3261159217c	-0.05422324144143695
119	0x3fe25f35a103686c	0.5741222519675495
120	0x3fdf2996b36ffa30	0.4869133713072271
121	0xbfb92f3eee81b9ee	-0.09837716410559214
122	0xbfd8527502f67014	-0.38003278054543554
123	0xbfc9d1d4372d1392	-0.20171597189087415
124	0xbff348509e691ccb	-1.2051550090707674
125	0x3fe86f5ab94af96f	0.7635930651666011
126	0xbffa761067f69294	-1.6538242398320664
127	0x3fc9bf6750c680da	0.20115367359267716
128	0xbfe5ec25e186b9a4	-0.6850766568002666
129	0xbff8a275a0aad7fc	-1.5396629596775702
130	0x3fec3b1bb22d0c7d	0.8822153549193811
131	0xbf941a4087acf1c4	-0.019631393700579883
132	0xbff0e7827d849b71	-1.0565209296271088
133	0x3fd901b7f7cf3091	0.3907298965466533
134	0xbfd9c96bb2678228	-0.4029187433461936
135	0xbf9139fc9f434c1d	-0.0168227646070812
136	0x3fe14b20d4ddaff1	0.5404209287203213
137	0x3fa69528e0bc5679	0.044106748040729955
138	0x3fc0916560539a68	0.12943713382192645
139	0x3f9449cf157076ae	0.01981280868868989
140	0xbfa939557a3c010e	-0.04926554791564018
141	0xbff44f8e331bf995	-1.2694227215248237
142	0xbff1b5b3f0829719	-1.1068610567976462
143	0xc0018d0ce868df5c	-2.1938722760204836
144	0x3fb51e6e09cdd2df	0.08249557246547166
145	0xbff70f1c29fc8bc9	-1.4411889686677901
146	0x3fee68f2094f4688	0.9503107244328968
147	0x3fe8f732f65795cb	0.7801756678933826
148	0xbf3e5f42b2289508	-0.00046344164198537695
149	0x3fe578e1fe96a376	0.6710062000685031

layers.2.weight f8 [150, 150]
0	0x3fbcedae3225a291	0.11300171589176446
1	0xbfaa6238c8c2ef7e	-0.051530622965826986
2	0xbfa58425274a1adc	-0.04202381233794991
3	0xbfc38ebb5138408f	-0.1527933260517824
4	0x3fbbe0d24b038b56	0.10889925319092461
5	0xbfa64bc9ba056bea	-0.04354696651235897
6	0xbfb95fca256d6074	-0.09911788381339354
7	0xbfd10404bd62984a	-0.2658702706779691
8	0x3fb1fce2d7f34f0b	0.07026498577334565
9	0xbfa383b3c788ad82	-0.03811418352810404
10	0x3fbbb2c909ba0e06	0.10819679725141648
11	0xbfaa0ef602876ca2	-0.05089539318915938
12	0xbffe381d7f696cb8	-1.8887000062011747
13	0xbf5a0e6816abf97e	-0.0015903488626346214
14	0x3f5f80704551bd04	0.0019227119821854663
15	0xbfc4c6f8959fe7d6	-0.162322114046957
16	0xbfa83ac38e026aeb	-0.04732333286775322
17	0x3ff42d8d61fe35cc	1.2611211612560167
18	0x3faa4dccc3ba3d8a	0.05137481583835342
19	0xbfb099b325d28c3f	-0.06484527276420325
20	0xbfcd6934dec0f16e	-0.22977314831394885
21	0xbf9683b1996caeba	-0.02198674677781185
22	0x3f7624030059ab55	0.005405437206358628
23	0x3fab0c61899d1ff7	0.05282883457999781
24	0xbfedecdf182bf8da	-0.9351649734597018
25	0xbf894289ba5bad10	-0.012333942413042226
26	0x3fc043e3f4a7a63e	0.12707185216940958
27	0x3fc8a1281e3212ce	0.19241811251062874
28	0xbfc39a24d2ba2b5f	-0.15314159669318436
29	0xbfbdf48296558f14	-0.11701217813748271
30	0x3fb8ece74d5b51d2	0.09736486090270738
31	0xbfe0dec81c11060b	-0.5271950290845678
32	0x3fac5c5dcf1561fc	0.05539220002055242
33	0xbf8db3df015350bb	-0.014503233173322241
34	0xbff66e16b77cc391	-1.4018771331286397
35	0xbf91c2de8426081f	-0.017344929519374937
36	0xbf87590016e0dfee	-0.011400223444169879
37	0xbfa5e446343385a1	-0.04275721919271836
38	0xbf9822abc3aa8880	-0.023569759194864037
39	0x3fb3dc0ffb16f7b1	0.07757663612480205
40	0x3f933c56c7db53b6	0.018784862468993878
41	0xbf7676a2ac09df32	-0.005484233319854858
42	0xbf721a2f9ae9bc58	-0.004419504125151873
43	0x3fb023b37cc2bdf9	0.063044755896719
44	0xbfc11683f813ec08	-0.1334996186559183
45	0xbfd715060c804be4	-0.36065818043533526
46	0xbfe5df5f2415a0ed	-0.6835170464301236
47	0xbfd75788b7f5c311	-0.36471765484661584
48	0x3fa02e8d2d3787a0	0.03160515953983567
49	0x3fa92a38888069bb	0.049150244391245455
50	0xbf9b8acdd9059b77	-0.026896683093038356
51	0xbfbb5dc34bf0c5b4	-0.10689945796982309
52	0xbff19dafabcb1869	-1.1009976111104385
53	0xbfa6bf08816e719d	-0.044426217841848394
54	0x3f933e047b7e6f2e	0.018791265523403648
55	0x3fb7b9bdabcfd9c7	0.09267793125750422
56	0xbfaa71c1930384c4	-0.051649140544904465
57	0xbfb86fca1a21c19d	-0.09545577180848004
58	0xbfbe9aa42d22bfda	-0.11954713918635154
59	0xbfd14e0cb67968fe	-0.27038877315284526
60	0x3fb91a9139242c84	0.09806163449336408
61	0xbfaff076dd8b4895	-0.062381472152666685
62	0xbfb0bf75bc7bed52	-0.06542144633924821
63	0xbfcdce531ee6ee7a	-0.23285902985468337
64	0x3f866f21bbf486ef	0.010954154537617692
65	0x3fb4814ca6baa906	0.08009795256171878
66	0xbfc00ac3b98fe46d	-0.1253285080017891
67	0xbfa54b80936af000	-0.04159166144879123
68	0xbfb93802bbd4836f	-0.09851090512939974
69	0xbfb11c34c501b145	-0.0668366414044544
70	0xbfdec427428333aa	-0.4807222508941843
71	0xbfd620e358a86a3e	-0.34575732858653285
72	0x3f90b0d26b15e83d	0.016299522195801542
73	0xbf8d91f45757464c	-0.014438542285378685
74	0x3fc448916aaf0360	0.15846460065042844
75	0x3f6608e8a9a33ce0	0.0026897949402165805
76	0xbfc6d4de7155e1d5	-0.17837124380072447
77	0xbfc0befe5bd4144c	-0.13082866176424301
78	0xbf7ef59fd239bd0b	-0.0075584643378612355
79	0xbfabaac558da6f71	-0.05403725347170408
80	0xbfd1adf985eeef99	-0.27624357299259256
81	0xbfb7cbf00873be13	-0.09295559126234591
82	0xbfd8a7979c32cd55	-0.38522901777033286
83	0xbfb69c72410ddda0	-0.08832468116985703
84	0xbfe71f42a65f64c2	-0.7225659608331159
85	0x3fd9eca58b57a028	0.40506876571316974
86	0x3fc502b914b0c419	0.16414559850957813
87	0x3faf3c92faf35c94	0.06100901902544212
88	0xbfb021b162c15ba7	-0.06301411305444891
89	0xbfdee69eec4b3c40	-0.48282597613883027
90	0xbfd55afe158eb1a4	-0.3336787424584833
91	0xbfc34aa3cfb8ed01	-0.15071532862371131
92	0xbfc931af65ace790	-0.19682877030009793
93	0xbf963fcc8b4c0cf2	-0.021727748872774684
94	0x3fa922664ab2790d	0.04909057294683992
95	0xbfc005429bd21036	-0.12516052826333784
96	0xbfcdb7886dd5899c	-0.23216348040575674
97	0xbfb63d1bda0ca8c7	-0.0868699462268153
98	0xbff1afcdc4c4c0c8	-1.1054208456298955
99	0x3faf668a9dfea7fc	0.061329204355686756
100	0x3fd0f8c6b6ae6d47	0.2651840957639319
101	0xbfcc2813b8d437c3	-0.2199730541692003
102	0xbfc09fff943170f5	-0.12988276229851406
103	0x3fe07c5a0026e2e0	0.5151796343771728
104	0x3fa2815038cbd8bb	0.03614283269227899
105	0xbfab0d2afa9a7e65	-0.052834838000532604
106	0xbfcfc166f93ed75e	-0.24808966798962734
107	0xbfcdc21c36ca8f56	-0.23248627353052126
108	0xbf9fd941e0d3d7fa	-0.03110220846880194
109	0x3fc0859326d72636	0.1290763797426721
110	0xbfabd2f19085a19a	-0.05434374703583274
111	0x3fb7abdcee54743b	0.09246617144204176
112	0x3f9149fde888406f	0.01688381892933005
113	0x3fbeef345e7d41a6	0.12083747202746639
114	0xbfea9f40b2c36ecb	-0.8319400302384222
115	0x3fb55dcd24a9f2f5	0.08346254487146239
116	0xbfbb2331de740992	-0.10600578003871977
117	0xbfc9da48cd47d6b8	-0.20197401069133547
118	0xbfb4b234f6da5b77	-0.08084422136958645
119	0xbfba603869db86d1	-0.10303070625698331
120	0x3fd1d7084d638d82	0.2787495380163919
121	0x3fd74269f34dcacc	0.3634285808576976
122	0xbff181d5b9b6bb08	-1.0941979650921798
123	0xbfe3e2400178c42a	-0.6213684109444604
124	0xbf9b3c7bc9637cd0	-0.026597913901125037
125	0x3fbdca3d07523bbe	0.11636716297856162
126	0xbfbf879c4d0cfef6	-0.12316300278780176
127	0xbfb1181d8dc467c4	-0.06677422247994885
128	0xbfce11d293eb52d4	-0.23491890165919094
129	0xbfc1f424148a0354	-0.14026309016119376
130	0xbfa0ad2d2f66b14a	-0.03257123187663298
131	0x3f9b84345351d6f5	0.026871507249288624
132	0xbfa6427cf9fc076d	-0.04347601462906323
133	0xbfb8289de28cca93	-0.09436976223950415
134	0xbf7d39c32fed4f5a	-0.007135164690072882
135	0xbfab48293eb587b4	-0.053284920601768176
136	0xbf9b9fcaf4a39119	-0.026976748639655577
137	0x3fa030a06a4900be	0.03162099168230402
138	0xbfb67184a3928eb1	-0.08766964906186094
139	0x3fc7382d8421bb85	0.18140191032167877
140	0xbfc28765dd9e10ae	-0.14475701638378297
141	0xbfc620d21dfd8bd0	-0.17287661041618074
142	0xbf544ae101c52f69	-0.001238555653872953
143	0x3fa17cf9a5e75d1c	0.03415661001388967
144	0xbf6b8336b497fe64	-0.0033584660020549596
145	0x3fb66466baddade5	0.08746950208813294
146	0xbfc2f1aa8f558385	-0.14800006865246132
147	0xbfc06ffc60276239	-0.12841753668796388
148	0xbfcee8607f56ca4b	-0.24146658151365083
149	0xbfb2179b4c09b23f	-0.07067270857232531
150	0xbfb08b5765ddde63	-0.06462618100146637
151	0x3fcc5c67883232f5	0.22156995916557035
152	0x3f719ab3a2e5991e	0.004297925667151396
153	0x3fc1f2f477dfd8d2	0.14022689679376882
154	0xbfbda110cb748a6e	-0.11573891608399275
155	0x3fbb5ee33263e7d1	0.10691661815863475
156	0x3fb32407e09ec2fb	0.07476853593722048
157	0x3f8e01f97a158324	0.014652203596314424
158	0x3fb7ea8801d6f283	0.09342241330063854
159	0x3fa0fa067e4de03b	0.033157542150491236
160	0x3fb690246f31f0ac	0.08813693728183364
161	0x3fd38a957390002e	0.3053334835567537
162	0x3fc7b372d66582c0	0.18516383617954624
163	0x3f9ec0f35050b66d	0.0300329225321349
164	0xbfb059bb9d0c777a	-0.06386921486088495
165	0xbfbafeedc35fee1a	-0.10545240421191018
166	0xbfb18e69ad414a41	-0.06857929687365873
167	0x3fd5da109ecabb4e	0.3414346266462659
168	0x3fb2d88bd73ad13c	0.07361673359520621
169	0xbf9b9d20364ebe74	-0.02696657496897932
170	0x3fa8a204d22c9085	0.048111105590835236
171	0x3f5aa4950658e4c2	0.0016261534996274006
172	0x3fc25826739179ca	0.1433151306436698
173	0x3fc705883c8b1ad7	0.17985632854671138
174	0xbfcba792b657e087	-0.21605142501335114
175	0xbfd675c7874d6ba9	-0.3509386845886931
176	0x3fb5c48b57148d8c	0.08503027797683255
177	0x3fab4d65ef8a7224	0.05332487629968721
178	0xbfb14c55b589a193	-0.06757102663107721
179	0xbfd88aa238457d88	-0.3834615277791831
180	0xbf6df7b403d4f397	-0.0036581531445833526
181	0xbfe3751157db4184	-0.6080404964396142
182	0x3fc31d33c0624639	0.14932867902511918
183	0x3f85fcc2db84c0fe	0.010736009906935792
184	0xbfcf28f3e1e3c8a8	-0.24343727617048683
185	0xbf9c842ab854ae0b	-0.02784792661729622
186	0xbfa2880bd4d0f0d5	-0.036194200256859745
187	0xbfa5f707ee677624	-0.042900321819370896
188	0x3f912746fe44c04e	0.016751393575021027
189	0x3f9d19ca11594525	0.028418690976029688
190	0x3fc554a8cc5ad350	0.16664609888325765
191	0x3fb65a0677f6f264	0.08731117657493709
192	0xbfb02b5a82a9e951	-0.06316152277023447
193	0xbfae473fb88ccc23	-0.05913733604247564
194	0xbfd0278a9942050b	-0.2524134155901982
195	0xbfa47df106ddb032	-0.040023357475405766
196	0xbfc74fdc670400e3	-0.18212466268597102
197	0xbfddbfbbb7bb4de3	-0.464827470231482
198	0xbfa368acb8cf6615	-0.037907979545433935
199	0xbfe4b0422495adeb	-0.6465159143967275
200	0x3fae51bbeb14919d	0.059217331358271987
201	0x3fb577af0dfaa2ad	0.08385747996602318
202	0xbfd5a9a709d99a30	-0.33847976648249567
203	0xbfadfa5fe04dc896	-0.05855083096584328
204	0x3faef62ea99a171b	0.06047197170577886
205	0x3f8f6f70d49ac115	0.015349275100874618
206	0x3fb1cb946ece4bd0	0.06951263146611031
207	0xbfa5facb3e3be86a	-0.0429290307492501
208	0xbfb3889b489165a0	-0.0763032009284843
209	0xbfd1004eddf4ca94	-0.26564380336200455
210	0xbfc0ed4b782a75a2	-0.13224166266892917
211	0xbfc42e6ffd1e1113	-0.15766715869188683
212	0xbf78cb1dd1908941	-0.006053081969215336
213	0xbf6e14e414225b0c	-0.003672070947753686
214	0xbfac528034e3e1bc	-0.05531693120605349
215	0xbfc115ff4ee56682	-0.1334838042483178
216	0xbfb90b8b1d319add	-0.09783238852251537
217	0xbfc204f5607afd7d	-0.14077632151564137
218	0xbfc01650ee049c14	-0.1256810342976854
219	0x3fdea40f3cdf72f3	0.4787633985959438
220	0xbfba71ae080718d7	-0.10329711624135328
221	0xbfd8464bf2b9dfae	-0.37929056838720043
222	0xbfafc1a6943097e2	-0.06202431258161291
223	0xbfb2c3c499f28caa	-0.07329968222124941
224	0x3fc2bb0e3f8a460a	0.146333485627608
225	0x3fc140c80296a6b4	0.13478946806326564
226	0x3f919066ec382093	0.017152412574461606
227	0xbfaf78f4cd0bf959	-0.06146969798099872
228	0x3fbe7827bf77ba1e	0.11902092384819027
229	0xbfc0d8025341bc2d	-0.13159207406303733
230	0x3fba671713d6acc4	0.10313553079929522
231	0xbfad0c1095c28d02	-0.05673267200588762
232	0x3fbee30e6849527c	0.12065210386328745
233	0xbfb82c1e34ca8f94	-0.09442318714951475
234	0xbfd05304c0edb6a2	-0.2550670513217971
235	0x3fca0b47bb1149ed	0.20346924432904193
236	0xbfa87860d4c70ef4	-0.04779341313726873
237	0xbfb46c147e163ef4	-0.07977417066853915
238	0x3fb8b28d990a1ab6	0.09647450434031665
239	0xbf9754b0debfef75	-0.022784007640424393
240	0xbfb61d885c5269e6	-0.08638813260987596
241	0x3f9a3e30e5dab440	0.02562786486548796
242	0xbfa9f049a9a3a4d3	-0.050661375005640295
243	0xbfa06f3d25bf78e7	-0.03209868512907282
244	0xbf8707a73e6a9269	-0.011245066253942686
245	0x3fbda77e10bf529c	0.11583698185797647
246	0xbf979ca4bb5d6e6d	-0.02305848496994971
247	0x3fc57e2cf117ae4d	0.1679130723199357
248	0xbfe259545d0d01f3	-0.5734044854544308
249	0xbfb04c7c68352cfc	-0.06366708320745212
250	0x3fafb551da0299da	0.0619302347779926
251	0x3fab03a3e0b2b988	0.05276214712044963
252	0xbf9f25f753f93164	-0.030418266773538774
253	0x3fd0e4c2a7dd2e9a	0.26396242516487123
254	0xbfd5f9ff0d014127	-0.3433835627556782
255	0xbfdeef4f93cf81a6	-0.4833563750708215

layers.2.bias f8 [150]
0	0x3ff392b453655071	1.223316503300364
1	0x3fece08797235f4e	0.9024084045331422
2	0xbff30c49bcd54e59	-1.1905000091836853
3	0x3ffa64f0753c10b5	1.649643381068967
4	0x3ffb2e995660f67b	1.6988767027063705
5	0xbfca7604fd25e9f0	-0.20672666893717873
6	0xbfebd8d20e1811f3	-0.8702173495553879
7	0x3fe263c5e60bd4e7	0.5746793263521369
8	0x3fe09556536bc0f4	0.5182296399416644
9	0xbfc763e00424c8e9	-0.1827354450447907
10	0xbfdeed21dc999900	-0.4832234052941118
11	0x3fc2a5a353f60999	0.1456798706022482
12	0xbfea23de3b0abee8	-0.8168784287608704
13	0x3fefc42f9c75126e	0.9926984840208897
14	0xbff56b387c5d029b	-1.338676915926192
15	0xbff5da9f686ae682	-1.3658746794521055
16	0xbfaeb1f52613a763	-0.059951458833736
17	0xbfe851b5c1064565	-0.7599743623742766
18	0x3fd0658710f0e3a2	0.2561967530669397
19	0xbfddf855b87f0f0a	-0.4682821561548144
20	0x3fe3c756ba42b6c6	0.6180833471205112
21	0x3fcd5e406654d708	0.22943882939005555
22	0xbff6bd36f8dc1952	-1.4211950036129406
23	0xbfe724702ebb1359	-0.7231980240545496
24	0x3ff7a3f178d55f3c	1.4775252075250611
25	0x3fc90d8b1aa7a190	0.19572581101898523
26	0xbffb84c803e24edf	-1.7199173118323683
27	0xbfa8406b9ebe5e91	-0.04736648857868631
28	0xbffa1f5c0448c697	-1.632656113372297
29	0x3fe45f72df27d1e3	0.6366514547831311
30	0x3fe5a873fdc98f48	0.6768131214889559
31	0x3fd43b7fafc9b259	0.31613151709351467
32	0x3ff6ac34f9e804e5	1.41704270953806
33	0x3fe2eb5c61684152	0.5912305738911903
34	0xbfe4173b34bdda29	-0.6278358488187382
35	0xbfe2af107f097c4f	-0.5838701707069819
36	0xbfedc8219a16b9e3	-0.930680085138928
37	0x3f539a73cf0fb43b	0.001196492285312502
38	0xbff4cd80e4148117	-1.3001717481020643
39	0xbfdf0504b2a4da54	-0.48468129583071584
40	0xbf8e40bfc2da6ab6	-0.01477193654436824
41	0x3ffbe113ba9bcb03	1.742450455608094
42	0x3fe54104b4d458b0	0.6641868144822833
43	0x3ffafb8ac6a84e82	1.6864116439873276
44	0xbffa2a36b6597c54	-1.635306083968108
45	0x3fdc81c00ade58c2	0.44541932164555587
46	0x3fd605f28b27dc20	0.3441130026762398
47	0xbffab9b3185f9d01	-1.6703368141259605
48	0xbfa0dfaa021aec59	-0.03295642162034857
49	0x3fce84c308287573	0.2384265699228468
50	0x3fe9b2e7cf50f4d3	0.8030890511651257
51	0x3fe62a7ee67c02fa	0.6926874639176213
52	0xbff5870c374e902c	-1.345470634501008
53	0xbfe804717e92f335	-0.7505423996113679
54	0xbfd3d7cd74fc4e09	-0.3100465433537641
55	0xbfd40fdef992e3a5	-0.31346868870201156
56	0x3fdc2361173da3d9	0.4396593787155872
57	0x3fd51769fa4954c7	0.32955407564197653
58	0xbfdf8d427ac76b00	-0.49299680700430315
59	0xbfa7c9ccad5f4d32	-0.04646148315773714
60	0xbff1a36cc2bafde2	-1.1023986441285776
61	0xc0022e6783596c92	-2.272658373037822
62	0xbff3842a5f36a6e6	-1.219766971519158
63	0x3fb9c3a18e9827a9	0.10064134341533183
64	0xbfed665b7c4214f4	-0.9187447955052037
65	0x3fafc5de104b5014	0.062056483735119766
66	0xbfe3ecc0618563e1	-0.6226503281314956
67	0xbfcc0ef7119ff2ff	-0.21920669899545683
68	0x3fc85e0fa1474eb1	0.1903705155842679
69	0x3fe29812c3c46da9	0.5810636352138562
70	0xbfe182fedd8ab55e	-0.5472406699169985
71	0x3fe3bc587c8646c8	0.6167414123649104
72	0x3fdea4b37b5b4112	0.47880255743531663
73	0xbfea231b75d08c23	-0.816785554987636
74	0x4002efd4f2ad452e	2.367105384743488
75	0x3fdddbaa6af12695	0.46653232997469135
76	0x3fa217bd24c61611	0.035337362994180783
77	0x3fddead59e2fe2a9	0.46745815704302146
78	0xbff7cd3bd90f8d0a	-1.4876059035239586
79	0xc0021729429576b7	-2.2613091661322318
80	0xbfffaf974daa6853	-1.980368903523886
81	0xbff833b0b4c6e2ef	-1.5126196920011201
82	0x3feec0fcfd0fd8aa	0.9610581343283873
83	0x3ff4a9c31b2a6090	1.2914458333162067
84	0xbff0e3c89fd7783f	-1.0556112521949357
85	0xbfa080211ad2b31a	-0.03222754909925225
86	0xbfed98813746acf5	-0.9248663024531242
87	0x3fe53f8c4a656b91	0.6640073254633184
88	0x3ff4380f2e500b34	1.2636863526428899
89	0xc0020ab41fae94e0	-2.2552263713028964
90	0xc000b1f7d28e3841	-2.0868984651233693
91	0xbfdd5ca81757dde9	-0.45878031043636597
92	0x3ffa310580a1c317	1.6369681381876882
93	0xbff1f91d60cfb193	-1.1233190328303848
94	0x4002cdcdcfff5f37	2.3504902124222116
95	0x400082340ba115a2	2.063575831273469
96	0xbfe93979843f90b6	-0.7882659514403005
97	0x3fcb106076744b00	0.21143728050136446
98	0xbfd68e11f01f6311	-0.3524212689349478
99	0xbfd5c3a6d73642f4	-0.3400666333846367
100	0x3feda1b1e957d64d	0.9259881551249208
101	0xbfe064f1972be730	-0.5123222305839814
102	0xbfc4fea54934f3a9	-0.1640211684661186
103	0x3fe9b701ab5a344f	0.8035896631933016
104	0x3fe3de91220d94fc	0.6209188141916964
105	0x3fd22babca128f29	0.2839154694904545
106	0x3ff9cb2de1c69c60	1.6121043032997235
107	0x3fdb4da82a73962c	0.42661480088858883
108	0x4001ddbf1f44d924	2.233274692810612
109	0xbfc4dcefafe85141	-0.1629924401210108
110	0xbff02537c5adcee4	-1.0090863916238328
111	0xbfc0c4e1f20c6c1f	-0.13100838011527657
112	0xbff78ceb848b9899	-1.4719042947340653
113	0x3ff9eba99a8f7c13	1.6200347936171553
114	0xbfc616f191675bde	-0.17257518386642706
115	0x3fece299e1f52899	0.9026612675891271
116	0xbff3e03560238986	-1.2422384028837725
117	0x3fea5ca0f9f6e308	0.8238072282902928
118	0x3fe2986ecc070305	0.5811075196180303
119	0x3ff3826a0657f5da	1.2193393943592725
120	0x3f677a77301181da	0.0028660133253170907
121	0xbf807d1782ec1c7f	-0.008051093752796
122	0xbfd56e219bb13f06	-0.3348468800004273
123	0x3fe1b0b8b51246c7	0.5528224503088602
124	0xbfe93d9b855dadc3	-0.788770447235429
125	0x3fe8f3461dd35d68	0.7796965200931654
126	0x3fb1f57bfb8f4e3c	0.07015204326244712
127	0x3fd7dea414a8b101	0.37296392457461996
128	0xbfe80421adad47d5	-0.7505043403746138
129	0xbff604d943d3dda6	-1.3761837625041635
130	0xbfee7a59674d6a9d	-0.9524352090478093
131	0xc0083a3419c3cd36	-3.028419686591998
132	0xbfb9d34bae4c9473	-0.10088036542272664
133	0x3ff0dd9e4ddf8124	1.054106048766763
134	0xbfee1f7944aae800	-0.9413420048870194
135	0xbfdaf17c09ae09f2	-0.4209890455751114
136	0xbff2834cbc3d192f	-1.1570556023667213
137	0x3fd5fb771ee26c8b	0.343473224793066
138	0x3fe727c55e7f37e6	0.7236048551219454
139	0xbffcb3481e2a0360	-1.7937699487958625
140	0x3fe44b5431338a4b	0.6341954194034057
141	0x3fe4d5b1c94a97fa	0.6510857516739172
142	0xbfe4cc0c7aca96ef	-0.6499082945126399
143	0xbffc3b783a3df302	-1.7645189547612863
144	0xbfebc49aaa0f7253	-0.8677495309344273
145	0x3fc4b4f8c81b2278	0.16177282114792368
146	0x3ff60b5dd7a48228	1.3777750419177526
147	0xbfa28be3d4d45ead	-0.0362235257436486
148	0xbfefb568cd457592	-0.9908946999745913
149	0xbfffe97b41a82a98	-1.9945023121569303

layers.4.weight f8 [1, 150]
0	0xbfc91d8085a73ea5	-0.19621283079185506
1	0x3fa00c6f53bad614	0.03134487053959503
2	0xbfc3bad375c98977	-0.15413897754030945
3	0x3fb48125fa1d7bf0	0.08009564739539576
4	0x3fb237bc0d297bc4	0.07116294213618263
5	0x3fc0f77d08b867dd	0.1325527470187912
6	0x3fb6c6e3d79856a9	0.08897232068587847
7	0x3f78760d43c50a96	0.005971957984288642
8	0xbf9124607625fffd	-0.016740328990181286
9	0x3fb5f309b1eb360b	0.08573971360893766
10	0x3fc382988215ff61	0.15242296554424242
11	0xbfa9cf3f6e5d87ab	-0.050409300062497074
12	0x3fcfb72ae37b736b	0.24777732951670414
13	0xbfa1184ac3e248af	-0.03338845864449646
14	0xbfbbc8e680676683	-0.10853424677716288
15	0xbf8ec4a62ee676f0	-0.015023515993387332
16	0xbfa3cb209c8ec90b	-0.03865911398988161
17	0x3fb0ba084c941bee	0.06533862943261656
18	0xbfadfc1c5f77bc32	-0.058564078000806666
19	0x3f73e4138e0fca49	0.004856182466925826
20	0x3fb55ded20685c54	0.08346445122912033
21	0x3f91771d972a86a8	0.017055952407310088
22	0xbfb2c0eaed525d17	-0.07325619024264927
23	0xbfc7488e549673dc	-0.18190173273333599
24	0x3f859eea37bf57fd	0.010557012392307991
25	0xbfa3683b3c5acd48	-0.0379045973944821
26	0xbfc02e16f3d2db18	-0.12640654473735746
27	0x3fba77f7ffe8021b	0.1033930778285214
28	0xbfaa3a44279b2516	-0.05122578605148413
29	0x3f7283323102a134	0.004519649563157469
30	0x3fb0c7ae669d6e46	0.06554689412353651
31	0xbfb9a04dacf28374	-0.10010228607508315
32	0x3fa34cc23c553307	0.03769499765858169
33	0xbfbdc51f8a9fcfdf	-0.11628911146527753
34	0x3f9cf35504342f99	0.028271988278944702
35	0x3fc21c0860584f1a	0.1414804907259331
36	0xbfc509a0118a4ccf	-0.1643562398572613
37	0x3fb2ba5145926102	0.07315547894029709
38	0xbf8f9b82b314b5cc	-0.01543333157550366
39	0xbfab5152a847a84e	-0.05335481933782714
40	0xbfbbadf019237ee5	-0.10812283147560782
41	0x3f8f8a62d43e0d36	0.015400669195293131
42	0x3fa7cd92d8d51740	0.046490277260586854
43	0x3fbdb5ef14eb7a3f	0.11605734120119225
44	0xbfb50c1b84528683	-0.08221599560286035
45	0xbf8a224480e50e3d	-0.012760672744327123
46	0xbfa0d3ac2b92bda5	-0.03286493331813326
47	0xbfbe3f2c8ceb72bf	-0.11815145912573664
48	0x3fb70ad3b8fde148	0.09000895754241356
49	0x3fb8c5c17e22ab25	0.0967675145099461
50	0xbf602533aafe691d	-0.001970864213899705
51	0x3fa297958123d6c0	0.03631274415412866
52	0xbf5cbcfc009e6a13	-0.0017540417634111002
53	0x3f8669c2369bdc0a	0.010943906108407137
54	0x3fc44034c0e29423	0.15820941370216798
55	0xbfb3e6999de29f2a	-0.07773742775554796
56	0xbf933979e779a3ba	-0.018773941758272385
57	0xbf7f7a5d51ebe16f	-0.007685055285712713
58	0xbfa4ac65fca7467d	-0.04037779530666528
59	0x3f5fce9b9f00391e	0.0019413490044857882
60	0xbfc675c4cc018a2e	-0.17546901665908038
61	0xbfb471457d514729	-0.07985338506230434
62	0xbfbeacbb68d3a271	-0.11982318219419043
63	0xbfaa0ad879eca31c	-0.0508639954408123
64	0x3fc2a8d3c91023ff	0.14577719991237356
65	0x3fc62fc321cd56fe	0.17333258772367083
66	0xbfa2bfd01cb9a5b0	-0.03661966658257698
67	0xbfaf499dc81480e6	-0.0611085230577844
68	0xbf79640353070b59	-0.006198895440720908
69	0xbfbc2454e123c364	-0.10992937561583244
70	0xbf90261b0700b87a	-0.01577036123506346
71	0xbfad5b551632ef8d	-0.05733743568404668
72	0xbf64ef80a56e0283	-0.0025556099530493217
73	0x3fd01c9be8ccd612	0.25174615606678785
74	0x3f90085501d52a97	0.015656784283502558
75	0x3fa2edd3d57d12d6	0.03697072964727048
76	0x3fc0715cae728b34	0.12845953481618155
77	0xbfb7ec1a8f6128bf	-0.09344640732266195
78	0xbfc721a0731f4b9e	-0.18071370717242713
79	0xbfa45fdb23cac1b3	-0.03979382335581096
80	0xbfd4d1edec8b1dcc	-0.3253130731577272
81	0xbf878ee069af31f6	-0.011502984261732668
82	0x3fb12afbfc299a99	0.06706213861762435
83	0xbf872f842e842e5a	-0.01132109896618443
84	0x3fa7c482c48801fb	0.046421133509287636
85	0xbfb646a735734a9e	-0.08701558165493359
86	0xbfa878a23cabb2e0	-0.04779536238297566
87	0x3fb0625e8fff5491	0.06400099769173752
88	0xbfac5acb168652e7	-0.05538019800147769
89	0x3fb8e3e0ea7d984e	0.09722715115421574
90	0xbfb32aade9901843	-0.07486998512476455
91	0xbfb7939135560266	-0.09209544708392911
92	0xbf903d31295a1bdb	-0.015858429097104092
93	0x3fa549de6f8115b7	0.04157919989715302
94	0xbfac8712f5f30f88	-0.05571803333580677
95	0xbf8a88d743fa5811	-0.012956315767308298
96	0x3fae16bcb4f1592e	0.05876722058080684
97	0x3f8725f0b321f4bc	0.011302834002203326
98	0x3fb0db14eebfa191	0.06584292248556368
99	0xbfbe07bfb6ef18d7	-0.11730573860322423
100	0xbfb5a00889d32217	-0.08447316517698088
101	0x3fb811eeeef4999d	0.09402364095567468
102	0x3fc397c762849602	0.15306942282147423
103	0x3f7f48aebb5b706f	0.0076376748526990465
104	0x3f9bc8dd7f47670f	0.02713342751835684
105	0xbfab6a88eb6d5556	-0.053547171343476904
106	0x3fa2182239bca91d	0.03534037546917743
107	0x3fb4ba8d777672bb	0.0809715668351129
108	0x3faec1b746a6de53	0.060071685194483714
109	0x3f876575f9527c3f	0.011423989936075183
110	0xbfd0d859ac7259cf	-0.2632049736070287
111	0xbfb324c7f95ea328	-0.07477998579146272
112	0xbf834c6507d15be8	-0.009423054982262216
113	0x3fa6f0f3dec74602	0.04480707258666074
114	0x3fb041037c04640b	0.06349202897799004
115	0x3faa7c28ec0b1501	0.05172851449382599
116	0xbfb9a84b1fbdf130	-0.10022420430135948
117	0x3f4db7f20e5de2c9	0.0009069377817772724
118	0x3faaead36841f56c	0.05257282874752431
119	0xbfa4fcf85ffc20a6	-0.04099250957193705
120	0x3f9fa25cb74cb02a	0.030892800033299896
121	0x3f71fe87a2cc1ebf	0.004393129184570631
122	0x3fc4a8a283b9ab12	0.16139632636926443
123	0xbfd162585866f6ad	-0.2716275084784268
124	0xbfaf43500453640e	-0.061060429122967816
125	0x3fb7445bbf0412e6	0.09088681615328262
126	0x3fac5dfed56a7710	0.05540462832617099
127	0x3f9b0ea986dcd00c	0.026423119407994064
128	0xbf73fcee42c18230	-0.004879885393251501
129	0xbfc026d4ee1397c1	-0.12618505120116022
130	0xbfc90720644e39fe	-0.1955299844525626
131	0x3fa4fe7791b23940	0.041003929648570026
132	0x3fb039c286b2f037	0.06338134563969865
133	0x3fb9a544e19745dc	0.10017805583563394
134	0x3fbbd33de150400a	0.10869204283540071
135	0x3fa8d54f759d8abb	0.0485024291108593
136	0xbfb004a250c659be	-0.06257070991555388
137	0x3fc6baa6ed649bcd	0.1775711688180465
138	0x3f8ee36471bbb3dd	0.015082154007780285
139	0xbf8895c3214c9d1c	-0.012004398778641838
140	0x3f67307f64a9297d	0.0028307426594313388
141	0xbfb43e285d6c46d1	-0.0790734508593929
142	0x3fa3ad152d7e8f9b	0.038429891398919135
143	0x3f98b3d17e010a3d	0.02412345248763813
144	0x3faced9465c5730f	0.05650008909535675
145	0xbfa099f23f02475d	-0.03242451686050061
146	0x3fc3203a1c0eeb5d	0.1494209897044482
147	0xbfa27ee56712a2c1	-0.03612439044201699
148	0x3fc5cf63248ba12f	0.17039145740933168
149	0xbfd025b3e7b37cc1	-0.252301193495395

layers.4.bias f8 [1]
0	0xbfd83a275b111867	-0.37854942219963167

test_rel_err f8 [103, 1]
0	0x4010367c131acbad	4.05320768214271
1	0x403a0b94697c969b	26.045233338276926
2	0x400b2b1384ae9f80	3.396033321932862
3	0x40367a316e18da7e	22.47731674296164
4	0x3fc07fd7d3841a9e	0.12890146091395577
5	0x40551e8a37643d2b	84.47718605793914
6	0x405d531051e137e8	117.29787108415587
7	0x405c2caddedaf08a	112.69811221485921
8	0x40094760aa0db3bf	3.159852341216236
9	0x3f73059b7267e8bb	0.004644019331403178
10	0x405ebe8fde81747b	122.97753107683268
11	0x40234d243c8d28ce	9.650667087775584
12	0x4044fcac0bd36a79	41.97400043318789
13	0x400ca68c8a63f957	3.581322747398342
14	0x3fead31776d42db0	0.8382680245280678
15	0x3fbe74aaeeb1b163	0.11896770789616577
16	0x3f761d615c282d38	0.00539911299939471
17	0x402fd4cc73b73c7e	15.915622345082962
18	0x4004eb736960b039	2.614966223967738
19	0x400be0315ecbb708	3.4844691663664698
20	0x4013119559264cf4	4.767171280825313
21	0x403f71343866e48e	31.442203068847952
22	0x3fd12bf8cc1b2917	0.26830882961498176
23	0x4019f80c45318e8b	6.492234307431896
24	0x40123e4fae2e16a7	4.560850831568735
25	0x3ff1844e65f79ffd	1.0948013289544172
26	0x4018b0416a0ada4f	6.172124535477066
27	0x3fa768aae2447bd7	0.045720424767061445
28	0x40209f0c5f35a173	8.310641265198432
29	0x402080c493455d6c	8.251499750344657
30	0x3fd6cf37ba351983	0.3563975637847749
31	0x3f92769cdc2b2540	0.018030596673985544
32	0x405fce2af2e97836	127.22137139129413
33	0x3fbe1d966525deca	0.11763896912986663
34	0x402f56c7329a5bf4	15.669488507597613
35	0x402aa492ec70289a	13.321433438006625
36	0x40258e01615ef72b	10.777354281275242
37	0x3fe0adac1360dae2	0.5212002161486817
38	0x4020e3189bc446d7	8.443547122678337
39	0x4044b2dc99f012de	41.39735721800183
40	0x4024e4e463b7c6a4	10.447054973777377
41	0x4010c0f8ace39f77	4.1884486211709975
42	0x3fd083e190a3bdc7	0.25804938435518604
43	0x40216dc9abee9dac	8.714429257276457
44	0x3ff5792a63c1430f	1.34208144156236
45	0x4010703f5b213538	4.109616683866356
46	0x3fdbeece8e83a3ed	0.43645061414150527
47	0x3fe964cb9af0f8d3	0.79355411779377
48	0x4040aae768d97d04	33.33518705958889
49	0x400f42d8156141bc	3.9076387090974247
50	0x3fe30d7bf99cea09	0.5953960299733022
51	0x4011c58c7f760281	4.442918769433732
52	0x3fa9450ec9516fc2	0.04935499389168242
53	0x3faa514777b96c82	0.05140136085966508
54	0x3ff2c0fb6d64f24b	1.1721147797790248
55	0x3fe64926ab8440ec	0.6964295720991038
56	0x40243c788c25cdec	10.118107204069894
57	0x40311a3c527de837	17.10248294423965
58	0x4029a7c5fa31ac4a	12.827682322085952
59	0x3fd998520e68748b	0.39992190749200834
60	0x3f8e69e495fd4db1	0.014850412204089421
61	0x40112d413a5d3776	4.294194137515538
62	0x40106d3b39b03f3d	4.106671239263787
63	0x4040de003ff89dab	33.73438262595604
64	0x40068c49fbf7d685	2.8185004887589593
65	0x401186fab6f9f8f1	4.381815775878054
66	0x404c403286f692a7	56.501541967770486
67	0x400955d83ff461d9	3.1669163700537237
68	0x3fb755fd51dc7b4e	0.09115584610524971
69	0x40125abd672a85dc	4.588613140077964
70	0x403504abce7635f1	21.018246559009587
71	0x3ff66196dc603ba7	1.3988255127367013
72	0x40127f0734eada6e	4.624050928911499
73	0x40132975ed3b9d18	4.790488917125252
74	0x3ffb0ad9e7952011	1.6901492162887772
75	0x402938a8637acd67	12.610659703007242
76	0x4011b31ff96eba67	4.424926659949597
77	0x3fc9b31c28f16afd	0.20077850341007056
78	0x3f60a941557ef4a4	0.0020338321737357213
79	0x40260e9c6469cf80	11.028536928097083
80	0x40333ed6a07ca487	19.245462446623176
81	0x4021eb2ee078b9d6	8.959342016923
82	0x3ffabec22ff2e82d	1.671571910190788
83	0x4019cd87e974738f	6.450713775379781
84	0x3fd022f689ecb62e	0.25213397473530363
85	0x40011a12d3fc1392	2.1377312241842867
86	0x3ff4275390bcde02	1.2596011785334444
87	0x4020bb83698f3b23	8.366236971601728
88	0x404a075659f162fc	52.05732273374994
89	0x3f878e17981a8d23	0.011501488046013869
90	0x4062cc5781bf030a	150.38568198496824
91	0x403283d1caa3415e	18.514919915063153
92	0x40005de3a41713d6	2.0458443469565095
93	0x4020d8ee9eacaf90	8.423695524768647
94	0x403484337281fa4e	20.516410023434496
95	0x40375cc8b96010b7	23.362437807038727
96	0x40038328c556d9eb	2.439042607987394
97	0x40466986ed9c8472	44.82443018095445
98	0x40202a709f882430	8.0828904966057
99	0x3ff30235235490cc	1.1880389576045216
100	0x3fdd464f6ce3fd0f	0.45741639741750445
101	0x400ccc6e01a69d27	3.599819195649292
102	0x3fa2ed9b6828f56e	0.03696904798969568
