model_chkpt/ntk_network.pt (torch, 741498 bytes, 13 tensors)

layers.0.weight f8 [150, 8]
0	0x3fc7aee6beedbd96	0.18502506563843885
1	0xbfb6b18cd950e79a	-0.08864670091216312
2	0x4001a5a3fca76451	2.205879186495203
3	0x3ff18765006f15cb	1.0955553070974584
4	0xc0083c324d254818	-3.0293928172113844
5	0x3fd8188734afc555	0.37649707932640314
6	0xbfd76b94b6122c0d	-0.36594121723527523
7	0xbfe037eecd119f28	-0.5068277364016227
8	0xbfe06f5eaac9ae13	-0.5135949454974614
9	0xbfff0c781eab63ce	-1.9405442426707284
10	0x3fc98973a47ed229	0.1995071938705604
11	0x3fe8edb3d42a9d4b	0.7790164131046508
12	0x3fd10369366512d4	0.2658331900786781
13	0xbff6127ccbb1bbaf	-1.3795135456855225
14	0x3feb6b9db26e7508	0.856886719225856
15	0xc009781c55c38fd4	-3.183647794752668
16	0x3fdf09ed082f6132	0.4849808292324439
17	0xbfde7a5fc872cc6b	-0.4762191255096641
18	0xbfd5f662b12b4122	-0.34316317845970634
19	0x3ffef626c9e49197	1.935095585483486
20	0x3fe1f701fa7bcf84	0.5614023105867862
21	0x3ff1dddb9c6e810c	1.1166645155536257
22	0x3ff33d643725ee08	1.2024881509995584
23	0xbfe0bad63e0f6cbd	-0.5228072368730846
24	0xc0013eec86d81d59	-2.1557245764449076
25	0xc0002fc33ae87f10	-2.023321590633607
26	0xbff59821a8e9229c	-1.3496414754937751
27	0xbfc73576114344a3	-0.18131900637539386
28	0xbfd145bf7032ebcb	-0.2698820682232365
29	0x3fd4d33fd594a7d9	0.3253936372517479
30	0xbfdc139ea9e600c8	-0.4386974963345094
31	0xbfe35217ee10573f	-0.6037711763080792
32	0xc009157b17b572d0	-3.1354886867760356
33	0xbfffe23c1a30e5e9	-1.992733099278093
34	0xbfe0da0b953b0493	-0.526616851297279
35	0x3ff8bf58b58ce6c5	1.5467154590427736
36	0x3fc47e851e7381a3	0.16011108385920378
37	0x3fece65636a87fb5	0.9031172816794341
38	0x3ff487ac15a829cc	1.2831230970356158
39	0xbfbd74761b009f16	-0.11505830916632606
40	0xbff95c5ab5feb402	-1.5850474461724393
41	0x3fc70fb4ff943536	0.18016684035721092
42	0xbfc2f14cb229fd01	-0.14798887919821627
43	0xbfe33055cd4d72ba	-0.5996502885642123
44	0x3ff3a9bc7114359c	1.2289394776483737
45	0xbf93624913a8debf	-0.018929616761140574
46	0xbfed76f886e1f32d	-0.9207728037286863
47	0x3fee2ee6b5e44a75	0.9432252457211933
48	0x3fcd78fd40c6aae7	0.23025479948895297
49	0x3fc363a416184fe6	0.1514783008466331
50	0x3fd4545fb358f9df	0.3176497699204485
51	0x3fb04ee6f0ce5bce	0.06370395068220988
52	0x3fbe767a6a40ccde	0.11899533361502132
53	0x3fbb8f46b4a52aa6	0.10765497122080578
54	0x3fc29cebef035761	0.14541386766966993
55	0x3fc619150266e4b4	0.1726404439666901
56	0xc0035f26de7bb4c0	-2.4214608556272594
57	0xc000abfbeee22e51	-2.0839766180777493
58	0xbfd4e60d4eac0783	-0.32654125864802824
59	0x3ff30a9d0d962d17	1.1900911837318
60	0x3ff257db574d5268	1.1464494142757307
61	0x3feb4fd7874459f1	0.8534963266309302
62	0xbfee0fed68e2d1df	-0.939444260459421
63	0xbfe139ad5448941f	-0.5382906576311405
64	0x3fc41356e5ca0e45	0.1568401929872484
65	0x3fceb9532a6f0c99	0.24003066608392912
66	0x3fc8b4aadc06f1e2	0.19301353209983946
67	0xbf98472d3d48d513	-0.023709017625340566
68	0xbfc5e955e3c35345	-0.17118333455314363
69	0x3fbdd748557c9174	0.11656620108676014
70	0x3fdd267f6d9464a3	0.45547471715105753
71	0x3fa418136b80f7ad	0.03924618422796242
72	0xbfa6dde0a42b8cc0	-0.04466154102353803
73	0xc001a878d13e9e49	-2.2072616908297147
74	0x3fc279814e08bcbe	0.14433304128895047
75	0x3ff718c119aebaec	1.4435435298179824
76	0x400094759d6dd4fd	2.0724899577277243
77	0xbff6e07ae9dcebac	-1.4298047194740588
78	0x3fd12f8d14506841	0.26852728828237465
79	0x3ff4977628102bc7	1.286977917191267
80	0xbfb5131b7cac86cf	-0.08232280534550827
81	0xbfba91b09b9ebfb1	-0.10378555106467392
82	0x3fb7ba7f96169c52	0.09268948950067227
83	0x3f62b2fe24c4d0c3	0.0022826160185563673
84	0x3fb2841197501803	0.07232770866548326
85	0xbfbcbbd42f0d1838	-0.11224104069432961
86	0xbfc0b82ec75a278f	-0.13062081083290564
87	0xc01276a2eba3ae6a	-4.615855867257418
88	0xbffff062be1b3a63	-1.9961879182843851
89	0xbff99d0660988af6	-1.6008361600185572
90	0xbfebdf5dc90daa0a	-0.8710164000343081
91	0x4008671aad9ea5f9	3.0503438533821705
92	0x3fd3fb05665cf04e	0.3121961116446571
93	0x3ff543095f273c29	1.3288663594173704
94	0xbfd8c69709b66cf4	-0.38712097118850797
95	0x3fd57994b5370e37	0.3355457086256339
96	0xbff34ee724463ad2	-1.2067634026495182
97	0xbffdfa36187d6ddc	-1.8735867458952873
98	0xbfe983784f2d8f6e	-0.7972985788769458
99	0x4006ac3f84f960af	2.8341055286983514
100	0xbff748207e077df6	-1.455109112073726
101	0xbfcc3e979ec8cd0c	-0.2206601643862104
102	0xbfbb04143e96c91b	-0.10553099182178409
103	0x3fcb6e61e7ac77f7	0.21430610477631237
104	0x3fee4137733b7601	0.9454610109930287
105	0x3ff2dd111450fefa	1.1789713662728318
106	0x3ff62789a27ee6bb	1.3846527431000328
107	0x3fad8129d39e4b2a	0.05762606342536565
108	0xbfeddf655ead5f27	-0.9335200165905676
109	0x3fe384719bdc261d	0.609917454160669
110	0x3fe2f97e4b340fc1	0.5929557293716173
111	0x3fcaa091e099d655	0.20802520243494152
112	0xbff82ae364ac95b3	-1.510470765360293
113	0x3fecb1d59afbd7e1	0.8967083003069513
114	0x3fef735c39981818	0.9828320622334585
115	0x40057b7ecb65d9db	2.6853004351098497
116	0x400345b6de6d02b2	2.4090402009026883
117	0x3fe1e9653eb0aec3	0.5597406601350133
118	0x3fea97ab53e997f9	0.8310143126407176
119	0xbfea512363ef7edb	-0.8224045707574662
120	0xbff5dbc594785dab	-1.3661552238098504
121	0xbfd7176eda3900d0	-0.3608052378731488
122	0xbfd87b969e4607d6	-0.3825432344093519
123	0xc007a6305fc52e72	-2.9561469537782665
124	0xc004c3173c885ef5	-2.595259163772307
125	0xbfe59f447c06a1ea	-0.6756918356305139
126	0x3ff18ae71ea3e208	1.0964118191606094
127	0xbfd1419749328066	-0.2696283545319659
128	0x3fd5118fb093c0bd	0.3291968559633565
129	0xbfa7e08cd5bb3aff	-0.04663505658174038
130	0xbfd0f04f7db8812b	-0.26466738965429454
131	0x3ff73749b9e17a22	1.4509980450599262
132	0x3fd81773dec2579d	0.3764314341909712
133	0xbfff34b6a363fa97	-1.9503694899027886
134	0xbff8892f81bd6238	-1.5334925716362147
135	0x3fe1ec561cb3c3ee	0.5600996552076347
136	0xbfb2ba2b7e777600	-0.07315322721066053
137	0xbfb3a3f70d8b7ad4	-0.07672065811810153
138	0x3f95675a8f8d0b3c	0.020902075778632
139	0xbfd7c170d6487f52	-0.37118168760388415
140	0xbfe8009900b446e0	-0.7500729573968918
141	0xbfc7e1d5435eafaa	-0.18657937802833874
142	0xbfc8f6c501c056a4	-0.19503080926431438
143	0xbf939decde8cd910	-0.0191571245988707
144	0x3fba3434c8ccb6f2	0.10235910322509392
145	0x3fc654505f835c18	0.17444805778242833
146	0x3fd7ef12161c0b5a	0.3739667144692952
147	0x3fe2ee9a4f425c5c	0.5916263149291683
148	0x3fc95973a3225a3b	0.19804234948669994
149	0x3fdf373c32e7ae00	0.4877462861174706
150	0x3fd67f57109de39a	0.3515222227356901
151	0xbfc9c4ed1abadda0	-0.20132221036122377
152	0x3f90eaa0c8c61928	0.01652003503252178
153	0x3fbc9f0a6421e134	0.11180176682126303
154	0x3fab956dc3b7647a	0.05387442602268151
155	0x3f882fd65d6c5440	0.011809992528961755
156	0xbf8adc669bf577c1	-0.013115693697439814
157	0x3f8ea985b08a8319	0.014971775484185866
158	0x3fae515c3271e4de	0.05921447864325001
159	0xbfb7c49884194e95	-0.09284356331891737
160	0xbff1414698933a35	-1.078436466213714
161	0xbfc9bf24308e88ad	-0.20114567156730825
162	0x3fe755a8651b3973	0.7292062735303219
163	0xbfb3484dd554758c	-0.07532202203988997
164	0xbfd91a5fc131aa73	-0.39223474375345474
165	0x3fd2ac6147559d3c	0.2917712399125383
166	0xbfd2d3db74ce468f	-0.29418074042141823
167	0xc00d2f597cd6e5b6	-3.648119902904649
168	0xbffdbc1f641e9f18	-1.8584283743784393
169	0xbff8b4a3b333444d	-1.5441014289865678
170	0xbff8b336c443b615	-1.543753401430313
171	0x3fe6c0df85a486b4	0.7110440836151697
172	0x4000ff96efec2211	2.1247996086060614
173	0xbfe95128e731fe96	-0.7911571994336153
174	0x3fd8198fe8719be8	0.376560189243206
175	0x3fb023612dae0d6d	0.06303984990340945
176	0xbfe02441899538f5	-0.5044257819334051
177	0xbfe1cfb61b49845e	-0.556605389876619
178	0x3ffee35cdd288c26	1.9305084837913085
179	0xbff3377b0447560b	-1.2010450522551561
180	0xbff8bee7996c57f1	-1.5466075890631112
181	0xbfe6b23f82a5dfd7	-0.7092587997167311
182	0xbff15a6bb3bbb9f3	-1.084575368960597
183	0xbfb95dc37c427038	-0.09908696921996885
184	0x3fa10a49ed4da95e	0.03328162214059448
185	0x3fc05d97b8be5e57	0.12785622139630234
186	0xbfc3fc88fcab3f2f	-0.15614425980901944
187	0x3fc42ffbe8de3187	0.15771435614113846
188	0xbf902ce8b69c9348	-0.015796314378479864
189	0x3fce1d7032a638dd	0.23527338479147533
190	0x3fbf9bbd570216a7	0.12347014784071551
191	0xbf84c615ea815af1	-0.010143443316491725
192	0xbfa46a57be661f4d	-0.03987383078771121
193	0xbf78a537b8f933cb	-0.00601693884489136
194	0x3fcbad66013623dd	0.21622920092730072
195	0x3fe7a6e3cb11b654	0.7391222921557508
196	0x3fd609742b014b93	0.34432701301300844
197	0x3fe58862c8ac1987	0.672898666322724
198	0x3fd590d024c87842	0.33696368782137054
199	0xbffdc040480cf8c1	-1.8594363035659145
200	0xbff7168edc350c89	-1.4430073358387594
201	0xbffadf2b238eaf7f	-1.6794844998321137
202	0xbfece41ea10bb0f7	-0.9028466363356803
203	0x3ffe2f3a1fb9f6c6	1.8865300406754826
204	0x3feb2b789de0e5e7	0.8490565379681215
205	0xbff3929eb6180e94	-1.2232958901449011
206	0x3ff2efd13bdd356c	1.1835491503182665
207	0xbf85374241999a39	-0.010359304072335639
208	0x3fd76225954d306b	0.3653654058478028
209	0x3fd1ed7e98063353	0.2801205143558054
210	0x3fc7fe92394c9697	0.187456396082031
211	0xbf96719fcf6edb58	-0.021917817149837177
212	0x3ff16e3da9cc66fe	1.0894142754318064
213	0x3fd0fa53fc73a5cb	0.26527881291857786
214	0xbff2e17bbf8e4522	-1.1800496561666667
215	0x3fe802d5bc072a60	0.7503460571691214
216	0x3f922023bf10ea77	0.017700727974651245
217	0xbfa4a12b8b812f9e	-0.04029213025987065
218	0xbf996c013a415f8d	-0.024826068096757182
219	0x3fdc86a17fac9579	0.4457172152345588
220	0x3fd6ac8804dbbbbf	0.3542804763264335
221	0x3fd5b153ef32e160	0.3389482341695125
222	0x3fd432c88198f9a4	0.3155995622254528
223	0xbfb12c5fadeeed98	-0.06708333965700886
224	0xbfbaffc9cd39cade	-0.10546551952738123
225	0xbfbbaad4d14cf87d	-0.10807542905692631
226	0xbfc657f3269e8fa8	-0.17455901513778582
227	0x3fc4414e09daa99b	0.15824294549140636
228	0x3fc043a9bf8a5c0e	0.12706491329728958
229	0xbfb49e7c38e66e91	-0.08054329289591979
230	0x3fc3cfa5a8d103ef	0.15477438681594388
231	0xbf9dc921ee60b00a	-0.029087572264117546
232	0x3fddd0568bab7ef7	0.46584094657553926
233	0x3fd7625bffc02389	0.3653783795894517
234	0x3fe188187fdb88e0	0.5478632447450558
235	0x3fe232c9c3e81221	0.5686997247981403
236	0x3fd13a45fa213bf5	0.269181722896007
237	0x3fe021d26468b240	0.5041286431420033
238	0x3fe10812ac12912f	0.5322354660789069
239	0xbfb180181d43e889	-0.06836081232532555
240	0xbfff4ae03672f9fd	-1.9557802321356796
241	0xc0021824c68dc654	-2.261788893891927
242	0xbffd4a094a50ebd5	-1.8305752661678885
243	0x40033b8314892a97	2.404058609424577
244	0x40023d43e3dc5630	2.279914646302835
245	0x3fdbc23e1835b751	0.43373062481156405
246	0xbf9ca0cc05bf642a	-0.027957141733939185
247	0x3f910f3ed780c82a	0.016659719374907102
248	0xbfbeed7c381e76df	-0.12081123704998785
249	0x3fd58553eedcb8df	0.3362626869810707
250	0x3ff3ff6f0e91db12	1.2498617715006657
251	0x3ffdaf61333adf4e	1.8553173066302011
252	0x3ffc85b15b72cfd4	1.782639844151153
253	0x3ff94293b877bd88	1.5787541585703782
254	0x3ff900b054562e4d	1.5626681608581692
255	0xbff8f8693e06b2ce	-1.5606472418686965

layers.0.bias f8 [150]
0	0xc00909397901343b	-3.1295041516773643
1	0xbff027e51f58b750	-1.009739992568445
2	0xc005774eabed8dff	-2.6832555229063924
3	0xc003d43c406c2e2f	-2.478630545903591
4	0xbffe19b83cc62d62	-1.8812792181004956
5	0xbffebd93d8839580	-1.9212835748270152
6	0xbfe6a4188bd2a8ee	-0.707531235782225
7	0xc002519d84d8dc43	-2.2898512247734586
8	0xbfed75c14bdada7e	-0.9206243974247881
9	0xbfeb91793a8c46e8	-0.8615080016627106
10	0xc005a49aa01ab67e	-2.705373049559795
11	0xbff439a31389be2d	-1.2640715373235125
12	0xbfff60be62ca5cd4	-1.96111906614333
13	0xc00232e40093f250	-2.274848942294092
14	0xc0006d0ff387d637	-2.0532530809239478
15	0xc007f6c8fa2507d1	-2.995500520949442
16	0xbfeae6510ee82af3	-0.8406148234510894
17	0xbffbecb47e7d2cfe	-1.7452893200850776
18	0xbff27934e941af10	-1.1545914756379183
19	0xbfd643088c09395e	-0.3478413932361003
20	0xc000429ec5344fbe	-2.032529392870827
21	0xbfec9238c75ded91	-0.8928493398556602
22	0xc00145448b47c6e0	-2.1588221436767157
23	0xbfe738cf4d4e8073	-0.7256847867866
24	0xc0042f957361abce	-2.523234273355661
25	0xc00b62527c93cc57	-3.4230088932613785
26	0xc0026ce164e07046	-2.3031642800324645
27	0xbfe4151826483b3c	-0.627574991960365
28	0xbfe834bdcc6e85bc	-0.7564381592566671
29	0xbfeea7481e0ad810	-0.9579201304211455
30	0xbffc6f2459b140d5	-1.7771342757806015
31	0xc00827af8c725087	-3.0193778011690173
32	0xc0018f51c6ad7c93	-2.194980194253341
33	0xc0044d3af7977d7c	-2.537710127173055
34	0xc00aff59e3a28f2d	-3.3746831687912136
35	0xbffed8c0ca6f3cc6	-1.9279182345961074
36	0xc00581da0e18a0a6	-2.688404188276837
37	0xbfecad910254c19b	-0.8961873097924128
38	0xbfe32f57eb3dd323	-0.599529227691708
39	0xc007738a3642df1b	-2.9314159621388973
40	0xc007142cc18bf1cd	-2.884850990374821
41	0xbff890a6966c5225	-1.5353151203063444
42	0xc004a4ae5861cfb1	-2.5804106621598852
43	0xc00ad24df8bcce50	-3.3526877815836897
44	0xbff9b06c947596b9	-1.6055722998802777
45	0xc00312d160fc3c8f	-2.384188420961045
46	0xc0037ca6332122a7	-2.4358638758170232
47	0xbfe5cacf1684b24a	-0.681006950360435
48	0xbfe136b719b859bf	-0.5379291059824068
49	0xc002b9d09a8bb499	-2.340729911221001
50	0xc00a75c4b68dc84e	-3.307504106714112
51	0xbff077021ab4b083	-1.0290547412105588
52	0xbfe5eaf50c344a89	-0.6849313009609698
53	0xbfe6bc946c9a165b	-0.710519992936223
54	0xc00a6478b18cd34b	-3.2990583296872606
55	0xbfe01241923d88d9	-0.5022285324341978
56	0xbff501e631487930	-1.3129636693116247
57	0xbff696969932d60b	-1.4117647156066393
58	0xc00fdc968b7a1676	-3.9827090164788457
59	0xc00362a3dc84eb44	-2.423164103323332
60	0xbfeddd0ab79607b9	-0.9332326493897575
61	0xbfe2309f86bfa1b2	-0.5684354430969079
62	0xc00423b7b5087df2	-2.5174402373520417
63	0xbff6272aaee5e65f	-1.3845621902422847
64	0xc002c4cf949acb3e	-2.3460990533580164
65	0xbfe256c06824ae64	-0.5730897935913615
66	0xbfed6bdfd1f124b1	-0.9194182491711641
67	0xc001f75f890994c8	-2.245787687878508
68	0xc00700d20226afcc	-2.875400559239983
69	0xbffc0c15d98121ad	-1.7529505249277506
70	0xc005af4a8a95ef6f	-2.7105913950926417
71	0xbfee5340d9fe0a1f	-0.9476627595580033
72	0xc0105435d54e33ee	-4.082236607454417
73	0xc0026f324b246875	-2.3042951460347987
74	0xbfe4a0373f38bcd4	-0.644557593803166
75	0xbffdea6a7fd0db01	-1.8697304718786543
76	0xbffde2b136a6014c	-1.8678447851853717
77	0xc0034b16bb650fc7	-2.411664451619774
78	0xbff456b8f059b30e	-1.271172465199189
79	0xbffb7d72659cd366	-1.7181266755335058
80	0xc0060ef55b2d07d8	-2.7573039172284375
81	0xc003fe7807ac74ff	-2.4992523765091614
82	0xbffed7a5fcce0030	-1.9276485324080674
83	0xc0035e8f5468c1f9	-2.421171817252113
84	0xbfc1cd8c6fc9697d	-0.1390853448709314
85	0xc0057e098fc71647	-2.6865416748649156
86	0xc007592ac86d6f9f	-2.918538633193705
87	0xbfe48df0f624ff2a	-0.6423268134603621
88	0xbff557b7f49a80d0	-1.3339156679940523
89	0xbffc5db591001122	-1.7728782333443367
90	0xbff0d7bb1573f333	-1.0526686513905588
91	0xbff66d363ce7a8dc	-1.4016630534265948
92	0xbfe2002fc3ab72ff	-0.5625227758096968
93	0xbfffea7fdb6040b9	-1.9947508401274219
94	0xc00d32c700c6cef7	-3.6497936306640173
95	0xbff0ec2d10799f45	-1.0576601642187182
96	0xbff485ecb41f313d	-1.2826964412698338
97	0xc007ccad225d7021	-2.9749396023526207
98	0xbfed2284e998905d	-0.9104637682362512
99	0xc0031f76dc32076b	-2.390363426472438
100	0xc000afc30ab67bd0	-2.0858212315501774
101	0xbfff9c984b959123	-1.9757311775693516
102	0xc002210c4795d86d	-2.2661367027858916
103	0xbfdd07fe66370573	-0.4536128996079107
104	0xc0021ea633046818	-2.2649654374809067
105	0xc0103ac95e8c424d	-4.05740878802369
106	0xbfe1704660c9fae1	-0.5449554338846064
107	0xbffe8d6577ff8e0e	-1.9095205962593158
108	0xbfefc6df2461d0be	-0.9930263243282054
109	0xc002033ffe28b38e	-2.251586900345905
110	0xbffd397e39172086	-1.826536391266957
111	0xbff0eb401b987155	-1.0574341848324214
112	0xbfe22cef31c19bca	-0.5679851505091105
113	0xbfd98cecea3c6bfc	-0.3992264068089637
114	0xc0043fb06c6038fc	-2.5310982195725256
115	0xc00a06cd331153d8	-3.253321074453634
116	0xbfe83706527b8a0a	-0.7567168818462175
117	0xc0090312825e196b	-3.126500147339518
118	0xc0000a7eb0610e29	-2.005124452554601
119	0xc0005fda3d82bc3d	-2.0468029790422677
120	0xc002758b884cee73	-2.3073950432279218
121	0xbff8e068ecd948a4	-1.5547875644593114
122	0xc009fc6cdb76689d	-3.2482545037756396
123	0xbff48d339d07f002	-1.2844730505012198
124	0xc0000389f5389e23	-2.001727977552734
125	0xc0022efaa8a12209	-2.2729390310453295
126	0xc00700787e1def68	-2.875229821480321
127	0xc007061d17cd71c6	-2.877985177952925
128	0xc00cff1438298ed6	-3.6245502841646653
129	0xc004c69b0e944eaf	-2.5969754351625265
130	0xbff154e0b9108267	-1.0832221249658234
131	0xbfc4c7b74559d919	-0.16234484564092425
132	0xc00d9f1ba73246aa	-3.7026894628732707
133	0xbfe8b3f566a2f8fd	-0.7719676022168468
134	0xc00a8c8108a7ee18	-3.3186054874656854
135	0xbff1be78c657bf0b	-1.109001898552324
136	0xc00358ccc5190c67	-2.418359317614477
137	0xbff9bdcf423b48bd	-1.6088402354403535
138	0x3fd4818e9599f0cd	0.3204075299215788
139	0xbfe1bb91c4f45cd6	-0.5541466566818609
140	0xbff723934b94dafd	-1.4461853935624156
141	0xc003d5aa3fc72111	-2.479328630699577
142	0xc002206dbd6afe85	-2.265834312274651
143	0xbff8797731d072a8	-1.5296546884411928
144	0xbff51b39dab3afe3	-1.319146971039111
145	0xbfe72194424e3390	-0.7228490157154841
146	0xbff2dcf72a838740	-1.1789466534323338
147	0xbff1455c381d718e	-1.0794336502068265
148	0xc001a4918a4cc950	-2.205355720966658
149	0xbff7c90006800ba6	-1.486572289840049

layers.2.weight f8 [150, 150]
0	0xbfa5da4089bf3e43	-0.042680756392311746
1	0x3f8aaea07b9b2b59	0.013028386852416739
2	0x3fc0fd08bb53fa1c	0.1327219881713554
3	0xbfc55b0de65d4734	-0.16684125660190718
4	0x3fa066c3755ec1b3	0.032034023358736084
5	0xbf7ffc658996d1d7	-0.007809063559240013
6	0xbfb8c85a87ef8792	-0.09680715388051755
7	0xbf99871b3717625a	-0.024929452168949907
8	0xbf99ef502dcc35a3	-0.025326969905156493
9	0xbfd2819b669e8aae	-0.28916058560768476
10	0xbfc54579d6fc39ae	-0.1661827373249713
11	0xbfb1d1a32f257bad	-0.06960506344829183
12	0xbfa6b62a212f66a9	-0.04435855536548889
13	0xbfb8190e5c6c9371	-0.09413232571075782
14	0x3fa2c58b9efd0198	0.0366634017541429
15	0xbfb28552fbf47406	-0.07234686518900454
16	0x3fa38f2ce08b793f	0.038201715860611156
17	0x3fb52040a88684ae	0.08252338518515742
18	0xbfaeab49fbc44793	-0.05990058134388145
19	0xbf8dfd34cef0fc96	-0.014643108907078688
20	0x3fa805e61fb9a262	0.046920005200097106
21	0xbfc0e350a9613157	-0.13193710585108917
22	0xbfac98a7884adb00	-0.05585216082311284
23	0xbf8e74e49f168846	-0.01487139330385302
24	0x3f81486525f4b8c1	0.008438863964866152
25	0xbfc025f22d26f5f1	-0.12615802006432333
26	0xbfcc46884bbdbae0	-0.22090247820184228
27	0xbfc7fbf095dd4e76	-0.18737609212495315
28	0xbfc96617082c388f	-0.19842803858813737
29	0xbfbd4ec4cc447cdf	-0.11448316561699155
30	0xbfbc734e94065e9c	-0.11113444436920833
31	0x3f801cbce731e4e1	0.007867313199528105
32	0x3fb81915be3060a6	0.09413276570592419
33	0xbf9e959bbbc0fe9c	-0.029867585501277646
34	0x3f8e8d5bade62480	0.014918056721187734
35	0xbfaaba62c398301f	-0.05220326078060133
36	0x3fbf9bb1b332388e	0.12346945404917362
37	0x3fa1f66a75545583	0.035083128759803926
38	0xbfb29ef364f62d8b	-0.07273789610751728
39	0xbfc447fe1cd344e2	-0.15844704062923315
40	0xbfc090eacba71409	-0.1294225210569098
41	0xbfc7b6a11afaee4f	-0.18526090447800178
42	0xbfb1bed756f40e12	-0.06931825516590376
43	0x3f9d58d6de0b7a8d	0.028659207632581164
44	0xbfa4aa4865d9b54e	-0.040361654694474156
45	0xbf8d7e5560466bce	-0.014401118279058791
46	0xbfc044346657d31f	-0.12708144185276013
47	0x3fb41dac3937147f	0.07857777020315558
48	0xbfa6d2578fc27ecb	-0.044573532389447466
49	0xbfb167ae716fd104	-0.06798830289318764
50	0xbf964d327571ad77	-0.021778858583656437
51	0xbf9acfb367749d8c	-0.026182940663742424
52	0x3f86d1fec24e6617	0.01114272146678545
53	0xbfb8daa694b97640	-0.0970863450142696
54	0xbfc5108fe1a81dad	-0.16456793325799648
55	0xbfb5162a5ce13109	-0.0823694683796853
56	0x3fcc9c230cb3e47e	0.22351492042779236
57	0xbfbb1e5227fc2787	-0.10593141056247478
58	0x3f8921fe72ae9aa7	0.012271869540041292
59	0xbfc48de9b78cfa55	-0.16058083975254314
60	0xbf62c133ee63cdb1	-0.0022893919259503116
61	0xbfad1f74bac7b585	-0.05688061504393275
62	0x3f95fad9332d01bc	0.021464723347209377
63	0xbfb2ebf9abc6b956	-0.07391319698101503
64	0xbfb48d6ee7c6c735	-0.08028309973340415
65	0x3fa3f4e7e7e0818a	0.038977858596129414
66	0xbfcb6a671428e9ec	-0.21418465122572117
67	0xbfc2c9a81852b67c	-0.1467790716900942
68	0xbf726ed00bd3d0fc	-0.0045002104572982
69	0xbfc62a8d235501ab	-0.17317356324384767
70	0xbfc2f7617ddfc65c	-0.1481744637126664
71	0xbfc40820e145114f	-0.15649806022168852
72	0xbfb2b627783aa02d	-0.07309195218351823
73	0xbfbd39aaafb5e9ce	-0.11416117467698614
74	0xbfd68d6720944698	-0.3523805444866439
75	0xbfc3e858d0abf418	-0.1555281657128098
76	0xbfca3bd7aa26401e	-0.20495124633862444
77	0xbfa42acac0778817	-0.039388977045533284
78	0x3f8d0e4e3fc60a05	0.014187442132201697
79	0xbf9341cf95f37f5d	-0.018805736090939152
80	0x3fc364027830b661	0.15148955219904095
81	0x3f92dcb920711f29	0.018420117001624412
82	0x3fae8a4360359f5b	0.05964861440116805
83	0x3f9abc498f656ba5	0.02610888421746051
84	0x3f80e3708e73b7d1	0.008246306750574835
85	0xbfb12aa8a264262a	-0.0670571705305966
86	0xbfbeac1dbbaddf66	-0.1198137839509151
87	0xbfb36e99f1984fe3	-0.07590639255823776
88	0x3f8f38b113374853	0.015244849585460829
89	0x3f9eb8a573dbd900	0.03000124473234056
90	0x3f513e49de635faa	0.001052448403745724
91	0xbfaa497f4a994010	-0.051341989380148445
92	0xbfd8d937997b4d5c	-0.38825788486902524
93	0xbfcd422cdf2cd1f3	-0.22858200928898462
94	0xbfa80def3f2f185a	-0.04698131223953857
95	0xbfbb6aa39d292dac	-0.10709593378958598
96	0xbfb575d179a03a1b	-0.08382901400930402
97	0xbfc21cff3ea8c36b	-0.141509919734314
98	0xbf9ef11d66f00f53	-0.030216655166454953
99	0xbfa75290b37ca33f	-0.04555179778100759
100	0xbfa4ca4f89e6ac5d	-0.04060600813257829
101	0x3fbcd224d8c3bf4d	0.11258154193978705
102	0xbfca04b944905ac5	-0.20326915595861386
103	0xbfab2c13490619ce	-0.05307064310459318
104	0xbfb639258f3ff227	-0.0868094897013597
105	0x3fb551e9ae65b49d	0.0832811404013278
106	0xbfcda78690ba2056	-0.23167497698546197
107	0xbfb1056b06e988f1	-0.06648892325168611
108	0xbfbf844db55107c1	-0.12311254192994082
109	0x3f87250c9bc124d1	0.011301134589432856
110	0x3f8dcc70b2ae1fd2	0.014550095036398068
111	0xbfc030992ad325ad	-0.1264831027131498
112	0xbfb5896fb240ba0e	-0.0841283617198558
113	0xbfd37307607068e7	-0.30389580171471525
114	0xbfb5f6de693fc979	-0.08579816884574666
115	0x3f85a95b6fb2429d	0.010576929422570653
116	0xbfc86f53275149d4	-0.19089736385156064
117	0xbfbffcb4ceb93f95	-0.12494974181140457
118	0x3fadfa78ba4d0483	0.058551571599772444
119	0xbfb795e2ffde2075	-0.092130839793869
120	0x3f84f633cec6fbdb	0.010235218761293232
121	0xbfdd86237016a8f1	-0.46131215997833325
122	0xbfbd9280fd8429c8	-0.11551672162401083
123	0xbfaf4162abfe3a2d	-0.061045726294754445
124	0xbfa87a2673f48424	-0.047806932120018325
125	0x3fae9301e830cd21	0.059715327828963057
126	0x3fb9b3a7a2ff2ff4	0.10039756516852077
127	0xbfc7f5a8be66f665	-0.18718442246420178
128	0x3fb2ffdc413fe0c6	0.07421661942487665
129	0x3fc60ee044ed76b0	0.17232898107152073
130	0xbfc43811f5212af6	-0.15796112508026966
131	0x3fb5005c3aa27366	0.08203674727924479
132	0x3fb07503a04923ea	0.06428549445367052
133	0xbfb90ba251d6856f	-0.09783377168652917
134	0xbfb3ea7188826c8c	-0.0777960737490721
135	0xbfbe004994b5d05f	-0.11719188576336269
136	0xbfbb30236696dbbd	-0.10620328192349766
137	0xbf9bff42c54c2738	-0.0273409302635976
138	0xbfd0e58be890feff	-0.2640104075580751
139	0xbfc53f4e3154ffa0	-0.16599442871847447
140	0xbfd73410e5db8ec2	-0.3625528568938813
141	0xbfc0d0246daf815c	-0.13135199886074644
142	0xbfbecd8e9bf7a5fc	-0.12032405193135526
143	0xbfafc49840b0f907	-0.06204677381218642
144	0x3fa9d82ff3aafeca	0.05047750329458507
145	0x3fbd56febe59a33e	0.11460868975849522
146	0xbfa1b7eec1cf7ee9	-0.03460641971446227
147	0x3fa6c94f62ac89c2	0.04450462417141267
148	0x3fa6a6b91c3afa63	0.04424074620827836
149	0xbfc2521ba97b30d9	-0.1431307389779082
150	0xbfd7c3ecc0d414af	-0.37133330183889773
151	0x4000f192d4e7b1fc	2.1179558404166965
152	0x3fe9760aeb83c4ae	0.7956595039269325
153	0xbff69d0434cdf385	-1.4133340895343462
154	0x3feb823ee91f3be7	0.8596491387523856
155	0x3fcce0e6f22a2890	0.22561346840331398
156	0xbfda5c912f1ab8ad	-0.4118998489383426
157	0x3ffbe14a0764eb79	1.7425022400700227
158	0xbfd74f03864354e3	-0.3641976176416632
159	0x3ff37819f324876c	1.2168216226350195
160	0x400af532dd6d4e4b	3.369725923441171
161	0x3fe82de248df0a55	0.7556010649935369
162	0xbff451745fa00204	-1.2698863730767025
163	0x3fd5cdf57ea330bf	0.34069573752345755
164	0x3fe6de1a4945b7a3	0.7146121436214695
165	0xc008250f10b64df8	-3.018095140994543
166	0xbfb4c57745bbbbcd	-0.0811380906340979
167	0xbfe91287ef416416	-0.78351208428933
168	0x3fc0a10d96c60c5e	0.12991495000833003
169	0xbfc18db7d940d891	-0.13713739498206626
170	0x3ff2a6d89b33e3b1	1.1657339155774304
171	0x3fe3a41f2322ca6b	0.6137843786476201
172	0x3ff10218e3cb5bba	1.0630120180337443
173	0x3fa326cf1733e334	0.037405463774069864
174	0xbfd78e72e66ce729	-0.36806938650589643
175	0x3fb667a1dbb2af6d	0.08751880277367059
176	0xbff5edfd12396d8e	-1.3706026756179628
177	0x3fc4e57ffbb97d67	0.16325378218878514
178	0x3fd9dfb94c2a071a	0.4042800182142955
179	0x3fe07d544afab42d	0.5152989830436404
180	0xbff2d340f5ca1694	-1.1765756226681434
181	0x3fe2f51c1a649da8	0.5924206271637802
182	0xc008a5865efcf0ce	-3.0808226986829146
183	0xbfd886875249eb52	-0.3832109740830464
184	0x3fe97c496812a72a	0.7964217217133627
185	0x3ff7d1004730495f	1.4885256558232738
186	0x40006d86c834e522	2.053479732622365
187	0x3fe7d7f7d0cbc243	0.7451132848783079
188	0xbfd58dc9839e71eb	-0.3367790017453262
189	0xbfe1f60f858c443a	-0.5612866981847511
190	0xbfea854c98c76bd1	-0.828771875759566
191	0xbfde9c3e89237a3b	-0.4782863940471633
192	0xbfddb9e81730f155	-0.4644718386150733
193	0xbfd3f8140f00d955	-0.3120165010945091
194	0x3fc7e4cfa56fe90b	0.1866702611731131
195	0xbfe60aae329df10b	-0.688803767071961
196	0x40048c4d272c833a	2.568506532712857
197	0xbfb0b702916adaca	-0.06529251146535411
198	0x3fc8082832d649e0	0.18774893266943504
199	0x3fcb17e56cff2266	0.21166675397968787
200	0x3fef4ef4b704353b	0.9783881735362806
201	0xbfc6e7e3751f17dd	-0.17895167559453187
202	0xbfc5895d4f66806a	-0.16825453164074428
203	0x3fa5193ed8658ad0	0.041208232799154865
204	0xbfb2740d404e6e53	-0.07208330936412581
205	0xbfdb9a125a67d532	-0.43127878979369705
206	0xbfb6694eba55f2b1	-0.08754436539852396
207	0x3faf77bf64f4804a	0.06146047694551322
208	0xbffb0b00376cc1cc	-1.6901857533485893
209	0xbfc758c1668fc75a	-0.18239610202686657
210	0xbfec2e8229d4e2b7	-0.8806773011229642
211	0x3ff4b8601ac5aea2	1.2950135274685768
212	0xbfab287261812047	-0.05304295959700816
213	0xc016103dc5a59f8e	-5.515860641702501
214	0x40044a15fc7ca615	2.536174747995356
215	0x3fa6f7210f084d06	0.04485419567586217
216	0x3fee11897618d9a6	0.9396407419761104
217	0x3fe7be487377436f	0.7419779067223383
218	0x3fb40c888c8fe3e5	0.07831624442759695
219	0x3fe90240da5bb87d	0.7815250649271231
220	0xbffa2b0a7285633f	-1.6355080102423043
221	0x3fe5da43b1ae7814	0.6828936071722205
222	0xbfff911e6aa396db	-1.9729293981158011
223	0x3ff0e4b1cbd73c6a	1.0558336222200304
224	0xbffb6473bc31e0e6	-1.7120244361267907
225	0x3fca6195da1320f8	0.20610306881122376
226	0xbffb533d50c76c4e	-1.7078221469335122
227	0xc00398d0023b9679	-2.449615495151019
228	0x3fb978c4350c53e4	0.09949899954911207
229	0x3f591f41113bb00c	0.0015333304808633512
230	0x3feed9b5522e6e79	0.9640757184128709
231	0x3fb3f5b77fde2efa	0.07796809074187286
232	0x3fdebc1827b98cb6	0.48023036841750455
233	0xc008bb0397660ac1	-3.091315443803382
234	0x3f6fd3cca70ea8a7	0.003885173522992852
235	0x3ff5a80abffce65a	1.3535258769537877
236	0x3ff223c5682f9751	1.1337331838380644
237	0x3ff2af91b146deea	1.167863552558567
238	0x3fcc61a16b99b6c7	0.2217294478791045
239	0x3fe3bfb2015f25d5	0.6171503092565965
240	0xbfe7263d746b1bca	-0.723417975787805
241	0xbfc3cb6769a7ba3b	-0.15464489611572838
242	0xbffd84dc524f36f3	-1.8449366774761387
243	0x3ffa5d3df260af66	1.6477641551855071
244	0x3ffce365a9ab59f6	1.8055168750485087
245	0x3ffdd4e4f7d04e54	1.8644761734220952
246	0x3fca4457ff44208f	0.2052106853882418
247	0xbfe204fa43b35d26	-0.5631076166418196
248	0xbfda34b833213b15	-0.4094677447618989
249	0xbfd4518e9c6cb89d	-0.3174778487763293
250	0xbfe72270220d8ea1	-0.722953859815295
251	0xc006530442e3061d	-2.790535471490115
252	0xbfa8863fb8a553c8	-0.04789923790909928
253	0x3fad13cb2c3e40d3	0.0567916385181221
254	0x3fd8910804ca386a	0.3838520094658465
255	0x3fdd33e83053c663	0.45629315108735663

layers.2.bias f8 [150]
0	0xbfd93bce9bd9beac	-0.394275333593195
1	0xbfc6ea95b3790f27	-0.17903395903896888
2	0xbfd117178162c1ad	-0.2670344127209557
3	0x3fd18eedd884e83f	0.2743486990399368
4	0x3ff51d7a0c1231d9	1.3196964713598531
5	0xbfde832412732bc5	-0.47675420572039356
6	0xbfdc6f8c405101f8	-0.44430834084417326
7	0xbfdde359e8cac24d	-0.46700141652676025
8	0xc0016bb803e954b2	-2.1775970750410005
9	0xbfc3f98b1dd7b17f	-0.1560529609408938
10	0xbfcf3132171bac5b	-0.24368883255314952
11	0xbfaac3bd0a90969f	-0.05227461580242942
12	0xbfe0996c27bc273e	-0.5187283302377421
13	0xbfe292757aaca36b	-0.5803782840713273
14	0xbfd115503752dc9e	-0.26692586329176915
15	0xbff06538ced2b68e	-1.0247123793627995
16	0xbfa9ac6ab235e237	-0.05014356065197883
17	0x3fd1ac0511987ee3	0.2761242553551552
18	0xbfe3dad42e771f2e	-0.6204625041509411
19	0xbfaf8e7904b1b368	-0.06163385565091667
20	0xbfbeafe9aa539991	-0.11987171562541322
21	0x3ff0223c5098c3d8	1.0083583019552318
22	0x3fe5e0e8648b9e4e	0.6837045635010754
23	0xbfc3fca9c7588c98	-0.1561481688851003
24	0xbfafeab27ddf707e	-0.062337472787221224
25	0xbfa5ba39297601aa	-0.04243639594187994
26	0xbfda1710e955c1f5	-0.40765784060116
27	0xc004a962895d1b2e	-2.5827074748553036
28	0xbfbbe48690ea51fe	-0.10895577466937564
29	0xbff4873fa6183947	-1.283019684607625
30	0xbfa84ffcb988f692	-0.047485253952328624
31	0x4010e2b7ee204b07	4.221404762955678
32	0xbffdfd70834adc5c	-1.8743748787508343
33	0xbfb90a0f340c6551	-0.09780974407876399
34	0xbfe94cea11e9383b	-0.7906389570068834
35	0xbfb4a13620f97909	-0.08058489136735515
36	0xbfd8649dc3c507a0	-0.3811411296666112
37	0xbfcf83c325f8ec3c	-0.24620856622809295
38	0xbfd2ce72fa13502c	-0.29385065480642214
39	0xbfd75954e4200e2f	-0.3648273685250584
40	0xc00088c766a5c90f	-2.0667865771621403
41	0xbfc882c6c6c00073	-0.1914909811457651
42	0xbfd415d9251db6fe	-0.31383350967995216
43	0xbfffff88d40c1d5d	-1.9998863490198666
44	0xbfd4de70c56fbdc4	-0.32607669144541895
45	0xbfdc43e5f37329a3	-0.44164418005370915
46	0x3fdfc40a49fb236c	0.496340343710975
47	0xbfddc2bfb05cf5d4	-0.465011522512069
48	0x3fe428d2d837d175	0.6299833510407057
49	0xbfd265ad8a622b40	-0.2874559260750864
50	0xbfaa37fa8150f834	-0.051208332334212875
51	0xbfe8dca42e42bcca	-0.7769337562112011
52	0xbfaf7daf5fdc90e6	-0.06150577588258148
53	0xbfbb53f3a95de6b8	-0.10674975285464938
54	0xbfb6c72ff97058eb	-0.08897685851875152
55	0x3fe3096bdd1bac02	0.5949000662343453
56	0xbfc10d9bd20175ba	-0.1332278037470312
57	0xbfcb48351cc839e9	-0.2131410971200716
58	0xbfcb74dc30b8dbb7	-0.21450378779419818
59	0xbfb9bc645bfe434b	-0.10053088422706684
60	0xbff1fc9f506a7d76	-1.1241753712891671
61	0xbfaf1c304756b934	-0.06076193686327472
62	0xbfe3c4da5056ac36	-0.6177798813927271
63	0xbfe981ef7f909049	-0.7971112720010832
64	0xbfd8e87c555c37e9	-0.389189799651716
65	0xbfd1049d65cb0e03	-0.2659066671442078
66	0xbfc3d5849698cbcf	-0.15495354989397334
67	0xbfc5a32de74c0dc1	-0.16904233735850308
68	0x3ff1e1fed560e408	1.1176746687981467
69	0xbfd08c3a68956a00	-0.25855884755370084
70	0xbfefc553aecbda46	-0.9928377546301099
71	0xbfb789786c419517	-0.09194138186429189
72	0x3fc72c339c71b6a3	0.18103642596127142
73	0xbfb7eae1632ddcd7	-0.09342774077764503
74	0x3fc147ba77a32b8a	0.13500147668522927
75	0xbfc085bf56ea6a2f	-0.1290816473381979
76	0xbfb5c6c128b2cce1	-0.08506400340666033
77	0xbfc75d3072c6fc4e	-0.18253141025886283
78	0x3fe37198ae01a904	0.6076167486728825
79	0xbfbb146b7c484515	-0.10578033241496983
80	0x3ff2ec597764e7b3	1.1827025092920678
81	0xbfb610774720bc9b	-0.08618875013847786
82	0xbfacd40578f615c5	-0.056305094733982076
83	0xbfc6c30a5aba9aaa	-0.17782716207621735
84	0x3ff0aa1716c3ef0f	1.0415259255668763
85	0xbfd4be1ca77e773d	-0.3241035113986646
86	0xbfdfc3011b75abcb	-0.49627711946112346
87	0xbfe449c381838539	-0.6340043572965107
88	0xbfd1383d1314c58a	-0.2690575300540209
89	0xbfda586baf2f6e1f	-0.41164676769196434
90	0x3ff039147ee729f8	1.0139355618617838
91	0xbfc6f9650165f58e	-0.17948591774249362
92	0xbfb8c707c5c28639	-0.09678696230050655
93	0xbfe04a770ca59a61	-0.5090899703034887
94	0xbfb8dca754308bb0	-0.09711690717135357
95	0xbfc42ca6ef3810f9	-0.1576126735745971
96	0xbfd337eeb3a2f9db	-0.30028884451522025
97	0xbfef3ccfc1ac2ece	-0.9761732847850568
98	0x3ff176fb0a0bcd99	1.091548003428079
99	0xbfb218c568cbdb27	-0.0706904774523137
100	0xbfba44334a7cf07b	-0.10260315483623288
101	0xbfd2a18b8a9186ac	-0.29110992939068114
102	0xbfaf5810cf9137de	-0.06121876271991743
103	0xbfd2be490ea35ccc	-0.2928640978765997
104	0xbfb76cd03e0e5c34	-0.09150411143342368
105	0xbfd7eba43ad1e1f3	-0.3737574171459805
106	0xbfd67927c582c304	-0.35114473617709074
107	0xbfba2af16c08a275	-0.1022177590135785
108	0xbfe243288b7deb51	-0.5706980442476867
109	0xbfe728bcb654ccd7	-0.7237227975041617
110	0x3fef7a99c88e2ce9	0.9837159077736973
111	0xbfaec1d04aca48e9	-0.060072430734310185
112	0xbfb21d5702f1a2a1	-0.07076019117233524
113	0xbfc31ee0017553f5	-0.14937973090368897
114	0xbfd333b6af2cb986	-0.30003134829430456
115	0xbfc42d7eb2f32c63	-0.15763839471614735
116	0x3fed965b7d05ab7e	0.924604171928294
117	0xbfa0a5964dd7d219	-0.032513329508138074
118	0xbfdba2fc87bf2788	-0.4318229032183969
119	0xbfef1855eab4f067	-0.9717206558339172
120	0xc0103b7639ee38bb	-4.058068185009854
121	0xbfa94452c0a28b07	-0.049349390044218615
122	0xbfdb039dd51eed75	-0.42209573566989117
123	0x3fe9a04017ca5f78	0.8008118118914203
124	0xbfb2c6bfd0297962	-0.0733451731880215
125	0xbfa1f756a493560f	-0.0350901676080576
126	0xbfd1c7d764f72b75	-0.2778223501197126
127	0xbfd6de6bebf35254	-0.3573255352214677
128	0xbfc01a616d7b7eca	-0.12580507131405333
129	0xbfd1abf538206365	-0.27612047654252186
130	0xbfb295a4c282a941	-0.07259588002003615
131	0xbfba1fd31c8b393d	-0.10204810568686624
132	0xbfe589df97ce4e69	-0.6730802502592726
133	0xbfcc1521f0da5889	-0.2193949152030579
134	0x3ff93d391cbb92fb	1.5774470445987265
135	0xbfd798050e8bbdb2	-0.36865354938978634
136	0xbfc1b89995444643	-0.1384460429040236
137	0x3ffca30b2be91183	1.789805575871555
138	0xbfbad5f2031914a2	-0.10482704711565075
139	0xbfc00da53679332a	-0.12541642341457165
140	0xbfb9e6d46c9f1b29	-0.10117843295948305
141	0xbfd7010e22af238f	-0.35943940531847657
142	0xbfd2e0846586842c	-0.2949534408053889
143	0xbfbfc7e4c9702099	-0.12414388578338488
144	0x3fd133ba744fe42a	0.2687822471485243
145	0x3fd54c6cd8975591	0.33278962279776986
146	0xbfb62eb1b7fe899b	-0.08664999715850856
147	0x3fd62562756f7f84	0.34603177517237094
148	0xbfb612eb57c4f20c	-0.0862261857300341
149	0xbfabc8667e02c37b	-0.05426330841272083

layers.4.weight f8 [150, 150]
0	0x3f84d733af6e3961	0.010176090041366494
1	0xbfb4fa884d25cc6e	-0.0819478214596516
2	0xbfbf7c41d6179778	-0.12298976399287465
3	0xbfc6478153bb9186	-0.17405716503629892
4	0xbfb8a7b16e3fda56	-0.0963087934650074
5	0x3f9e2eb80b8fbdcb	0.029475093560845694
6	0xbfba8607132225d1	-0.10360759942172783
7	0xbfb7f5d9c2687bd3	-0.09359513279240099
8	0xbfd77a1a648bd49e	-0.36682758158651463
9	0xbfb60b6d36c3f32d	-0.08611185633703818
10	0xbfb37d4984de37d7	-0.07613048070763227
11	0xbfc6ec9391ac26da	-0.17909474003709286
12	0xbfad70efe48b9802	-0.05750226654872394
13	0xbfbaddba54edaf4e	-0.10494579862068784
14	0xbfb0a59570334fd0	-0.0650266074110839
15	0xbfbf04ff435fbd31	-0.12117000002739499
16	0x3f77d492236692ea	0.005817957737609384
17	0x3f44fdc5cbba2393	0.0006406036186073931
18	0xbfc57963c4e42590	-0.16776702035739932
19	0x3fb7a88173d955de	0.09241494253486546
20	0x3f6e24a72cb8e0fb	0.0036795868998319415
21	0xbfb8cdad050203d8	-0.0968883645273445
22	0x3fb7185b30b568a1	0.09021539630103571
23	0xbfa10402f0b33664	-0.03323373020394341
24	0xbfaef104906e79fa	-0.060432570105366026
25	0xbfc111530d71719a	-0.13334119945910744
26	0xbfc05692d058e41b	-0.12764201329426403
27	0xbfd5bb49a9dafb57	-0.33955613696519066
28	0xbfc9ff17ae94924f	-0.20309730553084868
29	0xbfb0508417fef738	-0.06372857652510511
30	0x3f8f8a36e37ecc8e	0.015400341813665255
31	0xbfe7b3916939d58e	-0.7406699233239793
32	0xbfc3cdb07545740d	-0.1547146389592914
33	0xbfab77613f1c5a7a	-0.053645171121549276
34	0xbfbec0f87938438c	-0.12013199767558386
35	0xbfb259d43e2a94fb	-0.07168318288548285
36	0xbfb8e2b2036eb8d8	-0.09720909675408806
37	0xbfc6430dbeccb0b7	-0.17392131630311322
38	0xbfc6b445f498a3a8	-0.17737650340248234
39	0x3fab34caee23c21c	0.053137151307854874
40	0xbfc4d6177e0f7a4f	-0.16278356223388576
41	0xbfc064dff5b77581	-0.1280784559047952
42	0xbfb2fec04d564f93	-0.07419969452013069
43	0xbf3545e868a7bb30	-0.00032460140269467957
44	0xbfb6e0a6653193c0	-0.08936538668201788
45	0xbfb064bf57a4bcd8	-0.06403728379949614
46	0x3fa502f8bcdc51ec	0.04103829675128509
47	0xbfadad1274e28ce8	-0.05796106030290976
48	0xbfbb5bd93d9e88a6	-0.10687024835945866
49	0xbfbaaea2c98a436f	-0.10422723217403783
50	0xbfb3a8cffc8156df	-0.07679462351492415
51	0xbfc0c2b5c08ce2fa	-0.13094207670089714
52	0x3f6a13510df0f531	0.003183039006698828
53	0xbfc0050fce6e2660	-0.12515447215655495
54	0x3f9403e42d445baf	0.019546094191436655
55	0xbfb14db78ca9eaae	-0.06759211715863486
56	0xbfbc9a8eaa13b916	-0.11173335697433048
57	0x3f92b7dda9b96569	0.01827951763548211
58	0xbfc33802cb475b31	-0.15014681745261663
59	0xbf9feec33a1911ca	-0.031184244557396025
60	0x3f51194fee68e711	0.0010436325625406454
61	0xbfc16b37663c6ee8	-0.136084484977679
62	0xbfcc9b4e1307c66d	-0.22348953179566725
63	0xbfa0158da1a23e16	-0.03141443822925909
64	0xbf9c3aca0043bf68	-0.027568012491371446
65	0xbf95c0d96505be84	-0.021243473807258897
66	0xbf99beb57dc1976d	-0.025141559410620063
67	0xbfc6db25fa6827f0	-0.17856287695786888
68	0xbfac000dab42c656	-0.05468790736757671
69	0xbfb16aff32242499	-0.06803889249944674
70	0xbfc2dae423bea044	-0.14730502839415938
71	0xbf8886c679f21341	-0.011975813480839316
72	0xbfd1e5e6376edd53	-0.27965693868050784
73	0xbfb1f07f4c0711e8	-0.07007594686644547
74	0xbfbf9947c41e9d0b	-0.12343262231899048
75	0xbf9332ccf82c01e0	-0.01874847664567081
76	0xbfbd6ad2f280b15d	-0.11491125507808904
77	0x3fa318bcd012b3a4	0.037298107528250385
78	0x3f6472edf8d7f5d9	0.0024962089435109744
79	0xbf83036dd848dcc6	-0.009283884203894376
80	0xbfa7635e2c5d4b6f	-0.045679991641597854
81	0x3f98761e57be1919	0.023888086419469354
82	0xbfd0a78dd666fd80	-0.2602266877911106
83	0xbf905c2522e59e49	-0.0159765055226713
84	0xbfd5c30495ad585f	-0.3400279485407562
85	0x3fb8a0b57d0034a3	0.0962022237947218
86	0xbfc6b72f620ff06f	-0.17746536529728327
87	0xbfae51c7f5a0944b	-0.059217690213963246
88	0xbfa651f736a73e17	-0.04359409849314149
89	0x3fc13b95bacf3c56	0.13463088628347702
90	0x3fc5948cefe837fd	0.16859590257848814
91	0xbfad3ec2b4c6c327	-0.05711945015662528
92	0xbfc95ff82aebd3b5	-0.19824125381242444
93	0x3f7586b7347ebecb	0.005255427975427283
94	0x3fba086b4e4aa9ee	0.10169096623818749
95	0xbfd152ce7d7476be	-0.2706791138788097
96	0xbf95ca79c257d08e	-0.021280195700413666
97	0xbfb7713e6d761b76	-0.09157171413799667
98	0x3f6fb76d21d9652b	0.003871644162057782
99	0x3fb93bf3db6a0563	0.09857105356970446
100	0x3faa5a356545efc3	0.05146948682065002
101	0xbfa8a82d5d72f91f	-0.0481580902646661
102	0x3f7800601793613e	0.005859732970940277
103	0xbfb7e053eb55c2f7	-0.09326672072871732
104	0x3f98b801a0085285	0.02413942851315422
105	0xbf8c6bea245bb737	-0.01387770579773538
106	0x3f61adb4176296a4	0.0021580235871450793
107	0xbfb5684a4973b16a	-0.08362259190807256
108	0xbfb45789a35a3067	-0.07946071851819313
109	0xbfbf112d8f6246dd	-0.12135586500724167
110	0xbfc6538f2760d01e	-0.1744250242496727
111	0xbfce6117ca2f30cf	-0.237338041041204
112	0xbfbeb10a39669eb1	-0.11988891507518919
113	0xbfaa171788f1f6ee	-0.05095742747015018
114	0xbfaa4a17b562f9d4	-0.05134653176490969
115	0xbfc7ee11479fc62a	-0.18695274350425112
116	0xbfa3992449423fe7	-0.03827775377533254
117	0xbfba27b5ef36ec32	-0.10216843691061753
118	0xbfb36792f5269256	-0.07579916463016309
119	0xbfdbf17ed5c66e75	-0.4366147124908147
120	0xbfca0a2e77158287	-0.20343571486138876
121	0xbfc39b94c7dd1f05	-0.15318546065304176
122	0xbfb221b634f0c39e	-0.07082690041057879
123	0xbfca061fb3dfb41b	-0.20331188471701087
124	0xbf81281b7eed268a	-0.00837728005503215
125	0xbfc08d177be443ec	-0.1293057780208352
126	0xbfb089bd167c7f15	-0.06460172461492804
127	0xbfd5578a86fca0f4	-0.33346808607394895
128	0xbfb9eda2eead78d0	-0.1012822945317311
129	0x3f7e3bcc6c1b0c07	0.0073812470670331426
130	0xbfaf7a0cb195ab70	-0.061478039434255005
131	0xbfaa2950396f2833	-0.051096446047793974
132	0xbfb32968e5c06670	-0.07485061272782345
133	0xbfbc388af8f4d0d2	-0.11023777559313722
134	0xbfe04466683837ff	-0.5083496127642774
135	0x3f8a6d0399979879	0.012903240322838837
136	0x3f9df11d38d256b0	0.029240089982144724
137	0x3fadb254c8c92424	0.05800118399617585
138	0x3fba5f097a7651ce	0.10301264991569001
139	0xbfb1d9220fcca4e9	-0.06971943746306732
140	0xbfc547f65ff3332f	-0.1662586182123049
141	0xbf96707cf1ddef3a	-0.021913482916246375
142	0x3f878f43b7e3dbb7	0.01150372414529764
143	0xbfad9b0c39838979	-0.05782354547570185
144	0xbfd7de65b1bb31e5	-0.37294905048909605
145	0xbfc6f9251d2648c8	-0.17947830127065445
146	0xbf91a758f5d55fa2	-0.01723994255493689
147	0xbfb5ed95f18638b0	-0.08565652033414284
148	0x3fbf3b541fb213d0	0.12199903272455903
149	0xbfa8dcc1ddcc8bca	-0.048559244465898724
150	0xbfc1fd736bdc5281	-0.14054720656044498
151	0xbfc8c3f8362e1e7c	-0.19348051686778323
152	0xbfc36823bf30bfc1	-0.15161558948011414
153	0xbfcc391bf61ca349	-0.22049283520871146
154	0xbfd85f6318e61e53	-0.3808219664719889
155	0x3fce7df17dfde326	0.23821848537388596
156	0xbfd56c716d9a92c1	-0.33474384025093334
157	0xbfbbca80463ad2e0	-0.10855867113680118
158	0x3f94522702c3bd34	0.019844636481989045
159	0x3fbdc31fa3b75c03	0.11625859972933487
160	0xbf81d7233e1336f4	-0.008711123782997522
161	0xbfc2ea5de0e6846f	-0.14777730447261514
162	0xbfba03102e3a39ec	-0.10160924080466999
163	0xbfc5c21269f9fe49	-0.16998510527263225
164	0xbfb6e988f6c0fa91	-0.08950096153510347
165	0xbf981b48fd2ce713	-0.02354158444652572
166	0xbfc61e53840ebe17	-0.17280048320888916
167	0x3fb2566f06f3e759	0.07163137359375805
168	0x3f91192603e89461	0.016697496403271454
169	0x3faac03872b9e9b4	0.0522477760359438
170	0xbf86b123c4275afd	-0.011080054687153668
171	0xbfca25cb69cb10c1	-0.20427839914021287
172	0xbf98089eb82e1dfa	-0.02347038268228905
173	0xbfb89c28fb1105c1	-0.09613281373551442
174	0xbfc47927722512a4	-0.1599473292682393
175	0xbfd14126809c7e97	-0.26960146484086905
176	0xbfc320e1d8537c72	-0.14944098532484734
177	0xbfeae1c05c2291ec	-0.8400575446617586
178	0xbfc1f037aeb7b801	-0.14014335662017177
179	0xbfde552bdb38edde	-0.4739484444469023
180	0xbfc25d90a6f62083	-0.1434803786507964
181	0xbfe08bc821401aa8	-0.5170632028028495
182	0xbfc59b98f21267c5	-0.16881095714489738
183	0x3fa79ea30f31fa56	0.04613217888344383
184	0x3fb64d15ef17b724	0.08711373412344564
185	0xbf663699af07e557	-0.0027115823397677974
186	0xbfa8bd1dba816bbc	-0.048317841545859136
187	0xbfb6abfe1b30b764	-0.08856189884019511
188	0x3fab2c01743a985a	0.0530701116925207
189	0xbf9d54c26d0bf9ff	-0.028643644242942298
190	0x3fa1ebfa0e3c308e	0.03500348495262627
191	0x3fa28254c74901f5	0.03615059788399214
192	0xbfcc8524bf30e80e	-0.22281321845531504
193	0xbfe6d88bf0c49471	-0.7139339163301327
194	0xbfb729d0aadb675b	-0.09048179789843173
195	0xbf932cce915a6106	-0.01872561227955407
196	0x3fba0b5ee88c2adb	0.10173600366048723
197	0x3f6886bdbb3a4548	0.002993937081392648
198	0xbfdd786509e1982e	-0.46047330822910026
199	0xbfc0a48fc71d2ac3	-0.13002202246055647
200	0xbfb71c08525fc42a	-0.0902714921101199
201	0xbf7d55aa4d16a123	-0.007161774863029077
202	0xbfa20c22916c10a2	-0.035248832942700106
203	0xbf9daf56ed1aa359	-0.02898917982261948
204	0xbfa6e372c037e279	-0.04470404240050114
205	0xbfbcfb8a7e68049b	-0.11321321092693142
206	0x3f76c3c635d405e2	0.005557798632481932
207	0x3f85ec36762ee57f	0.010704446298279489
208	0x3fb6adecf579dd00	0.0885913943583212
209	0x3fb9a62e13e08a18	0.10019195542603432
210	0xbfc6f1c93dc0ca00	-0.1792537261513445
211	0x3f9db83234368dff	0.029022964894137356
212	0x3fc84d22fe09735f	0.18985402492662737
213	0xbfa6706bb05533ba	-0.043826451563837535
214	0xbfc63fbf1a089e85	-0.17382038851905093
215	0x3f975cb8d91b0c66	0.022814644099309687
216	0xbfb6143ecd99fdf4	-0.08624641913956294
217	0x3f91282b58fd69d5	0.016754796320450033
218	0xbfce882b68b70322	-0.23853056538612188
219	0x3f867be76ef60ded	0.010978515695348324
220	0xbfdea980a77102d5	-0.4790956149263768
221	0xbfbdf232a20a142c	-0.11697689491309465
222	0x3f9bb2004c46ef92	0.027046208053192418
223	0xbfa0e0f5cf1dc978	-0.03296631005550216
224	0xbfd2c372f3f3757f	-0.2931792623838518
225	0xbfc2f31f7efec93d	-0.14804452610912647
226	0xbfc158cee1cc03f4	-0.13552270913353903
227	0xbfcb909385f35d42	-0.21534961739119224
228	0xbfd6cb71f25abd68	-0.35616730372836125
229	0xbf8150a893de2298	-0.008454625141682201
230	0x3f98d94d4c6e2e1c	0.02426644114488684
231	0xbfad934e24321a14	-0.05776447479097527
232	0xbf95a3508e8496ec	-0.021130808542827603
233	0xbfc1a20fcf4b8740	-0.13775823232486495
234	0xbfc5ff2874aaf2fc	-0.17184930512112107
235	0xbfb18d515158b78e	-0.0685625861740091
236	0xbf9c9a3e0721c3a3	-0.027932137666030987
237	0xbfa5d1b890ba9cec	-0.042615668933018686
238	0xbfd094d3f2482379	-0.25908373508769206
239	0xbfc41df393209864	-0.15716404613448554
240	0xbfc8317e8f355df3	-0.18901044838524647
241	0xbfd3c04277c9819e	-0.3086095971866828
242	0x3f999aa6e893eb30	0.02500401300947458
243	0xbfb0f71c31aab1d3	-0.06627060139243861
244	0x3fac96f7ba549d86	0.055839292045045716
245	0xbfe1314e26f725f5	-0.5372687111895958
246	0xbf8413bbe4989b9a	-0.009803264535617907
247	0xbfc29b10ea2aeb02	-0.14535724100081643
248	0xbfd84f281ce12fc5	-0.37983134098317023
249	0xbfc2e4a9e0a6af53	-0.14760325879376043
250	0x3fae864f967e1955	0.05961846077029757
251	0xbfb946d4f8cd0030	-0.09873705934751409
252	0xbfb0cc866ae6a3ba	-0.06562080488096358
253	0xbfadf96aa18c2ddc	-0.05854352209106725
254	0xbf8fe03455929af7	-0.015564354764433725
255	0x3f9072bcb020feff	0.016062687158636454
