model_chkpt/ntk_network.pt (torch, 196407 bytes, 7 tensors)

layers.0.weight f8 [150, 8]
0	0xbfc9961de77dec1e	-0.19989370158495573
1	0xbfc72ea8a6a67291	-0.1811114133569345
2	0xbfdd811227b51f84	-0.46100286367117627
3	0xbfe7af2e5a0098cf	-0.7401344068391839
4	0xbfc0f5c3da2522a5	-0.1325001540337968
5	0x3fc0f8bcb831c2bc	0.13259085649362656
6	0x3fb7bfc143fe50b5	0.09276969823833066
7	0xbfb6c95a57c5e5f9	-0.08900990145584577
8	0x3fd3f3ea4788a514	0.3117623995372736
9	0xbf59aab797a11ba8	-0.001566581048352703
10	0x3fdc2d694ba86346	0.44027168644383996
11	0xbf95d148f9f79c39	-0.0213061716621292
12	0xbfcab2c955e7ac28	-0.20858112997606892
13	0xbfc769ccd608d6d9	-0.18291626406578734
14	0x3fd5ba8f228c2db8	0.3395116650942458
15	0xbfd1c9bdfa39266b	-0.2779383605562546
16	0xbfa121d3732ed682	-0.033461196718616484
17	0x3fdcde99f0bee783	0.4510865069420264
18	0xbfd7115ed3c3cd7b	-0.3604352062240747
19	0xbfd09344892626b9	-0.2589885081621151
20	0xbff1b8b72d803ee6	-1.1075965669041863
21	0xbfec040563d0c950	-0.8754908513567816
22	0x3fc69adb2e8dbe9c	0.1766008355439127
23	0xbf9b18c01c3d50fa	-0.02646160290108044
24	0xbfc247f96600bd4e	-0.14282147865876954
25	0xbf9c3ca2cb5c7983	-0.02757505766123237
26	0x3fb395db447f81ae	0.07650537893596862
27	0xbfc1eba18c13f010	-0.14000338878383944
28	0xbfc2d3090f2b2c9b	-0.14706528893143375
29	0x3fa36a65558fe9c7	0.037921110815620156
30	0xbfc5d33f56358c22	-0.17050925931388955
31	0x3fc236e93f27f5de	0.142300754392564
32	0xbfc0ef57155d7631	-0.13230408232895877
33	0xbfd6614a2bcf6c86	-0.34968809393257805
34	0xbfd9032876e3bf5c	-0.39081775293651844
35	0xbfb78621ccc6fe1d	-0.09189044236608664
36	0xbfc0d43a08828f91	-0.13147664466407297
37	0x3f9bf11c6e4cd199	0.027286953193838313
38	0x3fdd0ca32014ec9b	0.4538963139818379
39	0xbfab96c88d73eca1	-0.0538847611114417
40	0x3fc5e43dc41c01b7	0.1710278708997188
41	0x3fdadf78f552206e	0.4198896785460481
42	0xbfda0b27c5fcec6b	-0.4069308694340125
43	0xbfdbf88cbe89e0e9	-0.43704527480396266
44	0x3f7e0336f87d8516	0.007327284554635291
45	0xbfe1cd1d5a0e3a0c	-0.5562884100816645
46	0x3fe47256bc1eec91	0.6389573740228959
47	0x3fc81e25ac375a66	0.18842001828189153
48	0xbfaf3f152ef2650d	-0.06102815816957206
49	0x3fc0455547da615f	0.12711587913941977
50	0xbfbf42bc76f6ce4f	-0.12211206344982738
51	0x3fb5edbfbfc2ba08	0.08565901214272043
52	0xbfd16063c76838e8	-0.2715081641516819
53	0x3fcb83a83813fbbb	0.21495535600840107
54	0x3fdfcaad3f6841cb	0.49674540702929154
55	0xbfb031bd2c1d1f6a	-0.06325895621296032
56	0x3fcec064fa80661d	0.2402464125778331
57	0x3fe475aded429749	0.6393651613222825
58	0x3fe06f1f1effa497	0.5135646443788059
59	0xbfa5fd0e9ee5dd68	-0.042946297547070966
60	0xbfc1f642bf8d8adf	-0.14032778123063047
61	0x3fa34bec6dee5d27	0.03768862573559267
62	0xbfc6bbbcf94c0d4c	-0.17760431454380876
63	0x3fd41c10c9927c31	0.3142129868010129
64	0x3fbd449994b4f3d1	0.11432800179041115
65	0x3f95ccc4a642b063	0.02128894104741653
66	0xbfa4a2a0bf5725ee	-0.040303252560601396
67	0x3f9427cae69f9308	0.019683046651965547
68	0xbf9fbfd1cc76cbe2	-0.031005170921797894
69	0xbf9af5bde180f1ac	-0.026328055275585946
70	0xbf950e45ab06273c	-0.02056225639675023
71	0xbfb2a4cb587e080d	-0.07282706175286098
72	0xbfc3e0c6798d57a4	-0.15529709754144705
73	0x3fa3486d7e146858	0.03766195453700111
74	0x3fba955eb9921099	0.10384170561343566
75	0xbfdc80025172b93a	-0.44531305269164856
76	0xbfc67c50b640edfc	-0.17566880129912466
77	0x3fc4f90c7ad6dd2f	0.163850364666112
78	0x3fde2b4ae3e91ab2	0.4713923669518564
79	0x3fc01bab64d5315e	0.12584440635181243
80	0x3fd936336a4af824	0.3939331567779638
81	0x3fa4b672e3693d65	0.04045447374357528
82	0xbfc6d47368613c1f	-0.17835848423644138
83	0xbfe167ec9350d3e3	-0.5439360501537717
84	0xbfcd47666b6ec6bf	-0.22874145742166793
85	0x3fc4bb50c37a1046	0.16196641487852242
86	0x3fa20e5e3b6bfb3e	0.035265869859350193
87	0x3fc4e9fd5eba77ff	0.163390799764727
88	0x3fb2abbb47880320	0.07293291565293858
89	0x3fb3f2b1de3cdb76	0.0779219787190025
90	0xbfae81b89df42dd6	-0.05958344391009589
91	0xbfb253e750475e77	-0.07159276685649184
92	0xbf8a1fcf15703582	-0.012755983201737878
93	0xbfb7e8bf45734dc5	-0.0933951897198347
94	0xbfa947d9f0683420	-0.049376307102740435
95	0x3f9c78677fb0acd2	0.027803055924022164
96	0xbfa203919e783639	-0.035183477968626815
97	0xbfe51f4980fcb896	-0.6600692290574155
98	0x3fcef6e90cf258ae	0.24191010601197632
99	0x3fe51efa3695922c	0.660031420335661
100	0x3fdaa36d0bf1381d	0.4162247292159707
101	0x3fc6f547e2d57ab6	0.1793603761279507
102	0xbfe773010028821d	-0.7327885630693945
103	0xbfaf268f2e2c13a1	-0.060841059099437496
104	0x3fda9a3d22a94754	0.4156639898766248
105	0xbf9901f73248d2c6	-0.02442156071102166
106	0xbfc743075ca83aac	-0.1817330553462474
107	0xbfc78e093d3197f1	-0.18402209747290457
108	0xbf9240aee2c6cf98	-0.017824871627183464
109	0xbfe17b3c1b29a6c3	-0.5462933092614651
110	0xbfe21b8c41c556c3	-0.5658627781474127
111	0x3fd413b3218d2024	0.3137023761414659
112	0x3fd11fcfbd7bc1e5	0.2675666189598174
113	0xbfc5c71d50d757f4	-0.17013899276088262
114	0x3fc0d0ca4a371773	0.13137177108563555
115	0xbfbc89d2c218a322	-0.11147801626851764
116	0xbfa01ae776896941	-0.03145526239377939
117	0x3fc13788ce6776c7	0.13450727537467896
118	0x3fcf3506e3e19558	0.2438057530118083
119	0x3fb3c86016859128	0.07727623510215109
120	0xbfae30df017c8857	-0.05896660702843864
121	0x3f9f47e640cb997c	0.030547712044517436
122	0x3f70fe8aa87d4c03	0.004148999818272439
123	0xbfb49f02e9a8a4a3	-0.08055132107314704
124	0x3f6a29f601508341	0.0031938366687573054
125	0xbf3d0d98dc082243	-0.00044331533357014704
126	0x3f94306f077d9276	0.019716009933647936
127	0x3fa6e1c033dbc19f	0.04469109185254471
128	0xbfdab8f840e5b60c	-0.41753965699794615
129	0xbf956a6d7e884a81	-0.020913802001880647
130	0x3f71d931a0709152	0.004357522825589948
131	0x3fd6bd960483d991	0.35532141152307256
132	0xbfb5b2c5f932739f	-0.08475911458886153
133	0xbfa88b7a0cb1de9d	-0.04793912320104463
134	0xbfb8d03347ad82ef	-0.096926884650667
135	0xbf994fa02d7c61ca	-0.02471781041740132
136	0xbfd2b16d41251d25	-0.2920792709523588
137	0xbfc2ea2cd6c6bf58	-0.1477714585030252
138	0xbfb4136723168ba7	-0.07842106444017692
139	0x3fcee1a24e1ef03e	0.24126080336088934
140	0xbfc9787d17a28b56	-0.19898952154206978
141	0xbfc9241ef0f24b34	-0.19641482129062526
142	0x3fd2468373359342	0.2855538010683639
143	0xbfd56d6087ba930f	-0.3348008466221452
144	0xbfb6c0c2ee2b15c9	-0.08887880625396528
145	0x3facbb55bde812e6	0.056116752082777485
146	0x3fba2eea85ff4c33	0.10227838298241991
147	0x3fb1c2eb5478a9a8	0.06938048183716339
148	0xbfb3fa7f115fda01	-0.07804102110080892
149	0xbfadccce1190f3db	-0.05820316280776413
150	0x3f9d1fc4755a6bd0	0.028441495573684084
151	0xbfcc7afa3d4b4107	-0.22250297539586247
152	0x3fb8bc2fb9da3f22	0.09662149703421766
153	0x3fd4950ee94a787c	0.3215977934104399
154	0x3fcb0a423fd29a0f	0.21125057331410388
155	0xbfa117400f09cf8e	-0.03338051017354281
156	0x3fe77b3ba4c1bfea	0.7337930887133528
157	0x3fe8f8804d2a3b8b	0.780334616387209
158	0xbfd049fa20485a3c	-0.25451520111656456
159	0x3fb96a76e16894a5	0.09928076747071886
160	0x3f93be863e91adb1	0.019281480378067154
161	0x3fbcdd380ba9cb4a	0.11275053295848383
162	0xbfc8cd2d9ea88796	-0.1937615418146918
163	0x3fc35dbc267d0c39	0.15129806403465
164	0x3fb5c33daabb765c	0.08501038950222423
165	0xbfa0e2042e829f92	-0.032974367787857464
166	0x3fb6d95d9f89c359	0.08925423760389374
167	0xbfa85db204414ccb	-0.04758983900014754
168	0xbf90d433d3708bab	-0.01643448808693974
169	0x3f9ce8e3313fac09	0.028232145195868728
170	0xbfb4899c1d06c873	-0.08022475918440523
171	0xbfbba06c31ee9e16	-0.10791660517735865
172	0x3fd79565f2fc9347	0.3684935448566659
173	0xbfb0ae7f1b844180	-0.06516260549347486
174	0x3fe3661cc27d01f3	0.6062148855781387
175	0xbf74f7ff56fc914b	-0.005119321270999964
176	0x3fa36c032a4336e4	0.03793344393635126
177	0xbfb5f6a706b35a34	-0.08579486764515637
178	0x3faf01a494b112d5	0.060559409285394196
179	0xbf851a5c447dece0	-0.010304184761244561
180	0x3fc5b91cb3f4e513	0.16971167361206393
181	0xbfabd1230da3d18b	-0.054329963126210044
182	0xbfb61183267e2192	-0.08620471658480813
183	0x3fc124ad383d22e9	0.13393178220783078
184	0x3fb35c63213bebeb	0.07562846719149234
185	0x3fb21cb2591aeda7	0.07075037646693848
186	0xbfaa279fd0615f15	-0.051083559214644726
187	0x3fa65b43ac889b60	0.04366504174350072
188	0xbfca49d429ad5b4e	-0.20537807497995647
189	0x3fad395398a38918	0.05707799185053569
190	0x3fb411502098b56c	0.07838917537511286
191	0x3fb06278b0d43419	0.0640025550566893
192	0x3fa9c7a90a99f7df	0.05035141233837214
193	0xbfbf752a03b59bd3	-0.12288153257905714
194	0x3f9eba4fb552a76c	0.03000759643752053
195	0x3fa20dfd9006aae5	0.035262988883308734
196	0xbfb5e7707cacfd3f	-0.08556273502198496
197	0x3fbcf62b65bf6ff4	0.11313124879910658
198	0x3f77c7a99dd71e5f	0.0058056474349040535
199	0xbf6c57280b06bb06	-0.003459528168796469
200	0xbfcd56ca061df796	-0.22921109484371688
201	0x3fbce7faadee9865	0.11291472193133385
202	0xbfc6d336ac1681b7	-0.1783207264206916
203	0x3fceea4080baf920	0.2415238026205282
204	0x3fb86e7e8d178d25	0.09543600983265728
205	0xbfca77c3d163f582	-0.20677993511337084
206	0xbfd528c8583212b4	-0.3306141721043716
207	0xbfdfe9850f20545f	-0.49862791516472343
208	0x3fdd2006af6cfae1	0.4550797188893921
209	0x3fc0269d3617be2f	0.12617840901610708
210	0x3fb0905742bfd073	0.06470246677037199
211	0x3fc3de4cca74f111	0.15522155652605155
212	0x3fd43ce4e5b00998	0.31621668272432535
213	0x3fcbd5589de447a5	0.21744830808216623
214	0x3fe150a442587f89	0.5410939498724342
215	0xbff90d8c5f5e288a	-1.5658076978020596
216	0x3fcdcf58afe62f81	0.23289021099878585
217	0x3fbeb8694be8ae9f	0.12000139334912284
218	0x3fb2193f59f02bf8	0.07069774575954557
219	0xbfc11dc2ee550e89	-0.1337207473499016
220	0x3fa81c3e4a7952f7	0.04709047946076866
221	0xbfbd1dca4e85b180	-0.11373581330344074
222	0xbfc0aaa65decdcc2	-0.13020782076066523
223	0xbfbc6eab1859b90d	-0.1110636648606695
224	0xbfe1cc42a1b0ecc6	-0.5561841161756085
225	0xbfcb60c946416d33	-0.21389118128250004
226	0xbfd50502a61dcef0	-0.32843080732639773
227	0x3fcad7989c5f37e5	0.2097044719252487
228	0xbfb9b6e6d19ffbb7	-0.10044710748478179
229	0xbfd08f89b9c61878	-0.25876086370443074
230	0xbfc378fecee4d05c	-0.15212998487698115
231	0xbff5da5a21559341	-1.3658086111183396
232	0x3fc431bcab285601	0.15776785237601135
233	0x3fe428056217bc5a	0.6298853793977159
234	0x3fd7c4864dc63fbf	0.37136991114766355
235	0xbfa4259aa93e9b20	-0.03934939685796324
236	0xbfea1a073892591a	-0.815677271358058
237	0xbfc98a5aa049a6e4	-0.1995347292570876
238	0xbfaff23dc01d3cc1	-0.062395028783265534
239	0xbfad5c2f91872bed	-0.05734394694771781
240	0xbf588a6ef03e6d5a	-0.0014978488334012803
241	0x3fe14da9ff69667b	0.5407304752836376
242	0x3fa84823df02790b	0.04742538544927485
243	0xbfd77c534bbe06ae	-0.3669632186575694
244	0x3f7b0be0b89bf8fd	0.006603124443925743
245	0x3fd190cedc9405a5	0.2744633821567624
246	0x3fcdbd22d1262b72	0.23233447277410907
247	0x3faf5bb8c67d2ddd	0.061246656636821696
248	0xbfb42ea99ff5184b	-0.07883701472482689
249	0xbfbe74319ebdf100	-0.1189604771188364
250	0xbfc4935fd94210f0	-0.16074751003555532
251	0x3faadf42cc7837b7	0.05248459573714064
252	0xbfc120d2f9e517f9	-0.1338142128171851
253	0xbf4b38d1b0d31593	-0.0008307479744408701
254	0xbfb83d233152229a	-0.09468288377878267
255	0xbfc52428fd445dbc	-0.16516601912074502

layers.0.bias f8 [150]
0	0xbfe6546833c0aed1	-0.6978035937113082
1	0xbfdd7ac3bc8e02a0	-0.4606179562906991
2	0xbfd921c6621d6ba8	-0.3926864584115557
3	0xbffc7d57627e232a	-1.7806009147045168
4	0x3fdbee4afb87244c	0.4364192444159627
5	0x3fa1a64f65b448d7	0.034471970715587545
6	0x3fd174de93c6f9a9	0.2727581446778467
7	0xbff48c45fc0613b5	-1.284246429889419
8	0xbffc403f826d1955	-1.7656855673572711
9	0x3fe7d925c2acd18a	0.7452572633979326
10	0xbfeca9fc30af546e	-0.8957501364590266
11	0xbfe3f27d6cdada5a	-0.6233508230278162
12	0xbfe1c24e11e3b837	-0.5549688672451855
13	0xbfe22397e46fcfec	-0.5668448888450235
14	0xbffb7527bfd48412	-1.7161023610463002
15	0xbff56515c8c59009	-1.337178978218619
16	0x3fe6f56b877bc2ae	0.7174585004959988
17	0x3fed8e4e7f17fa6a	0.923621414403738
18	0xbfed8582dacfe15b	-0.9225477479622372
19	0xbfdf9de187e8ebef	-0.4940112902874593
20	0xbff8ce95854e244e	-1.5504355628238673
21	0x3fdb35e9c5eeb5db	0.42516559914915114
22	0xbff69c6fd6d24e28	-1.4131925956215898
23	0xbff2737f4a084618	-1.1531975643050654
24	0xbfe62e329bf02949	-0.6931393666903115
25	0xbffcfb6763fc3a16	-1.8113778978037138
26	0xbfe0879ff305cbf6	-0.5165557619606023
27	0xbff9c7426948701c	-1.6111473190894747
28	0x3fd21cdb42262e9e	0.28301125965001883
29	0xbfefff66023dfab7	-0.9999265712538862
30	0x3ff31eef6e7ebb40	1.1950525585377392
31	0xbfec153c0ec72eb0	-0.8775921143182668
32	0xbfe15fa7a75cba6b	-0.5429266232293463
33	0x3fbd285ced5708d0	0.11389714044983923
34	0x3fc88bf87dbb2f79	0.19177156581133284
35	0x3fdf2280306ec69d	0.4864807579971087
36	0xbff0781630450ab2	-1.0293180356535854
37	0xbfef08d66753a667	-0.9698287981129398
38	0x3fd3e805869dc4b8	0.3110364737140787
39	0x40008a2ce5835fed	2.0674684458463077
40	0xbfb3791466065f0d	-0.07606627932397832
41	0xbfe7a3c3a3f8b01a	-0.7387407496039515
42	0x3fea98399ad10ee8	0.8310821555864694
43	0xbff3d6364f5a9696	-1.2397978877792517
44	0xbfbe761b6f3e556c	-0.11898967233567753
45	0xbfe51d8fa9cbea52	-0.6598585430468324
46	0xbff88e883ee56d53	-1.5347979027636327
47	0x3fd06501948cd9eb	0.256164927547984
48	0x3fce3dbcfb042f11	0.23625910050065405
49	0x3fcc6b2f1468de7a	0.22202099319996532
50	0xbfe9e7f49bc99b4a	-0.8095648806309808
51	0xbfb50840d963584a	-0.08215718562436894
52	0x3fd48843becbf92f	0.3208169329881398
53	0xbff566c0668c5fdf	-1.3375858312410782
54	0x3fee0ac13ae542bd	0.938812842398043
55	0xbff9986e7dff686a	-1.5997147485527656
56	0xbff3bc2073e6ec8d	-1.2334293868468962
57	0xbfc36b3f7ffc1dd5	-0.1517104506421975
58	0xbfdfacbac3808477	-0.49491757480615867
59	0xbff8bdf4cce0641c	-1.5463760378827436
60	0xbfec353ab942ecaf	-0.8814977281939685
61	0xbfc9a5bdeac18722	-0.20037054026311646
62	0x3fefd7bd395a0200	0.9950853462360669
63	0xbfc617b9690942cb	-0.17259900692672256
64	0xbfdb660170c0bd56	-0.42810092936539
65	0xbfb534839fc61c1a	-0.0828325524399677
66	0xbfec2e77e9b8d6a8	-0.880672413338023
67	0x3fc550c12a0d7a99	0.16652693322517534
68	0x3ff1e6b7e7eafc7e	1.118827730111462
69	0xbfe9bb340f0d568c	-0.8041019720064511
70	0xc0012f3ce1be79d5	-2.1480653415921815
71	0xbff3be02e85de7c8	-1.2338894917324854
72	0xbfe5e356866553c4	-0.684001219264808
73	0xbfc08411773253d1	-0.12903040237566057
74	0xbffd230d9634e127	-1.821057879204156
75	0x4005f2c40eb608cd	2.7435380124380573
76	0xbfe25b3e9dcc922e	-0.573638256265047
77	0xbff30763f969739f	-1.189304327264132
78	0x3fc3438df465e28f	0.1504991000508835
79	0xbfe18b3c71df4a82	-0.5482465957705502
80	0xbfcbb2737511a419	-0.21638339248900776
81	0xbff07c0a754a5e91	-1.0302834111843462
82	0x3fd45b08a20f0d5b	0.3180562574963994
83	0xbfe1998de1b00c83	-0.5499944122278894
84	0xbfeeb6bc6bc044f1	-0.9598066429627164
85	0xbff531fb690da4b6	-1.324702654232437
86	0xbfef0925b5092098	-0.9698666129925355
87	0x4003bde84337a016	2.467728161940623
88	0xbff4612ae8c9e3f4	-1.273722562151531
89	0xbff36f42025c19a8	-1.214662560670698
90	0xc00195c2bb6435c4	-2.1981253280598327
91	0xbfe27912ec5b3fdb	-0.5772795311295299
92	0x3fe12a3e5afe7bc5	0.536406686518483
93	0x3fc610654dc60ce9	0.17237535760441539
94	0xbfd7dc0a028f2be0	-0.37280512094429064
95	0xbfbfcf3b1de56362	-0.12425584297069528
96	0x3ffb2ec8afe6bc9e	1.6989218588967456
97	0xbfe4bbb5518db3ef	-0.6479136078684159
98	0x3fcb6b587941cecb	0.2142134277415749
99	0xbfc92f8d1b734ebc	-0.19676364746429964
100	0xbfe666bbaa45823f	-0.7000406575790022
101	0xbfe7013c24f4634b	-0.7189007493753733
102	0xbffa4ad6654cca1e	-1.6432708699254657
103	0xbfe11433df6c2af3	-0.5337161411019608
104	0xbfea78c8403e1587	-0.8272439245926514
105	0xbfe82aa18fa5d556	-0.7552039914723234
106	0xbfeed6f4e7327e6c	-0.963739825780022
107	0x3fe160551c5131d9	0.5430093339032808
108	0xbfaf6c386583f1c8	-0.06137253035737761
109	0xbff54e80c6212d30	-1.331665777152761
110	0xbfdd3cbd30785f6b	-0.4568322156278472
111	0x3f50bb117d4c389f	0.0010211630626062796
112	0xbff1f1af279ab6ff	-1.1215049311680898
113	0x3fecc88f67192d7f	0.8994824422492654
114	0x3feb7b6d567e8105	0.8588167847956646
115	0x3ffb4d452f28a4cc	1.7063648073329203
116	0xbfca2edf3b0843ef	-0.2045554197543704
117	0xbff901e6d23ef678	-1.562964268944965
118	0x3fe29a48ba170106	0.5813335070197645
119	0xbff5024709acc6a0	-1.3130560281682975
120	0x3ff369c51f218e72	1.2133227554376416
121	0x3ff6880fc2834bd3	1.408218154731675
122	0x3fd7cfb89c0bd730	0.3720532916917021
123	0xbfef9b4b57e1021f	-0.987706824911644
124	0xbff355ac025912b2	-1.2084159938541856
125	0x3fe25f32f3492a52	0.5741209747005291
126	0xbff29d6606b6b202	-1.1634273779155824
127	0xbff435d5e9d17f84	-1.2631434567956328
128	0xbff4d235475c865e	-1.3013203418307948
129	0x3fb54888a81d796b	0.0831380281865443
130	0x40005b1a419b2af9	2.044483673618171
131	0xbfe0bc42036a86bb	-0.5229806963654576
132	0xbfca05f8796a2822	-0.2033072083325474
133	0xbfb23e054cf75791	-0.07125886086518408
134	0x3fe1831d5386eef7	0.5472551947964054
135	0x3fe0a168ad062c54	0.5197032336594796
136	0x3ffb01033af8c8fb	1.687747221335086
137	0x3fa762195f443d2e	0.04567031181260926
138	0xbfe28de2d9d04e01	-0.5798200849698675
139	0xbfe3cbf528c03877	-0.6186471744456544
140	0x3ff26d6eff261216	1.1517171828028316
141	0x3ffdd6d2ab4ec88f	1.8649470035275362
142	0x3fc73a92a4e4d031	0.1814750008721844
143	0x3fce903518676512	0.23877586070629114
144	0xbfab4138ad817fe0	-0.0532319747733252
145	0x3ff50457c5763125	1.3135602677676357
146	0x3ff2513e9b1adcf8	1.1448350962435239
147	0xbfeb847d3cec3ec4	-0.8599229993723942
148	0xbffb2c2b1aa0417a	-1.6982832946851816
149	0x3ff0bf4b62bb3f01	1.0467027527519692

layers.2.weight f8 [150, 150]
0	0xbfb2e552326af5f7	-0.07381166201499655
1	0xbfb873b49a345224	-0.09551552548175174
2	0xbfc8d9d38f14a233	-0.19414753424031658
3	0x3fba7197b3fb261d	0.10329578537052737
4	0xbfa285233828d73f	-0.03617200909177009
5	0xbfb9327ff3098f99	-0.0984268158295535
6	0x3fade765bd899a00	0.05840604723634968
7	0xbfab50f9b9a380e9	-0.05335216895196188
8	0x3fa0526f329389b8	0.031878924297206124
9	0xbfbfb69bb41b9281	-0.12388013026390789
10	0x3fa5719745d2de38	0.04188225486126068
11	0xbfb0757c01a4627d	-0.06429266967860232
12	0xbfb8c01317914134	-0.09668082547546392
13	0xbfc2dd5e31b477a4	-0.14738061358451404
14	0xbfa25c53cb7d2261	-0.035860651578848
15	0xbfa110bce2f81694	-0.03333082457178907
16	0x3fb8b07ed7edd832	0.09644310733514841
17	0xbfb2178d438aae4a	-0.07067187212913342
18	0x3f8523fcea797be1	0.01032254782256631
19	0xbfbb813adaedcb98	-0.10744064183181334
20	0xbf9146324174d604	-0.016869340176716832
21	0xbfc309f1b2889f24	-0.1487409707781292
22	0xbfbac763e5db2a19	-0.10460495340081656
23	0x3fba614301ca6804	0.10304659646718056
24	0x3fa6ea1f2b5b5471	0.044754957239697364
25	0x3fd10b8c1584c559	0.26632978536061597
26	0xbfc36deb5f439e6d	-0.1517919745594897
27	0x3fc54e536199c5e8	0.16645281091363917
28	0xbfbdd23eda1ae41e	-0.11648934197263869
29	0xbfa8fad583ef8bc6	-0.04878871188682114
30	0xbfc1c12e7a5133f7	-0.13870793316382876
31	0x3fa03f34c58a4ebb	0.0317322245729463
32	0xbfad13b76b40c4fb	-0.05679104980698387
33	0xbfc32699dcfdc1aa	-0.14961550989711486
34	0x3fb4b37dafd8cd5b	0.08086381476532749
35	0xbf6e8d71b7cefab8	-0.0037295552305914546
36	0x3fc0179b4169dc14	0.12572041219729668
37	0xbf94df9c66f98f74	-0.020384258065305486
38	0xbfacde1a1d92b0b1	-0.05638200388907089
39	0xbf8b0dab37e09f92	-0.013209664957756027
40	0x3fb6dd7673359c17	0.08931675255517778
41	0xbf9dc2689619e2d1	-0.029061922227330342
42	0x3f53e8f4440eab6c	0.0012152085694007954
43	0xbfb3e6324a1faaa8	-0.07773126897488203
44	0xbfc053f4029032b5	-0.12756204724464273
45	0xbf95c81d4ac31511	-0.021271188438523107
46	0x3fc74d00ffbf4bc2	0.18203747260721853
47	0x3f9fedeca815e7f1	0.03118104720986276
48	0xbfb4f0bdc8f864bb	-0.08179842144490383
49	0xbfb4cc946e7f7f63	-0.08124664018350596
50	0x3fa0546dc8e33a6b	0.031894140980161044
51	0xbf85f21469ab54ce	-0.010715636706132872
52	0xbfb8fd6f3f4c6943	-0.09761710448620868
53	0x3fab608a37d5d4ec	0.05347091609557161
54	0xbf740312c6267a82	-0.004885743461641058
55	0xbf8d5fced01b8584	-0.014342895246445726
56	0xbfbcb27c7efa349e	-0.11209848499329886
57	0xbfbba3dc6f4ee886	-0.10796907155500621
58	0xbfc120ffad1b1ddb	-0.133819541477563
59	0xbfbf3064d3cb9419	-0.12183218165189692
60	0x3f703b19cbada08c	0.003962612880833782
61	0xbf9d6caeecfdc239	-0.02873490640144125
62	0xbfb11727238c0005	-0.0667595350059856
63	0x3f806448466f051b	0.008003773354973867
64	0xbfc2a00c1d8bc345	-0.14550925676987894
65	0xbf85c0bbbf0e6759	-0.010621516006540753
66	0x3fa92eb46f07bc2f	0.04918445449208552
67	0xbfb5366a99460d46	-0.08286157838852146
68	0x3fa0f4d338d3feb4	0.03311786717131096
69	0xbfb3a7f225e9ca73	-0.07678140092483847
70	0x3fac504f1f3c8fe4	0.05530020958238405
71	0xbfb16b6dc7d28fb6	-0.06804548386077056
72	0x3fa195321e907510	0.03434139845942685
73	0xbf7ce2a4db6041ff	-0.0070520820354578176
74	0xbfb1bfa31e2994b4	-0.06933040129077278
75	0x3f6ea388606bf2c9	0.0037400878530874132
76	0xbfa6fab47f8acbc5	-0.04488147789870526
77	0x3f8944551bebb690	0.012337365068982892
78	0xbf960a6338df4ea0	-0.021524000498017615
79	0x3fa17ce7b187dff9	0.03415607492564727
80	0xbfc7874a02a9c3c7	-0.18381619577442462
81	0x3fb15bd4bfdc196f	0.06780748066021201
82	0xbfb1bd392e8a62c2	-0.06929356943363543
83	0x3f62a500ce614163	0.0022759452577149493
84	0xbfa49bc48c471515	-0.040250913738001305
85	0x3f95c17d751d2cb0	0.02124591853434471
86	0x3f91f78b6b79a396	0.017545870241892546
87	0xbf817a2cde08e5c0	-0.008533812070811275
88	0x3f9465c097a76a06	0.019919404274199713
89	0x3fbd39588f39df29	0.1141562795327188
90	0x3f6dfa4cc626106a	0.0036593913548035777
91	0xbfb3ab65182166f5	-0.07683402861712436
92	0x3f960975561df5d6	0.021520455723921326
93	0x3fb05b3d6c0e1d7a	0.06389221084656596
94	0xbfc66435c2e6e615	-0.17493316666313832
95	0xbfc1667c0faa77b4	-0.13594008221565235
96	0x3fccc346adca6adf	0.22470935331224148
97	0x3f9c1ffd2b6f36d3	0.02746577813723301
98	0xbfc0fb29b818700a	-0.13266488541637528
99	0xbfab7e581cdf82ce	-0.05369830467657764
100	0xbfa64c1be0ff2eef	-0.0435494148401555
101	0x3fb34f48677545d8	0.07542850995857664
102	0xbfb4c411fe65f3f3	-0.08111679516692032
103	0x3f6eab163a81bfc1	0.0037436899329392486
104	0x3f6d5f55db8697f4	0.0035854985146270783
105	0xbfc590729103c047	-0.16847068863671863
106	0xbfbf764f5399e8fa	-0.12289901534123607
107	0x3fa2e1c1790cbba3	0.036878629709796294
108	0xbfba1e897e8f8710	-0.10202845897540791
109	0xbfa8143a317ec51a	-0.047029322187322545
110	0x3f7faadf96c0aa4d	0.0077313169422646546
111	0x3f9d91fe124dd20a	0.028877229563891084
112	0xbf89690cb997a912	-0.012407397664862905
113	0xbfaedcac5de49cfa	-0.060277353726911856
114	0x3fb3abed1cc3299f	0.07684213592725662
115	0xbfb80d6b3a9f23cb	-0.09395475560371762
116	0x3fa1e38cdabd8b5a	0.03493919534846297
117	0x3fc44b6c5063dd50	0.15855173039720194
118	0x3fad3ee30d1a87b8	0.05712041411358321
119	0xbfb261daeed4c233	-0.07180565195881954
120	0xbfaec3a539b624a4	-0.06008640603529017
121	0x3f8ef64267e3ac08	0.015118140025569118
122	0x3fac262e7e97c0d1	0.054978802636357245
123	0xbfb050815fc47764	-0.0637284144217723
124	0xbf98f990ca954b65	-0.024389517178245685
125	0x3fa0f89b2c471616	0.03314671435832055
126	0xbfc5650b9caf68c4	-0.16714615965503843
127	0xbf99583f8bc8c7f5	-0.024750702769047412
128	0x3f9ffb87b4396829	0.03123294866086482
129	0xbfb40d6e091c749f	-0.07832992289009376
130	0x3fc5bca4282f1281	0.1698193737230618
131	0x3fb2ec7640bc6617	0.07392062263934239
132	0xbfbef1a44d7479ac	-0.12087466135969888
133	0xbf5e1bfe8073b720	-0.0018377290123753956
134	0xbf996f014a23ea06	-0.02483751311317841
135	0x3fa1198b63cdc5f2	0.03339801400478483
136	0xbfb9709f19df1414	-0.09937471753717403
137	0xbfb94c9777049c8f	-0.09882494598115187
138	0xbf9ab090b72c02a8	-0.026064168147970662
139	0xbfaa1e519e871308	-0.05101256427909645
140	0x3fbd255bd31546cb	0.11385129836460377
141	0xbfa3b155347d4335	-0.03846231713999374
142	0x3fa59a8884e02e1a	0.04219462034242501
143	0xbfbccfbf8fea705c	-0.11254498733109258
144	0x3fb01e74e262e2d8	0.0629647305203308
145	0xbfb15818acbb3871	-0.06775049416612135
146	0xbfc21f8fc7a717b4	-0.1415881848208166
147	0x3fa8039269055fd9	0.04690225154871514
148	0xbfc0de11ea350e2c	-0.13177703796292073
149	0xbfc313c02e6f558e	-0.1490402437909037
150	0xbf85e3f4450ec215	-0.010688694341156194
151	0x3f9dd0b34ae015f7	0.02911644119742182
152	0xbfa68390e0d7d027	-0.0439725183931901
153	0xbfc04bc220f6e420	-0.12731196031180136
154	0xbf9acbef28de8e7b	-0.026168572301357145
155	0x3fb8ee28ad8ff648	0.09738401639330008
156	0x3fb22529bd6d5af5	0.07087956309019801
157	0x3fb67418c83136ae	0.08770899665361284
158	0xbfabba2738847057	-0.05415461125286985
159	0x3fa883a529bf3a73	0.047879372926776485
160	0x3f9191320d3133d6	0.01715543942946226
161	0x3fa0098f457dbfb4	0.03132293437272385
162	0x3fb7c65e86878318	0.09287062439353766
163	0x3fb5165a2482251c	0.0823723162776741
164	0xbfa23f3d89245b5a	-0.03563873576256667
165	0xbfa815284da068ed	-0.0470364184149775
166	0xbfab791ed9329368	-0.05365845109307693
167	0x3fc00121232d2927	0.12503446786497216
168	0xbfa356b8cee2ce31	-0.0377710106417023
169	0xbfc0145b4199f171	-0.12562123015585372
170	0xbfa77cdda4cbbfb1	-0.045874525419889685
171	0xbfa75764e2477545	-0.04558863889881563
172	0xbfa8f2f875c5d047	-0.048728718163062505
173	0xbfa3e6622516e4c5	-0.03886706068755922
174	0xbfbed8e5869239ac	-0.12049707923345093
175	0xbfa7fd248d0afcb3	-0.04685320111956894
176	0xbfbc76a4484adf14	-0.11118532910301965
177	0x3fa14adb7ffc8cf2	0.03377424180350798
178	0x3fa42d2eddbd499f	0.039407219474600234
179	0x3fb4828ff49c3f20	0.08011722299511037
180	0x3fa3a73dd382f037	0.03838532645156117
181	0x3fc785c220d605b2	0.18376947978326325
182	0x3fb380e69958e1bd	0.07618561977222434
183	0xbfb42d107ee6696d	-0.07881262872834834
184	0x3fb12dfcc351dae5	0.06710796135471815
185	0xbfb49c6f1024a385	-0.08051199096793311
186	0xbfb10590f204b572	-0.06649118336345852
187	0x3fa3c5d703aec77d	0.03861877365069597
188	0xbfbb9945669b285d	-0.10780748133689273
189	0xbfb6eea6502e6e17	-0.08957900483658708
190	0x3f9333713b53d499	0.018750924345074613
191	0x3fbfddbbbf766dbc	0.12447713302974867
192	0x3f7bf0221b1f8dbb	0.006820805765502975
193	0xbfb0b8f11f6ae297	-0.06532198922185227
194	0xbfc05323ce4c61de	-0.12753722737467305
195	0xbfcdb27df77119c9	-0.23200964529151083
196	0xbf9b8dcb4377351c	-0.026908088677193395
197	0xbfa35241d276a76f	-0.03773694700369289
198	0xbfa318c0126f2a08	-0.03729820466067585
199	0xbfaa8ce722365ba7	-0.051856253553686664
200	0x3fb2a3fff0d29879	0.07281493787249528
201	0x3fa9bfcf741ce50a	0.050291521953520116
202	0x3fc3932e8c9a8684	0.15292913308535472
203	0xbfb4375ccda66812	-0.07896976490738464
204	0x3faf340da136160c	0.060944009713278374
205	0x3fa05d8f2bb5a2fb	0.03196380051196531
206	0xbfa19b2b29fa60b8	-0.03438696753909326
207	0x3fba1a38ddfd5c54	0.10196261806173484
208	0xbfaa1ffd5366c4ac	-0.05102531092723814
209	0x3f98b1b9932128e6	0.024115466694902297
210	0x3fbc951e0e77a26a	0.11165035107809165
211	0xbfb147bf320de7b3	-0.06750102016476837
212	0xbfc1228d825a35eb	-0.13386696686613617
213	0xbfb84d8df03bddfa	-0.09493338694652911
214	0xbfb4836d5f963105	-0.08013042052897752
215	0x3f9ff06275956f44	0.031190432001820825
216	0xbfca6870b42907ff	-0.20631226345909678
217	0xbf700b47fca20674	-0.003917008589384364
218	0x3fae41772c54d75b	0.05909321228175087
219	0x3fb66240286432dd	0.08743668542974654
220	0xbfa4d4835538897e	-0.04068384566587023
221	0x3fbdd5e2180bed74	0.11654484831881523
222	0xbf6e9e83d536a62c	-0.003737695203842836
223	0x3fad6a58c6a0a813	0.057451986547974475
224	0x3fafa7ad7d60e45b	0.061826154284468436
225	0xbfca67043e52c4a0	-0.20626881640558725
226	0xbfa5f4d95e9c27f7	-0.04288367538363496
227	0x3faf0efe1c224833	0.06066125958854265
228	0xbf78ae8ca3d13f14	-0.006025838255552935
229	0x3fb1e2bf84414066	0.069866151608268
230	0x3f8b8d8e5526bdc3	0.013453590367901285
231	0x3fa164f7f5c13ceb	0.03397345423638306
232	0x3f822e0ecfba6aca	0.008876910890923812
233	0xbf9bb8815e1a2136	-0.027071019524130345
234	0x3f8ad92d1d664ca6	0.013109543285088354
235	0x3f7d5945231311a8	0.0071652126945917285
236	0x3f96bc112ef1918d	0.02220179413815653
237	0xbf49ab32ea4aba57	-0.000783347950877043
238	0x3fb98d77ec57ce97	0.09981488723843267
239	0x3fb1e43f1fc86c70	0.06988901639890499
240	0xbfc062aa6b3a902a	-0.1280110381677571
241	0x3fcdc751b0a650e7	0.23264523625824227
242	0x3f986b2cef83f2a0	0.02384634220014681
243	0xbfc75d86e179b1fb	-0.1825417138055768
244	0xbf975ef71e8bc03d	-0.02282320140778914
245	0xbf9c0bcb9703f49c	-0.027388745395900402
246	0x3fa46678f9cca96c	0.03984430360135857
247	0xbfc2d02465a70940	-0.1469769951200508
248	0xbfb3e4507674313f	-0.07770254985752433
249	0x3fbd328b34c7ca74	0.11405248678765095
250	0xbfc48870f5d60d49	-0.1604138565418032
251	0x3fb35078b62e59af	0.07544664809970557
252	0xbfa9a72816dee504	-0.05010342864211206
253	0xbf8ea18eac91833e	-0.014956583634729289
254	0x3fb9e7e15b1a2bd6	0.10119446252990313
255	0x3fbca31d496fe620	0.11186392825029445

layers.2.bias f8 [150]
0	0xbfff58086b88a1fa	-1.958992404988861
1	0xbff1b6c8ffffd75d	-1.1071252822852877
2	0x40003b3cf3919ba7	2.028924849396805
3	0x3fdcb85ff93439d5	0.44875335060433247
4	0xbfef1a2fbd03e84c	-0.9719465915397989
5	0x3ff2b3f98965fea1	1.1689391486287735
6	0xbfcba8562046c024	-0.21607472015375706
7	0xbfecb7df2bbdf382	-0.8974452833495976
8	0xbfb70046dc5ebbf1	-0.08984797363403609
9	0xbff72d2e920bca46	-1.4485307412075072
10	0xbff21cf2b00852fe	-1.1320673824567957
11	0xbff8c67ae929ada1	-1.5484570606157393
12	0x3fecf25aac21271d	0.9045842515854222
13	0x3fed98cae0df7666	0.9249014274643741
14	0xc00138bbd6d65dcc	-2.152702024857467
15	0x3ff2fee88f91704f	1.1872335060243306
16	0x3fd14d40cc8c61d3	0.2703401563208249
17	0xbf3f155cdbde39dc	-0.00047429577886584444
18	0x3fb754f42ee5e0e5	0.09114004273385808
19	0xbfe6f92edd81c54b	-0.7179178549105613
20	0x3fa079ecc93ddcb1	0.03218021351397605
21	0x3fe0a00597575d17	0.5195339160808626
22	0xbfe24b422ae861ec	-0.571686824611843
23	0xbff240c5a54ee1c4	-1.140813489661114
24	0x40023440a88affb6	2.27551395105544
25	0xbfef7dd9f61ab57a	-0.9841127211308696
26	0xc0006e9fa4fcc8ef	-2.054015435184844
27	0xbfeac583b2cb1722	-0.836610650258738
28	0x3febed5a7620e78f	0.8727237994382778
29	0xbff9e88f501a0e02	-1.619277298829616
30	0x3ff23f4e947f76f9	1.1404557991695
31	0x3fbc1586ca8594d8	0.10970346874599401
32	0xbff1ea2a8a79281c	-1.119669476424412
33	0x3fc18985d52dfedf	0.13700936230815494
34	0xbfe1aca04505f6f0	-0.552322516261226
35	0x3fd2118d8980c3c1	0.28232134273553916
36	0xbfacd82fd7469c99	-0.0563368749893069
37	0xbfe09bf56b272720	-0.5190379231291651
38	0xbfee5ce5d2b45dd1	-0.9488400569270486
39	0x3fe2f03d8e352099	0.5918262269488138
40	0x40071874dfbfb010	2.886941669499727
41	0xbffde6d540c425ac	-1.8688557176522904
42	0xbfed47536b344a2d	-0.9149567693551198
43	0xbfc7f9b869a5145c	-0.18730836065711542
44	0xbfed9039f15bc61b	-0.9238557542832412
45	0xbfcc301f09362fdb	-0.22021854352749312
46	0x3f9b473d65525e41	0.026638945874394308
47	0x3fcc88e0d8c932c9	0.22292719445467515
48	0xbfcadb323007322f	-0.20981433243868383
49	0x3fea0e0df9a11e78	0.814215648228994
50	0x3ff84cee49091448	1.5187819340656166
51	0xbfec88e74ac6c95b	-0.8917118511656484
52	0x3fd7bd43c3cba1b8	0.3709268009247597
53	0x3ff0de514f60e69e	1.0542767620776554
54	0xbfb3bcdaaf20224f	-0.0771004369308994
55	0xbfdb546e0bc38c4a	-0.427028190124649
56	0x3ff364c9389640f0	1.212105961840333
57	0x3fefe59e8a93d07d	0.996779699954018
58	0xbfc40233609e5dfa	-0.15631715982156874
59	0xbfdeeb290915213a	-0.48310304533926607
60	0xbffb01207bd88f75	-1.6877751195652
61	0xbff50427026fade1	-1.313513764874067
62	0x3fd17070664c4808	0.272487735653272
63	0xbfe0b0328960afdd	-0.5215084727437859
64	0xbfcf1f0881fe1828	-0.24313455912869242
65	0xbfc2242838cb6d7f	-0.14172842763114699
66	0x3fdfa179c28f290f	0.4942306900017152
67	0x3ff7264cedb7a3bc	1.4468507085641553
68	0x3fc4f3b8c2cb8d04	0.1636877967021989
69	0xbfdb7186d8776b4f	-0.42880412234597015
70	0x3feb2f7aae98dfac	0.8495458040333594
71	0x3fe6423d3fe91a8e	0.6955858467343476
72	0xc000e1926a3a6011	-2.1101425456108776
73	0x3fe41b2d452002dd	0.6283174848650465
74	0x3ff9b2f8aaf1d384	1.6061941792988543
75	0xbf872dde9393509e	-0.011317957762379923
76	0x3fddfe9b5874d6a5	0.46866496694870313
77	0xbff00b4e97fd43b7	-1.0027604996759985
78	0xbfe138d544f63755	-0.5381876322660256
79	0x3fad27294871361f	0.056939401715322406
80	0xbfeec5f94a675f94	-0.9616667226027737
81	0x3fc47e9ef6e5ba07	0.16011416488204608
82	0x3f952c241a4bb574	0.02067619715210385
83	0x3fe1192cac405119	0.5343230594903928
84	0x3ff1a6277ac9df4c	1.1030649944713842
85	0x3fe771695e86edc7	0.7325941892844917
86	0xbff5965ce62f971e	-1.349209689296408
87	0x3ff2dbb4b72840df	1.1786391405658418
88	0x3fe1fee9c004adbd	0.5623673200947717
89	0xc00749751b49b73b	-2.9108678943511257
90	0x3fdc835beb8745be	0.4455175209123715
91	0xbfc55e02168f8437	-0.16693140126793235
92	0x3ff23eb4b7fd5ed0	1.1403090655421018
93	0xbff1d522639d8839	-1.1145347491478914
94	0x3fa1ecdb462815ad	0.03501019698527883
95	0x40017c6236f1a176	2.185734204529747
96	0x3fed323bf0a0a210	0.9123820972209291
97	0xbff81516f06a42fd	-1.5051488295759434
98	0x3ff1f83a7ea65595	1.1231026599174119
99	0xbfd81d40140c87db	-0.37678529699235036
100	0x3ff4c6be49326ab7	1.2985213145499708
101	0xbff1f1448abb93cf	-1.121403257298187
102	0xbfdaf62ff2c8fb73	-0.4212760802219499
103	0x3fe2966400a3ccdc	0.5808582317826239
104	0x3fe259a54e00d35a	0.5734430812359321
105	0xbff45901f7fc342a	-1.271730393116068
106	0xbfafc7174d9b2e06	-0.06206581899968104
107	0x3fe1cdda725f2c34	0.5563785775970076
108	0xbfa6ce82941d030e	-0.04454429681800863
109	0x3fefedf39ed0033d	0.9977968313033682
110	0xbff9bf0eea86d97a	-1.6091450844956783
111	0x3fffdb3a384fd24b	1.9910223197631634
112	0xbfa9eb6869f5b6aa	-0.05062414449171844
113	0x3fec9b734b1fd617	0.893975874640719
114	0x3ff69676e614ea81	1.411734484440473
115	0x3fd9bc62a4c15775	0.40212312783602694
116	0xbfe3f36d88513695	-0.6234653150983883
117	0xbfcb7a0d788f0827	-0.21466225039154205
118	0x3ff05d041a598392	1.0227089909824127
119	0xbfe5599a77721cc3	-0.6671879132199127
120	0xbfe6030e326217de	-0.6878729805036945
121	0x3fc22dad33e17729	0.14201893838156224
122	0x3fbcbe5f118c1efa	0.11227983644868891
123	0xbfd958c045ed94b8	-0.39604193524275955
124	0x3fc1fcb01ab02c6d	0.1405239229501122
125	0x3febb1fdfec08ca3	0.8654775596263743
126	0xbfe3f0389924aeb2	-0.6230738631324668
127	0x3fd3f02852d55f17	0.311533051387856
128	0x3fac0490d379eac3	0.054722333731623184
129	0xc001ca98d0a8cbcb	-2.2239242841255638
130	0x3f765df94311ea43	0.005460714034706773
131	0x3fc5b4d40e499f22	0.16958094308505972
132	0xbff42459d0caa76d	-1.2588747173235462
133	0xbfde89a6aa69f54c	-0.4771515526006922
134	0xbfd9afb78b197cd6	-0.40134991249028695
135	0xbfec4db98bd62558	-0.8844878894025596
136	0xbfd731ba718c8c87	-0.36241017426272787
137	0x3fbc373cb596bc3c	0.11021785195656347
138	0x3ff56c899fea3ed7	1.3389984366112253
139	0xbff438cf729342bb	-1.2638697124095148
140	0xbff1a4e5e0d5bc2c	-1.1027582914937382
141	0x3fff35cf65a02a5a	1.95063724229353
142	0xbff6358cd64b2da1	-1.388073765835408
143	0x3fe69a1256bd6110	0.7063075727592452
144	0xbfcae519b52d40b3	-0.210116589989871
145	0x3fb3e51b0e570199	0.07771462535948216
146	0xc00067bcb4507b56	-2.0506528937398043
147	0xbfdc0af0294402ee	-0.4381676104531341
148	0x3ff9efc95d55dfff	1.621041645614241
149	0x3ff00ffcc58e0afb	1.0039031712519193

layers.4.weight f8 [1, 150]
0	0xbfa5db1219402478	-0.042687001783698386
1	0xbfbbb936f2379589	-0.1082949010229496
2	0xbf420d102dd9e16c	-0.0005508736609974147
3	0xbfaa81ed0127ae6d	-0.051772505179397445
4	0xbfab273ef6ea3c43	-0.05303379787539388
5	0x3fc5fbbe612f1c6e	0.17174510712922902
6	0xbfd101e5fcd1f4ec	-0.2657408684679712
7	0xbfa59b3074fe027a	-0.04219962528350592
8	0x3fb70bcc3146f422	0.09002376750045518
9	0xbfae184d284a9e23	-0.05877915493811894
10	0x3fafb0030a9a02b9	0.06188973907865631
11	0x3fcdbd4146edc753	0.23233810389825268
12	0x3f8f1136b236c4ba	0.015169551194818321
13	0x3fac531898ae7e14	0.05532147277630997
14	0xbf92382640d8c467	-0.01779231806557782
15	0x3f82c6326bb33564	0.009167093192810234
16	0x3f9711b2f3ceee78	0.022528453951720512
17	0x3fc1458c7a4e8c05	0.13493495914471523
18	0x3fa7abdcdf0cd99b	0.046233083942229324
19	0x3fa28efdf071ec34	0.03624719200248486
20	0xbfba7b5303e7c5a0	-0.10344427914949117
21	0x3fa4d4c8a77a98ee	0.04068591160221212
22	0x3fb817acb81852ac	0.09411124701029888
23	0xbf7e896714a875d0	-0.007455256136862556
24	0x3f8c206c1bdb5782	0.013733715629694169
25	0x3fbb7dec12675dd9	0.10739016961394245
26	0x3f556d2da8401b5a	0.0013077684279793806
27	0x3f81c45edb3ddd48	0.008675328317379397
28	0xbf909815c4f97ed9	-0.01620515837419032
29	0x3fc08dcb9749305f	0.12932724844938812
30	0x3f950ab2b49b9aa4	0.020548622392107987
31	0xbfb04f1ca411ec90	-0.06370715146651862
32	0x3fb3963fb0336c46	0.07651136447695803
33	0x3f93b6b61efb8d2d	0.01925167621710704
34	0xbf88dc538f213d76	-0.01213898926303501
35	0x3fb43eb64070ce37	0.07908190797098134
36	0x3fa02d0fab918f01	0.03159378976195449
37	0xbf949ce18b7dd72d	-0.020129703654183807
38	0xbf9e73eacee92b91	-0.029739064101061145
39	0x3fb19f5d4cf860b1	0.06883795861392873
40	0x3fad9d23c3f3aad9	0.05783950583448467
41	0x3f8e74c4611c1bb7	0.01487115308147034
42	0xbfc1d6511dc62b6f	-0.13935293153584946
43	0xbf866c3a93a64452	-0.010948617583183804
44	0x3f9d39e37efa35da	0.028541140198788152
45	0x3fbda54e573dbc92	0.11580361967002009
46	0xbfbde46ec3046261	-0.1167668558231383
47	0x3fa0874d1dc49650	0.032282266505984425
48	0x3fa5df19e95bb6fa	0.04271775220500547
49	0xbf62c32d4a0d0c82	-0.002290333228673059
50	0x3f9456be18eff23f	0.01986214663701191
51	0x3fa11953def82bb6	0.033396359413095864
52	0xbf82320c2ad1c84e	-0.00888452058481817
53	0x3fc7158881591671	0.18034464183635948
54	0xbf9dd50265fb0ba2	-0.02913287875595539
55	0xbf918956627ea370	-0.01712546325839831
56	0xbfbc9b4df869c5fa	-0.11174475970053513
57	0x3fbd228f55c23306	0.11380859225955584
58	0xbf73a2ae24fc6404	-0.004793815852985443
59	0xbf9fb947499f5346	-0.03098021876197101
60	0xbfb735ae9f6995cc	-0.09066287414460489
61	0xbfb8b529202384b7	-0.0965142920936327
62	0xbfc2254c62e0eb1c	-0.1417632563405612
63	0xbfc25997395827bc	-0.14335909175889394
64	0x3f93b5e4006b589d	0.01924854519423801
65	0xbfb5500a9c3d83ca	-0.08325258554897555
66	0x3fa16b745da81e87	0.034022938187317435
67	0xbfb35e20e5d946d5	-0.0756550370363372
68	0x3f90b6281f2661fe	0.016319872761956226
69	0xbfac5ff6ae6293ac	-0.05541964415286968
70	0xbfb2ff2900bd19fc	-0.0742059351733601
71	0x3fb1abaac1c70dec	0.06902568083665245
72	0x3f922939dfcbd16f	0.01773538998072993
73	0xbfbfd358461dc9e1	-0.12431861602616535
74	0x3f8dd34f11ca9753	0.014563195925187655
75	0xbfaf8ae6a22e6476	-0.06160660485984064
76	0x3f630a498819e0dd	0.002324241272443668
77	0x3fb9bff10a6cbdeb	0.10058504585753496
78	0xbfb2d9db867c157b	-0.07363674195592822
79	0xbfb14ee75637a6ba	-0.06761022429386801
80	0x3fb35d9bee847a16	0.07564711163693291
81	0xbf90b0c0d2892f7e	-0.016299259996500386
82	0xbf939f0cacced684	-0.019161413237915884
83	0xbf830146ce106e2e	-0.00927977863653159
84	0xbfc1cc8c85f65aee	-0.1390548376191058
85	0xbfaac3c3f34b4b79	-0.05227482170962267
86	0xbfb2ba8e38b9520a	-0.07315911183224713
87	0x3fa8306fcf8a9226	0.0472445431562714
88	0xbfb118c1027647bc	-0.06678396520717816
89	0xbfb3fe43a5c99c8b	-0.07809851453349574
90	0x3fb9b0ef648c7374	0.10035606579590511
91	0xbfa0ff1e0e851088	-0.03319639136546565
92	0x3fc0af1fa54ac6c5	0.13034434862998104
93	0x3fc32943592af095	0.14969674924748647
94	0xbfb020778c6a9124	-0.06299540689594046
95	0x3f8b121f27d62250	0.013218158152782739
96	0x3fbcdf94d8a005c2	0.1127865818853229
97	0x3fad1b98bd166983	0.05685117061803437
98	0x3fa1f535a3d02f1e	0.0350739252536114
99	0x3fc4f761360cfc14	0.16379943026728994
100	0x3f8d2d498a0d5b75	0.014246534848707285
101	0x3fa1e4a0e31134ea	0.034947421758809785
102	0xbfa38498b4cb590d	-0.03812100607835776
103	0x3fa716efeadd8f89	0.0450968717766776
104	0x3f70a01d47c0d8fc	0.004058946968191753
105	0xbfb2cef54c62dc4b	-0.07347043146988701
106	0xbfc0fbc9a240db70	-0.13268394873167777
107	0xbf91716ae8ae523e	-0.01703421635791557
108	0x3fa0bff12413ce77	0.032714400915122725
109	0xbfa72970a5409021	-0.04523803727377663
110	0x3fd18d7e80a4da76	0.2742611175812394
111	0x3f92d48307b598ac	0.018388793321172756
112	0xbfcd3186f0e6bde0	-0.22807394755135046
113	0xbfc669e65d911c24	-0.17510680741017481
114	0x3fbd051d152c8d4a	0.11335927740997423
115	0xbfa10c500b735d3d	-0.033297063253196126
116	0x3fcd7b00b78aeab9	0.23031624757807892
117	0x3fc536c4d9dd3178	0.16573391569034945
118	0x3f7e53cc0f716a5a	0.0074041339022082545
119	0xbfc58e9c4b651063	-0.16841462785135083
120	0xbfcd50847f7e5637	-0.22901970124500945
121	0x3f82f4c2c99b3e5b	0.009255906846561126
122	0x3f9a3ea1c7035b8f	0.025629546901508923
123	0xbfb89b6f1645e9a9	-0.09612173360611699
124	0x3faa692b5bb64d6c	0.051583628602339754
125	0xbfb008ba68fffa0f	-0.0626331812236247
126	0xbfc00d80a0808e0a	-0.12541206204433336
127	0x3f88b27b219eca45	0.012059175456532798
128	0x3fc314056b5ae2bb	0.14904849760002556
129	0x3fcfb33c8218efd9	0.24765735962307536
130	0xbfc4b4b75b472067	-0.16176502186704342
131	0x3fc007e5ddb66f50	0.12524102521717362
132	0x3fc55bf20cd3770e	0.16686845423003444
133	0xbfb9b3cc87b20fc4	-0.10039976418380464
134	0x3fccd1a70150102c	0.22514808239077533
135	0xbfb9ab43285da862	-0.10026950583929442
136	0x3f5bd5b32a287a90	0.0016988992362098367
137	0x3fb675595f13b106	0.08772810527051797
138	0xbfb4ee51df0ce23e	-0.08176147170605305
139	0x3f9823d88d53189c	0.023574241281288807
140	0xbfba868626153b27	-0.1036151736236489
141	0x3fb8e8a8f7b78f8e	0.09730011031893879
142	0x3f8a6d77ef2fba41	0.01290410708130907
143	0x3f8667ad0280a095	0.010939933432453844
144	0x3fb75f5441b09b30	0.09129835704571287
145	0xbf8784d19f163add	-0.0114838005709123
146	0x3fd1d596ac6f8ab9	0.2786614116613851
147	0xbfca3bc775701396	-0.2049493144442322
148	0x3f8e2387e43ec714	0.014716207173339359
149	0x3fb56c5a37f5f412	0.0836845766661585

layers.4.bias f8 [1]
0	0xbff5b87d29e1417c	-1.3575412403043563

test_rel_err f8 [103, 1]
0	0x3fbfe6f18f5041cd	0.12461766957154126
1	0x404b768099a0e71d	54.9257995639475
2	0x402ecd38a64ab434	15.400822826975947
3	0x401680805c597a0c	5.625489657365062
4	0x3fe70a85b080a12c	0.7200344512284906
5	0x405670fc878af8cf	89.76541317531085
6	0x3f61aa2bb1fabf51	0.0021563390181071136
7	0x4005d784970d1d8f	2.7302333641889116
8	0x4023f548fd3de0dd	9.979072488597405
9	0x3fd2536323ea99c0	0.2863395548578431
10	0x3fff17bd5340fd75	1.9432957889656255
11	0x4031ea25647030d4	17.91463306178123
12	0x406a96e5fbf4bbce	212.71557424354108
13	0x3ff87b8a8731ada6	1.530161407567769
14	0x4060f91443462885	135.78372348501958
15	0x40151d9d348d9c88	5.2789200030739565
16	0x3fd264c00ac5af71	0.28739930202458824
17	0x402bf57c4c037394	13.979463935300181
18	0x4057a619d961e8ca	94.59532770692309
19	0x40527be7916b835d	73.93600879191713
20	0x400503e1b729b09a	2.6268953618619664
21	0x3fdc3f5e206d2c20	0.4413676563896747
22	0x3fd2914cea5234aa	0.29011843569680684
23	0x402691ad4a3b0670	11.284525222497194
24	0x400de3eda920ef71	3.7362931454826414
25	0x3feba74f91c02434	0.8641736838045575
26	0x40358496c779d7b3	21.51792570805237
27	0x400e80e2cfc92454	3.812932608915199
28	0x402eba567d7ec41f	15.363941117977502
29	0x406ab94989e4a870	213.7902268854118
30	0x40198479a4b4ade4	6.3793702826764935
31	0x4072c0d21fec2667	300.05129997488115
32	0x3f9ad113aa675c06	0.026188189769381885
33	0x40538c4f86ed6e83	78.19235394655884
34	0x3fe630e3343a6f65	0.6934677143176314
35	0x4012e575a8cb9e6e	4.724081647327337
36	0x3fb8333b7ec152d1	0.09453174442871705
37	0x3fe04508a65e7f8e	0.5084269761464257
38	0x40346d9643c9472a	20.428074108734258
39	0x3fc846c71269f063	0.18965996169197571
40	0x3fb8b96d8b4e5e28	0.09657940531757758
41	0x405ac59076192f77	107.08694221934807
42	0x40621ebeb2a94ba5	144.96077855172658
43	0x3ffcf52844b7422e	1.809852856084159
44	0x4032291635d17f02	18.160495151182666
45	0x4001fb1cc112bff9	2.2476134380194677
46	0x4000526c4c02bc9d	2.0402456224761196
47	0x4047dbdc31f8cb55	47.717657324296546
48	0x4053ff0c40b80689	79.98512285205119
49	0x4062812a826e6fcb	148.03643914765993
50	0x407119bac882f036	273.60810137889655
51	0x4031674977ccaab6	17.403464782207003
52	0x40203c0e2b82312e	8.117295608179656
53	0x3ffe5949c21908cd	1.8967988569207137
54	0x4020392414d1551d	8.11160340361908
55	0x4019cc0229556200	6.449226995312074
56	0x3fd40fdb9bdf0aa7	0.31346788617899296
57	0x402b2ff48fad2a33	13.593662729156767
58	0x4012056a5156290f	4.505288382419407
59	0x3fb14e42faf3f19e	0.0676004278829567
60	0x4029cf558502618f	12.904949337521229
61	0x40141d3c05e81b45	5.028549282352121
62	0x4034ac19fa4ac980	20.672271388300487
63	0x4018a384f84e665b	6.159686927590509
64	0x3fce81a810189a7c	0.23833180223410355
65	0x4093cca2efd2d814	1267.1591179794677
66	0x4010bcc5c4913468	4.184348174440949
67	0x3fd7ceb6b2da8522	0.3719918009392861
68	0x3ff8022ea66eaf38	1.500532770277415
69	0x3fbf7d6d16c019a2	0.12300760083608123
70	0x3fdb8d45b2cebac5	0.4304975744407041
71	0x4015a46cdbe6951d	5.410571514080655
72	0x404084f8a66d73db	33.038838199084886
73	0x402355ae57757687	9.667345746124978
74	0x3fea1d8d3341a297	0.8161073685742676
75	0x401cf512258c2613	7.239327036551475
76	0x3fe0fefbb302836a	0.5311258789334776
77	0x401ee59baab2eb32	7.724226634188016
78	0x4028a823c408b16c	12.328397871075786
79	0x3ffabe3f4f6230b1	1.6714470959587227
80	0x40254a222753cb11	10.644791821459451
81	0x4020210665afe460	8.064501931878283
82	0x3fd039e4e7fd118d	0.25353357939845794
83	0x404e842839a9224d	61.032477576813655
84	0x3ff2f23ff172f7d2	1.1841430121999008
85	0x4003625942f1ab8b	2.423021815300165
86	0x4044530ab04a2ed3	40.64876369116032
87	0x3ffb3fe601415046	1.7031002091435012
88	0x3fd9d07c62cb93f8	0.40334996841403337
89	0x40358b574b32c6f7	21.544300746819285
90	0x4014e4deff2dfed4	5.223506915266359
91	0x401928d73189deec	6.289883398094144
92	0x4063cd7f859960be	158.42181663471814
93	0x3fb3fecf377a5249	0.0781068335002796
94	0x402714346dfe2b2c	11.53946250655789
95	0x3fee43bd8492285e	0.9457690800929972
96	0x3ffe7587227276e5	1.9036933274832617
97	0x4027469122134e33	11.637826027733444
98	0x3fe79f08fd59b799	0.7381634662867668
99	0x4001081fcf7099a7	2.128966923354898
100	0x40374fb98a5207bd	23.311424870516692
101	0x404d12ee996fc03c	58.14790647465313
102	0x402211cfab7a9e0c	9.034787520139638
