model_chkpt/ntk_network.pt (torch, 741498 bytes, 13 tensors)

layers.0.weight f8 [150, 8]
00000000: 0c3f 7a1d 6a56 f7bf 383a b919 85d7 e5bf
00000010: 701a c00b 6c82 d9bf 9eba f3d5 e5b9 db3f
00000020: a48f 3b3e 1b78 db3f af42 a064 e638 b7bf
00000030: a226 05ec 36b2 c8bf b750 7d5f a6cb c93f
00000040: 01f9 8908 4587 a3bf c86b 2ffd 3b6c bf3f
00000050: 1f04 c019 9a0a a4bf 714f 5bce a70b ab3f
00000060: b013 2b8e bea1 97bf 17dc 7b19 399f 95bf
00000070: 56b4 83a4 b054 b33f 2b70 0f49 26c0 01c0
00000080: eb6a ec36 06bb cabf b30a e8c0 820f dd3f
00000090: 8c2b f608 78ec b5bf 9ee1 e58e fece d0bf
000000a0: f21b 43f2 7e94 bbbf b865 145a 3c1e e73f
000000b0: 08ea 2d13 d300 e33f c25f bc4c 05e6 c63f
000000c0: 6605 5e94 dfc8 ce3f 73f7 ba99 f8ad a63f
000000d0: d75c f563 8a55 a53f 1f73 54ec 3464 823f
000000e0: 12b0 ccec 77f4 ccbf 3509 7368 97f3 a1bf
000000f0: 8b7c 39bf 442a c53f d8cc d538 dc19 b23f
00000100: 42b6 c35c cdae e9bf 714a 80fb c109 da3f
00000110: 4a69 27e7 8772 d2bf f3d4 546f 32d3 b2bf
00000120: 395b de55 ac8e e6bf 1766 4e20 7f13 cfbf
00000130: b59a 55d9 c976 e23f f431 0954 4f37 f9bf
00000140: 0620 28c7 33ca ccbf 0999 4281 d34f d2bf
00000150: e0eb 31de 5dcd cdbf fc49 730d ce8d b53f
00000160: 202b e9cd 6528 c43f 21e9 4855 a486 55bf
00000170: 0e87 ff55 c338 b3bf bf0a ce11 d54c e1bf
00000180: bbd9 5825 7696 da3f 0e5f 1635 5bc6 bbbf
00000190: 179b 413f caad d3bf 85b5 72e5 6e38 d6bf
000001a0: 8c25 e389 800f d0bf 00b9 622b 391c e73f
000001b0: e7ab 7d0e de08 c83f 2ee2 391a e748 df3f
000001c0: 13b7 dc18 40a0 dbbf 7039 0c5a 6947 ddbf
000001d0: a64b 9073 8a35 c0bf 2cb2 7a8d 7c2f e9bf
000001e0: 08c5 2a7d 7a2a e0bf 251c 0d2d 8d16 f1bf
000001f0: 42d3 d864 5255 f1bf 6ab1 2a60 cf4f eabf
00000200: 043f 02e0 f8fc e6bf 7316 6047 65ea cfbf
00000210: b806 2dbd bc09 d7bf f6d0 9e86 2ab2 f2bf
00000220: 0bdf 3d7a be05 efbf fa65 2aa5 8f40 c8bf
00000230: 981e 98d2 5b1e de3f 59cb 5d8c 0cde bf3f
00000240: 573f e38e 1b27 f8bf 5a1f f3eb 4a95 ddbf
00000250: bffc 2704 0f39 cf3f c25c 50b7 c7ee c3bf
00000260: 64d5 51d5 98ae fdbf a619 b578 94f6 acbf
00000270: 91f2 3c9b fe19 e0bf b057 dc4b 7e2a e33f
00000280: ae7f 75bc de85 cdbf 4bb6 4482 ff77 a23f
00000290: af22 98d7 83ea e6bf 1ad8 a6c6 9cf9 d73f
000002a0: db32 84d9 8b8e e1bf e238 84b1 dee4 b9bf
000002b0: d79d 0b69 0a53 c63f 99fc 7206 e577 f1bf
000002c0: c65d 5cd5 7737 96bf ed60 ad33 1e75 a1bf
000002d0: 571e 4387 4e74 ce3f fbce 5782 eb2a e63f
000002e0: bcc7 9649 07ff eabf 8ddd d235 fc1c d73f
000002f0: f9d5 df1d 2e03 e33f c198 2b99 46ee a7bf
00000300: 07b6 ad33 88f1 e33f 69b0 2823 5dc4 de3f
00000310: ab78 1bfa 4048 ee3f be88 b732 55a8 e6bf
00000320: 150f ae32 2b3b f5bf 9dcb cbb1 d66d b03f
00000330: d06b 96cd 4ab5 e53f d0bc 5c65 1b9f d43f
00000340: 4e03 d010 1135 dfbf d6b6 b230 7125 bcbf
00000350: 08a1 5530 60b1 bbbf 0554 53b7 e023 8cbf
00000360: 2971 a84b 1f23 cc3f 765b a3a4 75f6 a03f
00000370: 8ca8 fafd d256 bdbf aef9 2234 def7 c33f
00000380: 8547 ac27 ec8e d23f 70da 4e85 53e6 df3f
00000390: 9e38 d901 652f d43f f0b6 a06e e212 9a3f
000003a0: 1216 fe0b d223 ccbf 2bc4 c522 ba01 ca3f
000003b0: b822 1cbf 201b c83f 8bd9 8a20 f4fe e43f
000003c0: cf12 0494 cc42 f1bf 35ff cd6f 1564 e5bf
000003d0: b49e 44a1 f3f9 a4bf 00bf c148 3c3b e23f
000003e0: f90b 9444 519d d7bf 6c30 d48e 5b0b bfbf
000003f0: f09c 1b18 2927 c03f f440 2993 05d0 d43f
00000400: a859 ade0 6ccf d7bf 53ea 227c d663 cebf
00000410: 7b63 54de caca cd3f 91bf 96f2 a6b1 a8bf
00000420: 3c53 b1a0 0838 ea3f 9fd8 06c9 36d7 d1bf
00000430: f306 353c 05dc e6bf bbb9 fc54 e4e6 acbf
00000440: 667f 4151 6bf0 ccbf 22a0 67d2 cf14 d0bf
00000450: 0ce1 298c 1d63 97bf 3cc3 848a 14f3 d23f
00000460: a760 3380 3951 d73f c081 b4f9 1af1 e13f
00000470: ccce 1473 a8f0 c03f db69 d33a 3451 ebbf
00000480: 9b63 7f38 4c66 d23f ed1d c487 240c d43f
00000490: 51a9 5655 62cd d93f 7849 b73d 35d5 8dbf
000004a0: 8aee 1320 102d b1bf d183 38e2 5b3a d03f
000004b0: 3069 507f 35d1 b63f 8252 426d e2dc c53f
000004c0: 7476 a045 ac39 e0bf e2e7 312b f907 c23f
000004d0: e14d f476 02a8 803f bbc9 be50 24d6 cebf
000004e0: bfc5 ea08 a6c2 e3bf 77ad 74e2 4bba c63f
000004f0: 3895 8e55 6a79 d53f 52da ce75 fa91 d23f
00000500: b602 7446 e43e 9bbf 670e dcf7 9a24 bfbf
00000510: 0c02 31e0 f3f6 a9bf 365f 82c6 ba45 893f
00000520: a86d 7f54 1802 a73f f6b2 c272 81e1 b7bf
00000530: 0fa2 a5c5 43de c9bf e2fe 473a 469a c0bf
00000540: 5526 fa3c bbf4 debf 9a12 d86e 0eb1 89bf
00000550: f3e5 fb63 e137 9fbf 60ac fa8f 122f d43f
00000560: 29c1 95f3 2453 d13f db9d e987 c9ad a03f
00000570: fca2 cf52 3395 aebf 61c8 d923 6430 f4bf
00000580: a3a2 47ea 02da d1bf 23fb 1f2e 6292 eebf
00000590: d677 1adb 979d eabf d67e 35fc 6447 d43f
000005a0: 1afa db20 6785 b73f 8619 85bb 93d9 e7bf
000005b0: 0943 38ef b391 e1bf 4a31 db6d 5f8e de3f
000005c0: 3e52 1a0c 8b1d ddbf 8f77 6425 8e51 e6bf
000005d0: 60c2 46ee 71bf c0bf 43e7 0678 5409 bc3f
000005e0: 1d6a db51 bce9 c73f dd93 9265 f5cc a9bf
000005f0: d1b1 a054 9f05 dabf c87c 69da dcea b4bf
00000600: 6e20 877d 3106 d7bf c47e 1709 2bed dbbf
00000610: 2e9b 51ca 4316 9abf 4f39 204b 0e36 963f
00000620: 48f2 37df d6fa c03f 3d35 d9b0 1b59 d3bf
00000630: 7a93 6bda 5212 debf 62cf 9f8c 907e f6bf
00000640: 8e62 b2e7 b79d 7b3f 4e4e ff65 3be3 d33f
00000650: 45fc e02a 9d3c c6bf 10c0 dde9 94d5 e23f
00000660: 2048 56c1 8160 923f a88f 816f 9627 d03f
00000670: 1494 3df1 eeeb ca3f 5a55 2cba 1f5c f6bf
00000680: cf69 cd44 84ff a83f 302e a082 69ee e33f
00000690: e1db 7c36 c18c de3f 1e42 d138 b2bd b9bf
000006a0: 5e3b 1916 4cfa e1bf d8a9 b752 1a92 db3f
000006b0: 0a83 fc24 9c15 d93f 5085 4893 ee51 e63f
000006c0: 9341 12da e7cb a5bf 48df fce1 8b7f f8bf
000006d0: 778b 6038 ae3a bf3f 885a 98e8 0b83 bb3f
000006e0: ef14 85a9 1644 cabf d2ae ad7f 4902 f3bf
000006f0: dc36 dc78 7e1f c03f 03db 30a4 5b28 c8bf
00000700: 7b4f 8cc2 a207 abbf 4873 fed5 0b05 e6bf
00000710: 19c3 1417 d466 cc3f dea0 9291 3ce4 f03f
00000720: 31ad d5d0 4f58 c6bf b2ae 8db9 f2b9 d13f
00000730: 6c51 6ba3 162a ec3f 6e50 8a7d b857 b33f
00000740: b73c fcfe e2f7 96bf 771e ce61 6b8e bebf
00000750: 2969 83d8 1de2 cc3f caa9 616e fb3d d5bf
00000760: 3947 d244 ac21 d6bf 9e88 a7ba fa52 c03f
00000770: a6f5 f2e5 76fc c2bf 69bd e5d7 e580 993f
00000780: fbcd 1e83 1787 dabf ee6a d9f8 10a5 debf
00000790: 535e 46ca 58c3 cd3f adac df34 ce5f e23f
000007a0: fc7d 667d 7c44 cc3f 0ba0 5a8b e380 b13f
000007b0: 0114 4681 2574 cdbf a4e8 547d dc66 e03f
000007c0: 84f7 c894 a3b0 d9bf 6e7e c7ee 3c28 bcbf
000007d0: 4a3e d13c 9491 e1bf ef53 b33a ec5d e1bf
000007e0: bb26 6b57 5551 e7bf bc5f 142e f617 c2bf
000007f0: 383f 7dea 22c4 d73f 8066 7150 b3e9 de3f
-1.4585972930398752 -0.6825585844433766 -0.3985853304624589 0.4332213010192535 0.4292057140103174 -0.09071197468461877 -0.192938676113319 0.2015274015672099
-0.03814140061602878 0.12274527484207376 -0.03914338650066206 0.05282329935076192 -0.02307794325567486 -0.02111520021477639 0.07551101700274052 -2.21882302358974
-0.20883252794086302 0.45407170141713066 -0.0856394788626586 -0.26263393359070075 -0.10773461737254289 0.7224408873909658 0.5938506483647084 0.178894674748106
0.2405051683854637 0.0442960441264252 0.04166824789234063 0.008980191671577096 -0.22621058523634524 -0.03506158018128006 0.16535243355881266 0.07070709598137925
-0.8025881587797772 0.406845565420702 -0.28824040959957087 -0.07353511064578182 -0.7049161603089039 -0.2427824886079157 0.5770005459606496 -1.576003387704188
-0.22492072319460038 -0.2861222040468339 -0.23282979344716548 0.08419502094628933 0.15748283914793948 -0.0013138394180161677 -0.07508488511623687 -0.5406289432288175
0.4154334416120055 -0.10849542661742026 -0.3074823014962233 -0.3471944084838799 -0.2509461733394225 0.7221952292800609 0.1877706118351334 0.4888246303667384
-0.43165590694376127 -0.45748361390805936 -0.12663393633610304 -0.787046696020814 -0.5051853604001346 -1.0680057296574514 -1.0833305301031975 -0.822242439103815
-0.7183803916140907 -0.24934068665622852 -0.3599693152828922 -1.1684975870712697 -0.9694511783154395 -0.1894702488396403 0.47060294690934645 0.12448194910920786
-1.5095477658796506 -0.46223710100138293 0.24392879202784987 -0.15572449160456442 -1.8551262219237623 -0.05656875585059433 -0.5031731636041333 0.5989371759085227
-0.23064789011095627 0.03607176270666609 -0.716127320368363 0.3746101322134351 -0.5486506698958594 -0.10114852746866945 0.17440919999283608 -1.0917711498184757
-0.021695969007024883 -0.03409666424585276 0.23792440037344662 0.6927392526399382 -0.8436314046177738 0.361144115984154 0.5941382010921067 -0.04673977489237436
0.6232338914248324 0.48073509629717265 0.9463200459392928 -0.7080484381260914 -1.326945493668011 0.06417600479816916 0.6783803954489205 0.322211121546343
-0.4876139320550025 -0.10994632185858264 -0.10817528896371098 -0.013740306467676442 0.2198218459533419 0.033130337092805925 -0.11460608196890315 0.15600183053716193
0.2899732959204971 0.4984329988323344 0.3153927343418078 0.02546266365259603 -0.21984315476963495 0.20317770669819998 0.1883278782991249 0.6561222682565114
-1.0788083822127879 -0.6684672530827586 -0.04096947997669301 0.5697308941871313 -0.3689768953046833 -0.12126705395729837 0.1261950843538453 0.32519664164739415
-0.3720352357971941 -0.2374218088278491 0.232751234588047 -0.04823037825860788 0.8193400515106997 -0.2787606204177652 -0.7143579650803232 -0.056449065565505184
-0.22608701198168574 -0.25127025172560213 -0.022839032821566227 0.296086440345835 0.36433255691145877 0.5606818081906155 0.13234429949954174 -0.8536626004163809
0.2874937583670147 0.31324113138586435 0.4031606515296931 -0.014566818185731675 -0.06709385665083736 0.25356194583770014 0.08912977560286062 0.17080335936465835
-0.5070401534937461 0.1408683262741866 0.008132952933499861 -0.24091009085311818 -0.6175108122026173 0.17756031567965255 0.3355356059567671 0.2901598120182928
-0.026607100296134965 -0.1216523032308544 -0.050712224118346055 0.012340029891035092 0.04493785888163454 -0.09328469325800967 -0.20209548140270825 -0.12970807882083252
-0.4836872191886859 -0.012544739492122137 -0.03048660443071145 0.3153730779692463 0.2706997278937871 0.032575891343011164 -0.05973205934407663 -1.261814250985957
-0.27893135908974837 -0.9553690815808732 -0.8317374495852572 0.3168575728395643 0.09187931587437284 -0.7453097021578265 -0.5490359947453679 0.4774397442640931
-0.4549281709853722 -0.6974554758378292 -0.130842439027691 0.10951736383767945 0.18682054516723748 -0.05039183487796326 -0.40659316315102695 -0.08170872051549616
-0.3597530103547858 -0.4363505924975295 -0.025475558494146337 0.02169058164150189 0.13265500926344687 -0.30231373091085684 -0.4698683865556671 -1.4058995717177472
0.00674220884243283 0.3107441421572944 -0.17372479051297965 0.5885719840716792 0.01794626944099076 0.25241623772876176 0.21032511500666884 -1.39749119495294
0.04882443752167697 0.6228530455859467 0.47734098740641967 -0.10055078398841785 -0.561803858910803 0.4307924087321715 0.39194396602583537 0.6975014568926472
-0.0425713018131574 -1.5311392619750723 0.12198914410013893 0.10746836117355418 -0.205202896855702 -1.1880583751143843 0.12596112157228034 -0.1887316276276679
-0.052792631386323806 -0.6881159953660267 0.22188807608611041 1.0557218252598015 -0.1745700616550976 0.27697437401250646 0.8801377479344814 0.07555726113270264
-0.02242998772913715 -0.11936064851590254 0.22565053054751985 -0.3319080903953845 -0.3458052322467782 0.1275323306463791 -0.14832960346204266 0.02490576868279729
-0.41449535183639313 -0.4788248472374751 0.23252401234343498 0.5741950066270839 0.2208400356584973 0.06837293770024659 -0.23010701000399084 0.5125563094982408
-0.40140618829524777 -0.10998898343631833 -0.5490208804930685 -0.5427151819700365 -0.7286783893007035 -0.14135625123958373 0.37134621524181766 0.48301394325026337

layers.0.bias f8 [150]
00000000: 04bb bf36 d219 e5bf d219 95eb 95b4 f1bf
00000010: 3e46 d113 b890 eabf 6ed8 67bf 9c67 f2bf
00000020: ae0a c0b8 98e1 e5bf 24cd 4433 aba8 e6bf
00000030: d068 9212 43bb efbf e7cb 0609 e599 e3bf
00000040: 26e9 f8f4 60f1 f6bf 005c 059d 2bbd c8bf
00000050: 41fb 4607 45b4 e4bf 37ed b7dd 761d edbf
00000060: 32fd b21f c069 e7bf ad61 6a33 e1c7 f1bf
00000070: d0cf 0f0b 343f c1bf f895 0764 443e f2bf
00000080: b307 ecfd e3b8 f0bf 7915 3dab 9fe5 edbf
00000090: cbd9 6cc2 b87e e8bf f213 e555 680e f5bf
000000a0: 27fe b418 aacc e9bf c9b7 6c3c aeda eebf
000000b0: ac93 633a d06d f6bf a2c8 0377 7427 ebbf
000000c0: 4905 d0aa b0b7 e9bf cf47 d818 a883 edbf
000000d0: 3c10 2391 f7ef bc3f 8732 bc74 e189 dabf
000000e0: 4ca3 88e5 0c5b dcbf c159 fe54 383e f1bf
000000f0: ef10 10a2 7720 f3bf b1dd 6a6b e142 ecbf
00000100: 71dc 640c 0aa8 ccbf 7af0 d1b4 15fb d8bf
00000110: e253 be23 663a ebbf ac6a a62c c8b5 f2bf
00000120: 1632 7693 091f f8bf 717e dff0 2a4e eabf
00000130: 2f75 f52c 9f11 e0bf 05e7 852d 1d19 f9bf
00000140: 9f25 ea80 8ef1 dabf 9fe9 4669 59fc f4bf
00000150: ed15 4ec3 b46c f5bf 0552 9335 6146 d3bf
00000160: 2b02 6342 1783 debf 67e5 afee 81ad f1bf
00000170: faf3 54ce 7487 f0bf d210 9608 a03b f0bf
00000180: d5ef 7bbc 8039 f2bf b8e6 ca80 e160 e8bf
00000190: 7f95 e283 445d e7bf 8120 8fe3 1bc6 f0bf
000001a0: 8e9e 4a11 2ca7 f3bf 9ee5 6eed 5a6d efbf
000001b0: beff 92b0 ba88 dfbf bb86 8c7b 44a3 d7bf
000001c0: 9160 c373 b02a e0bf 0129 6c66 ee81 dbbf
000001d0: 9448 14b3 4048 c6bf ef07 f561 0115 e4bf
000001e0: 65bd e0d2 fc25 efbf 3845 4435 cf09 ebbf
000001f0: 0f83 bef0 5af9 e8bf 4fcd 4e79 ad02 f0bf
00000200: 2e12 7774 a1f8 e8bf 0e63 26c3 3cac ecbf
00000210: 8165 882e 90b5 f5bf 0304 50fb 257b e5bf
00000220: b349 4a90 48e4 e3bf fb13 03bc 7f11 d6bf
00000230: 8a08 95f1 fa0b efbf 826e 9ef6 c5f9 eebf
00000240: 68ea 30c0 78ae e9bf f3b6 7308 a43f f3bf
00000250: 5872 c9cd 2de9 f3bf 7097 cd59 4343 e1bf
00000260: eecb cad9 b35c edbf 4b4b fba5 75e6 f2bf
00000270: d760 d18a 8880 eebf 9680 b78b 97a0 e8bf
00000280: d0b7 39f4 eb44 e6bf d466 2ed2 c3ad e8bf
00000290: bd6a d97b 4a7d c4bf 2d30 441c 5cab 99bf
000002a0: b1a0 2ad9 98dd dcbf fd5d 19d7 2e94 f1bf
000002b0: 5e07 e0c4 133c f1bf ea63 7e63 676b f4bf
000002c0: e3b1 24c7 34f8 f4bf b120 7199 968b dfbf
000002d0: c396 4844 0312 eebf 5c19 64b4 158a ebbf
000002e0: e474 d7c5 f016 ecbf 2f7f f2c3 8dea e5bf
000002f0: 8d0e 5e04 6f6a adbf 2649 02dd 80ab f1bf
00000300: e38a ac4c f5eb e8bf 10b1 50fa d686 f0bf
00000310: 944f 44bb 74b4 edbf c413 55d3 96be e5bf
00000320: 62d8 c92e 2a46 e4bf 4006 e81c 16e1 ebbf
00000330: 9332 49cd 3328 ebbf 489c a4cb f4c6 e6bf
00000340: 5360 39f1 91be e2bf 3db3 9779 93fc ebbf
00000350: 0688 e1d1 a6bd e8bf 4e66 0e39 1815 ecbf
00000360: ed82 1fbb f3d7 ad3f b614 9bdd c7f5 dabf
00000370: 3a66 ed99 4400 e9bf 71be f5ae 4012 bdbf
00000380: f9fc be0f 3aca ecbf 2d5d caec 66c2 e9bf
00000390: 915f c09b 7b99 e3bf f513 e4bf 1f6a f4bf
000003a0: 3c5b 944f d072 e5bf b05c 8cb1 6ce8 75bf
000003b0: 51d1 8c9b 8bd0 efbf 2335 c2ca 0aca adbf
000003c0: 74ef d4dd d8bc f6bf 97ad 5e0f 5bcf eabf
000003d0: 2969 2593 8bf7 efbf f468 ce1b 381a f3bf
000003e0: 46e3 10e8 34b4 f0bf b98e c539 b29f dfbf
000003f0: 1349 5f29 a03d efbf 3ef8 7467 6c0f f6bf
00000400: d8a8 82f0 6c04 f1bf 50c0 9082 227a f6bf
00000410: bf8f 2d96 6c33 dfbf 22ce 5173 d566 e3bf
00000420: 9aca b1e4 2a93 efbf 51f1 9635 0697 dcbf
00000430: b7dd 02f2 6609 edbf c15a e5b0 9600 f9bf
00000440: 5bae cca6 d75d e2bf 2209 be3e b75e f2bf
00000450: 1500 c4b7 2943 f0bf 56c9 4b7c 20d6 f0bf
00000460: a640 af38 ffc4 f4bf 7671 d1dc 6744 f2bf
00000470: ff8f cc03 5337 e6bf 23c7 f02e 246d f1bf
00000480: 823b 8389 5c3e d53f 1d60 a644 2e2e eabf
00000490: 3468 a822 66cf f0bf f6be b37e dfd4 debf
000004a0: ac32 5277 4ca5 e4bf 0883 c47e 43e6 e9bf
-0.6594019955935839 -1.1065882875860678 -0.8301658999500388 -1.1502959706099563 -0.6837886436845417 -0.7080894471495509 -0.9916091311199811 -0.6125359703349859
-1.4339303559523358 -0.19327302138364644 -0.6470055715688902 -0.9098467188299882 -0.7316589945911913 -1.1112987526340519 -0.13474131145596724 -1.1402019412429336
-1.0451393050029594 -0.9342802376274185 -0.7654689595572618 -1.316017470862104 -0.8062334520872739 -0.9641944103402632 -1.4018099098986836 -0.8485662769801545
-0.8036731086905685 -0.9223213658572095 0.11303660672553034 -0.41466556930462456 -0.4430572740116545 -1.0776904411373922 -1.195426590974474 -0.883164129066179
-0.22387815098929623 -0.3903249994107295 -0.850878782092533 -1.169380354322736 -1.5075774917814946 -0.8220419601966126 -0.502151096162981 -1.5686313417667759
-0.42099344815559364 -1.3116087067015554 -1.339039576444857 -0.30117063743571776 -0.47675115092354997 -1.1048602412905326 -1.033070379241734 -1.0145569167516908
-1.1390387880955946 -0.7618262782554757 -0.7301352096443877 -1.0483664406802122 -1.2283135104607115 -0.9820990216605201 -0.49272029155326524 -0.36934005799603725
-0.5052110920905922 -0.4298053741664632 -0.17407997840979716 -0.6275641358590728 -0.973387157317046 -0.8449474373211734 -0.780438871577731 -1.0006537188135842
-0.7803504252156637 -0.896025067474598 -1.3568269555747465 -0.6712827595184766 -0.6216166322868076 -0.3448180519156378 -0.9702124327088921 -0.9679899040961149
-0.8025478128177612 -1.2030372934490827 -1.2444284475851841 -0.5394608262983933 -0.9175662282708552 -1.1812645419747294 -0.9531901084219737 -0.7696035126537193
-0.695913292887548 -0.7712115388014475 -0.16007357642486922 -0.025067748284570413 -0.4510252114073508 -1.0986774828251094 -1.077167290728958 -1.2762216459725502
-1.3105972079312032 -0.49289479240952533 -0.9396988233244986 -0.8606060527097656 -0.8778003563017163 -0.6848820521445073 -0.05745264938653092 -1.1043709405099178
-0.7788034913577032 -1.0329198625505036 -0.9282783181720213 -0.6795152785858751 -0.6335650361859388 -0.8712263645722444 -0.8486575135699063 -0.7117866494562657
-0.5857629500778877 -0.8745820402960828 -0.7731508349645544 -0.8775750269298415 0.05828820857255388 -0.42125126496496124 -0.781282711638773 -0.1135597636364254
-0.8996858890094749 -0.8049807190717836 -0.6124856988926571 -1.2759091850032267 -0.6702653459823078 -0.005348610481426139 -0.9942071950995716 -0.05818208432274676
-1.421105257540117 -0.8378119754974475 -0.9989679216335264 -1.1939011655982172 -1.043995768077552 -0.49412208215492687 -0.9762726600695565 -1.3787654916082057
-1.0635804552971901 -1.404818067570904 -0.48751368203943096 -0.6063029529891006 -0.9867147890748413 -0.4467177890144472 -0.9073977209836163 -1.5626437101361008
-0.5739553697398593 -1.1481239748832839 -1.0163972071022773 -1.0522770743669603 -1.2980949606172003 -1.1417006135662553 -0.6942534517479543 -1.0891458352675236
0.33193124226539095 -0.8181372967546882 -1.0506345132657886 -0.481742738468696 -0.6451780634393649 -0.8093583560877002

layers.2.weight f8 [150, 150]
00000000: 9117 33fd e643 90bf 6cdc f0f3 b69f bdbf
00000010: f532 ffa1 006e b83f d6cd b8e3 ecfd 583f
00000020: db6d 45f1 a842 c93f b918 ef93 3a6d c2bf
00000030: 4a56 bed0 a0ed c13f 21c8 ad06 98d4 a1bf
00000040: 118f ff4b 671d 9dbf 9005 25d0 b576 c0bf
00000050: 2266 97bb 6878 bdbf 34db 5d07 f9dd b03f
00000060: bb5e a120 023f c0bf 4d9d e642 fa79 b9bf
00000070: 3b72 5b4b 9558 87bf 5c3a 343e 0496 a9bf
00000080: 914f 19e9 72c7 b4bf df1c 6bb8 30fc 8a3f
00000090: 4519 911f 390e 88bf 7ecd 728a 674c b13f
000000a0: c892 a379 4f0f b2bf 44cf e03b b67e ac3f
000000b0: 7609 b9e9 8055 c9bf 5445 47b0 feb8 b5bf
000000c0: b4be 524d 9e6b aa3f de14 ee09 4893 a93f
000000d0: 03f5 dc21 6606 c3bf bd17 df2a 500a adbf
000000e0: bbea c9b1 79cd c8bf f5dd 0d57 9151 ad3f
000000f0: e461 28a8 11b3 a9bf 2510 f32b 7360 adbf
00000100: 25d1 6ddb db98 8bbf a993 f38d 6df8 90bf
00000110: f4d4 52ce cd3f a13f d18c c8f4 5bda 8ebf
00000120: 0090 b93b e932 8b3f dd71 bebd 599d 7e3f
00000130: 18cf ad40 8c4d c5bf 93a1 8d9d 1b67 b33f
00000140: e4b6 4dfa df7b 9ebf 940c 011d d87d 8cbf
00000150: 4f03 f34f 49ea a2bf 099a f30a d83e cfbf
00000160: ef02 a047 fffb b7bf 22ae ec12 1cb9 a63f
00000170: 4633 25c3 f99c aa3f 1d25 d9ae f24d 983f
00000180: b42b 72a5 55f3 bdbf 5c4b f53b ea53 af3f
00000190: 49d0 dddd 1c61 9ebf fedd 7c8c 3e3d 953f
000001a0: 761a 2961 de67 bbbf e445 61f9 5278 b1bf
000001b0: c3c6 3480 8928 b5bf befb 9f00 386c c4bf
000001c0: a1cf fbed c811 933f 970c cb9f a644 b7bf
000001d0: 6998 4374 b07f c1bf c6a5 f96b bf7a b1bf
000001e0: bc8d ff0d dd1b b7bf e02d 1aed 0a7d b1bf
000001f0: f0a2 b582 ce7e b9bf 79b7 8b3a 8ba0 b8bf
00000200: 4e3f 481b fc67 bbbf f941 c3bd 4c16 a5bf
00000210: 8c5f d84d b48e ae3f 48b6 3caa e349 c3bf
00000220: 075a 7003 7c02 c2bf 2255 d421 8561 c03f
00000230: 0034 6de5 adc9 c7bf c553 24e4 be90 7d3f
00000240: 0803 7858 aa50 8ebf 8f06 a7db 8b3d a4bf
00000250: ae99 4927 12cb a73f c1fd fe5f 29b0 b1bf
00000260: 2ef2 4535 8145 b0bf da8f f4ba 0fef 5e3f
00000270: d430 b0d9 725e 7bbf b722 922a be3c babf
00000280: 70b3 13a0 6af5 bebf cdbb be3a 406b afbf
00000290: 449a 584a fc38 babf 3e42 5a6b 4550 90bf
000002a0: 4f5d 1a70 194f c2bf 2baf fc8f dc74 a9bf
000002b0: 040f 175c 0732 c0bf b28c 8fcd 40c0 afbf
000002c0: 90a6 878e 25bc b03f 3e0e 22f7 5b83 bb3f
000002d0: d0dc 130e 7828 963f 0fa0 cedc a54f bebf
000002e0: 3171 346b 3dd0 c1bf a292 0418 4ebe a83f
000002f0: e101 f817 7e0f adbf af80 539b 8042 b3bf
00000300: 8c43 e461 ea86 a9bf 14b4 8705 4bee cdbf
00000310: b360 a190 c5f7 b2bf d5f6 51fd fa55 bbbf
00000320: 156d 7a58 8055 b93f 589d 635e 4413 97bf
00000330: 950b ecf8 1154 c2bf 4eca 587e 6769 b6bf
00000340: 6beb f0cd cc76 c0bf b7a7 6098 4f67 bfbf
00000350: 6ef3 7c10 4b7f bfbf da8e 60bc cb55 b0bf
00000360: c594 8e8c 8414 c5bf 544e ddb0 61bc 9ebf
00000370: b78c 8cc5 e4c8 903f 3e33 2df1 4e9f cabf
00000380: 9c93 1b53 5ee0 98bf acd6 c9a6 a714 91bf
00000390: 36f5 e79f 1821 c0bf afdc a5bc e8ca adbf
000003a0: 4c5a 95a8 ce6d c3bf 7cfe d5ba 5374 a0bf
000003b0: e5da 0af4 f854 93bf 1ca9 f517 5b50 b0bf
000003c0: 5e85 351c a327 b4bf 1584 ebee 5482 a43f
000003d0: f180 def3 9dc1 bfbf 49e1 c73f 524b acbf
000003e0: 4b37 afba 5c85 c23f 3ab3 d1d2 d417 b23f
000003f0: 9774 9448 e061 b0bf 2639 1a0d 1c13 aebf
00000400: aa28 8356 8447 633f 491e 1172 f9d0 c4bf
00000410: 7bbb 51da 3307 bebf 5181 16cd 6ee5 9ebf
00000420: 49a2 f844 d89a a43f c2b0 73b0 4ad3 3c3f
00000430: 8fdc e242 dc50 73bf d59e 00b9 0ae4 b7bf
00000440: be9e 642a d910 673f 8c2c b41c 30eb a73f
00000450: b534 1646 0a59 c6bf 6fd8 b48e ed31 afbf
00000460: 6dcf d14a 441b c0bf 4a0f 54da e43d c7bf
00000470: f911 1e93 21dd c4bf 8862 32de d4a8 c1bf
00000480: 2e5a d391 5f3a c3bf 3383 5e3a d7e5 a03f
00000490: 42cb 45fd 4e85 c23f c3cc 5fa7 51a0 c3bf
000004a0: fae6 5a72 8c56 a83f 14f1 c580 e07f a93f
000004b0: e368 f489 2a4c 9abf 4325 dc88 2b2a 6fbf
000004c0: 474c 06a8 a4a3 c5bf 77b7 611b 9d76 aebf
000004d0: 1fe7 d7d4 3715 d5bf 98c1 b3a7 ae9c b03f
000004e0: b803 84c0 9903 d0bf f651 0050 0406 c5bf
000004f0: 07b0 14e0 0b76 adbf cfba 4882 161b abbf
00000500: 40bc 0258 ebb3 bfbf 7526 bebe e710 bcbf
00000510: 151f 5663 cce5 b7bf e2d0 ec79 2b0b 7b3f
00000520: 9d84 d668 6a10 adbf fd2f 0900 5167 b33f
00000530: 2628 57db c9ad adbf 5839 c105 ec78 d2bf
00000540: 01f5 a16b 41e3 d0bf 8d90 01c5 da62 96bf
00000550: 417d ab58 eba2 a3bf 91c2 bba6 fab3 acbf
00000560: 5977 679d f2a7 b5bf 7546 211e 0c77 a3bf
00000570: a9eb 83a7 b25a a33f b10a 5834 72ad 803f
00000580: e8dc 25f8 b19b 9a3f f933 449c 724d b3bf
00000590: 1365 56bc 5e34 94bf d22d 9deb 0990 a1bf
000005a0: e62f 0036 204d bfbf d684 2661 feef a33f
000005b0: 9015 1704 a9a0 b5bf d47f f594 b047 b0bf
000005c0: d174 b1b0 334b 883f 8b0e 950c 6bb0 cabf
000005d0: c3a6 67c8 4b66 c0bf 1958 7b71 ecb9 bfbf
000005e0: 4f5f 2625 1c9a babf eee3 d20e d4e0 9d3f
000005f0: fb6b b3e5 bf0b 9b3f cf22 d212 8c7e b4bf
00000600: 3799 6b2e a551 bdbf 0c42 930b 0027 a8bf
00000610: af67 8f77 5914 d8bf 7d70 2f90 8212 c3bf
00000620: 79c6 2653 3dbc b7bf d7c9 8c75 08a7 82bf
00000630: 035a fe1e 2d84 bf3f 3c15 54b2 53fb b7bf
00000640: 0d89 4216 c296 97bf ed0f c405 94f2 a03f
00000650: 6288 8775 2e73 ccbf ff2a 8023 d8aa b6bf
00000660: abfc 5ebc aa4d bd3f 0dfb 5d07 044f d0bf
00000670: bc15 ca7c 2388 a1bf 84a9 d5f7 0b67 89bf
00000680: 537b 5148 736c bfbf 82be 159e dafc b3bf
00000690: 9273 c379 306a c1bf e50a 8448 1e7c b0bf
000006a0: 4dbb d756 42b0 a9bf f63d a226 ad55 a13f
000006b0: 82f3 8b52 e9c7 c7bf 8f20 51d0 3f8d bbbf
000006c0: 67d9 06fd f6f6 a8bf a5f8 4eb3 db81 7a3f
000006d0: 771f d481 8b18 b9bf 5c0e 0617 a33a b2bf
000006e0: a34d a3e8 d7f1 c4bf b96a a58f fb56 c5bf
000006f0: 316e dbce 40c9 bcbf fe19 5aea 3071 7cbf
00000700: 0a4b a4e3 9ff2 c7bf 4f2d 7c77 50e0 a6bf
00000710: 7940 0406 5f45 c6bf 1cb8 a8c7 52fa c3bf
00000720: 4604 3dc1 38db a6bf 19e0 32c1 7e62 bcbf
00000730: 7f7c 6935 2a6f ccbf d4bc ff05 f035 b5bf
00000740: 6ebd ed12 6c64 cbbf 8ea8 eb0f a9c5 d3bf
00000750: 7b5b 3018 2f6c b4bf c33e 7ace 7b23 a9bf
00000760: 634a 642f 2130 683f 5dc1 e366 4f90 ac3f
00000770: f363 02e8 7d9f 69bf 3198 b34c 11c4 a23f
00000780: a329 720f 31e5 bcbf 9cca d57d 9c80 d7bf
00000790: 565d 582b 34fd b7bf 897b 2238 807d 7fbf
000007a0: 37c2 0147 d9eb c13f d4e7 a492 828c b8bf
000007b0: efff 2496 75de 72bf 6bf7 3a54 da72 b4bf
000007c0: a0f1 a8f1 9380 a3bf b725 de21 778c a93f
000007d0: 4a98 dc67 cefa a6bf 99c8 4a95 1aff bcbf
000007e0: 8b74 0769 6573 b9bf 4cef fc0f 26b6 b4bf
000007f0: 44b8 64d9 2196 a1bf 7183 67e3 e1a4 9c3f
-0.01588402672202666 -0.11571830230319485 0.09542850451471081 0.0015253842710877172 0.1973467996675556 -0.1439583990415423 0.140064336705722 -0.03482508737114665
-0.028432477963988016 -0.12862274802504858 -0.11511854724758355 0.06588703565453785 -0.1269228610351457 -0.09951748021432145 -0.011399427759379957 -0.04997266063047753
-0.08116834822550191 0.01317632735061952 -0.011745878482667957 0.06757208948220314 -0.07054611892415175 0.05565423470434763 -0.1979218617653477 -0.08485404781028666
0.051602312983388826 0.0499517929193105 -0.14863278058502524 -0.05671930812199786 -0.19377061062899323 0.057262937428216455 -0.05019431283671219 -0.05737647925846571
-0.01347514880556184 -0.01657267741110827 0.03368991035078209 -0.015064924628921979 0.013280698905141719 0.007474279929649855 -0.16642907293464115 0.07579205128207027
-0.029769420292203544 -0.013911903748640854 -0.03694371319716671 -0.24410534415001475 -0.0936889219156105 0.044381024656413595 0.051978879043054024 0.023734847947968086
-0.11699424065788727 0.061187095469583425 -0.02966733078160669 0.020741441082661176 -0.10705366012653336 -0.06824225033167114 -0.08264979724915648 -0.1595525744487229
0.018622531438225235 -0.09089127923202721 -0.1367092673965005 -0.0682792318927091 -0.09026891319040592 -0.06831424988393264 -0.09959116641187982 -0.0961997049268727
-0.1070554319960568 -0.041185758747477715 0.05968249750384222 -0.15069242298470642 -0.14070081870950465 0.1279760756666884 -0.1858422632452914 0.0072181183516208435
-0.014802294564107324 -0.03953206116012808 0.046471183105313826 -0.06909426301626011 -0.06356055784812817 0.0018880513778833847 -0.0066818701116171005 -0.10248936213805392
-0.12093225868347957 -0.061365134402300826 -0.10243202986803462 -0.01593121021011456 -0.14303892110613467 -0.04971970803884881 -0.12652675625405874 -0.06201365002905258
0.06537089090093162 0.10747313293000446 0.021638751849391735 -0.1184028305129916 -0.13916747793781206 0.048326912338130926 -0.05675882380092268 -0.07523349563735125
-0.04985744900671482 -0.23383462686561585 -0.07409319668784313 -0.10678070721220519 0.09896089706528628 -0.022534435521177926 -0.1431906190337854 -0.08754584154738973
-0.12862548881261246 -0.12267014951853993 -0.12303609039822813 -0.06380914067318191 -0.1646886526406545 -0.030015493793440776 0.01639134841674369 -0.20798670555304882
-0.02429339773415827 -0.01668035464759636 -0.12601001556314778 -0.058188698795612274 -0.15178855163203975 -0.03213750510894628 -0.01887883176342599 -0.06372613272620636
-0.07872981489847095 0.040056852498089913 -0.12404811099850456 -0.055262155805339726 0.14469489207697914 0.07067613741828618 -0.06399347087831796 -0.058739544486444736
0.0023534378743522337 -0.1626273924796229 -0.1172974021917365 -0.030172091739247012 0.040243872088755746 0.0004398400637473204 -0.004715786357500153 -0.09332339302693111
0.0028156510844786478 0.046716216567881025 -0.1745922891827029 -0.06092779509565182 -0.12583211568164235 -0.18157635365070696 -0.1629983871790868 -0.13796482896284012
-0.1502189123190915 0.03300354564203758 0.14469325415447015 -0.1533300463921475 0.047535313567506024 0.049803748816858256 -0.02568117587097952 -0.0038042879376730967
-0.16905649380041352 -0.05949870070695245 -0.3294200495289363 0.06489078134814574 -0.2502197628055529 -0.16424611955939356 -0.05754124746667349 -0.052941039470501765
-0.12383910082529415 -0.10963295370870603 -0.09335019517140737 0.006602449254206473 -0.05676586656341807 0.07579523325802025 -0.057966526055295994 -0.28863049089422566
-0.2638705779171034 -0.02186147525243647 -0.03835235078235622 -0.05606063161201747 -0.08459392874598616 -0.03801763408467888 0.037801344822546774 0.008143322203072985
0.025984555025812123 -0.07540050807092759 -0.01973102592964888 -0.034302053462478846 -0.12227059667947024 0.038940381392657805 -0.0844827303872846 -0.06359389912313357
0.011862186269519988 -0.20850885500305014 -0.1281218269862646 -0.12393071909477306 -0.10391403109531193 0.029177964596531263 0.026412008662060043 -0.08005595645421269
-0.11452705748852031 -0.047172547734252473 -0.3762420337276308 -0.14900238075540875 -0.09271605758729064 -0.009107652747478419 0.12311059958151564 -0.09367869476053142
-0.023036034210812285 0.03310072489151126 -0.22226505984059758 -0.08854437700953709 0.11446635340597548 -0.2548227378792241 -0.03424178026493105 -0.012403577328502953
-0.12274857059081272 -0.07807699546332894 -0.1360531420276883 -0.06439389486699161 -0.05017287550059866 0.033856783834490686 -0.18578831225013565 -0.10762404285299197
-0.048759191882185964 0.006471498684673592 -0.09803077621120147 -0.07120723068333618 -0.163630474655844 -0.1667170001408829 -0.11244587946151154 -0.006943884921958075
-0.18709181418724824 -0.04468013247068347 -0.1739920405748341 -0.15607676266648773 -0.04464127882830175 -0.11087791649595181 -0.22214248283396285 -0.08285427233180381
-0.21400214123012112 -0.3089392333482771 -0.07977575626897064 -0.0490988435313944 0.002952637495704112 0.055788499173902585 -0.0031278094393880572 0.03665212689684017
-0.11287218691919647 -0.3672248104914304 -0.09370733316642563 -0.007688046318576344 0.1400100323403579 -0.09589401321582552 -0.0046066849920975836 -0.0798775153770898
-0.03809034657431032 0.04989979065346566 -0.04488225000231745 -0.11326757569148284 -0.0994170552653079 -0.08090436830837894 -0.03434854296425319 0.027972726349506375

layers.2.bias f8 [150]
00000000: 1ba7 ebf5 3428 b1bf adab 6b9e f795 d4bf
00000010: 6d05 1c02 e0ab bcbf 71e2 d55c 859e c4bf
00000020: 468b 91e4 308f b1bf 62db 1cbc 59d5 e63f
00000030: d0ff c750 91fa d83f 08eb 066c 8616 e13f
00000040: b570 84ae 1c18 e0bf 3c40 28a7 811e f0bf
00000050: 88fc 8816 5524 94bf 195e 29e0 e19a f23f
00000060: f083 892f b55a bebf 11b7 0bcc 1558 b7bf
00000070: 63dd cb51 b3f7 b2bf 5a2d 0395 b1e2 e23f
00000080: 8ba0 9753 4d7e f3bf c129 457d 61bb babf
00000090: ca4d 1e8d bf1c e2bf e1f5 00d1 a2ff d7bf
000000a0: 9ae6 90e1 c88e b4bf 1c1d 2b5b 14c2 b0bf
000000b0: 6b39 c7f5 3eae b2bf 8eff bb9a 33bf b13f
000000c0: 91a8 753d 3e3b e4bf 7944 be0a 1af4 97bf
000000d0: d3a2 32cb c05b b2bf ad55 4f27 379f c6bf
000000e0: 8f77 953a 7735 c3bf 5943 3bdf 01b9 be3f
000000f0: 91b9 3191 1b44 b4bf 91d1 542d c252 bebf
00000100: 169b e793 c19f c43f d20c 3a3b 5cc9 c1bf
00000110: dfec d701 e1b4 bdbf 56c9 777a 6bc2 d13f
00000120: 47e9 3c44 99c7 d93f 5c96 bf76 2085 d43f
00000130: cc70 962a 5a9e b5bf 2cb8 e157 3ab7 e33f
00000140: 08fb fa36 bd09 b4bf adfd 96a6 eaaf b0bf
00000150: 503d 5c08 4493 d2bf cf05 3997 fd24 b1bf
00000160: 52f9 e327 2bca a4bf 4200 d4a6 133d e1bf
00000170: e82c 8efc 12ba cabf aaf4 3fb0 b748 b9bf
00000180: 51f0 0804 cf39 a5bf bacf 6d7e 3e0d d83f
00000190: 3a66 ad1c 9d66 e5bf 9497 3543 6936 d5bf
000001a0: 8e45 be73 3aef cbbf 7811 8e12 c4d1 d6bf
000001b0: 3fc9 1555 6198 b0bf 2006 194c af04 b1bf
000001c0: ff47 2bbd 460d c2bf fc37 5178 216a e4bf
000001d0: b3ed 37ed c201 f23f 7241 6478 57ca e8bf
000001e0: a882 07ef f3e3 b73f ca01 a8da 6c84 e7bf
000001f0: af12 f2d6 a05d b9bf e637 f47c d05a c1bf
00000200: 4998 3fc6 fb12 ecbf fdb3 7c93 c18b b1bf
00000210: 2f61 06c3 ee55 bebf c921 8794 36ff f1bf
00000220: 3bae 7552 637d e8bf d9c7 9041 7f47 d03f
00000230: b68a e2d3 a821 cabf d0ce 22b4 0204 aebf
00000240: 5a41 b901 c644 e0bf 1360 4885 4d90 d3bf
00000250: 3aa8 b185 42dd b8bf 0abc b986 826a b9bf
00000260: fd6d aa55 f8d8 b0bf 8ca8 769b 3b4c c23f
00000270: 80be eb2c a7de debf 3fc2 be20 d60e 923f
00000280: a205 752f 5cdc d9bf 197f 856b 0f6c da3f
00000290: 9467 cd18 8403 9dbf f1ae f3f7 0606 cabf
000002a0: cc3d 42dc 87e7 d9bf 95d9 35cb bc43 c0bf
000002b0: f55b c48a d322 d53f 9357 7727 40a3 afbf
000002c0: ac6f 49a9 972e b2bf 94f6 bedd ee1d d13f
000002d0: bca4 7ae7 c76c e33f d0d4 96b3 86b3 b3bf
000002e0: 76c1 2149 edce e7bf f06b aa70 a0da a9bf
000002f0: e704 87e5 75a7 b0bf 6853 4c3f 8836 ddbf
00000300: b1b6 2d0f 811a b9bf faec ec3f ec53 e83f
00000310: 7b2a aaf0 01d9 c33f 8497 1bb5 f1aa e5bf
00000320: 47ef e175 58d6 e8bf 2828 36a3 8621 c7bf
00000330: 0c32 cb69 96a3 b8bf d56f 5775 a1cc cabf
00000340: 91f3 10c1 719b 99bf 1764 fe1e 44ba a5bf
00000350: 42c9 74fa a09b a7bf 87a1 402e ff27 e03f
00000360: 332f 7ef3 cbd2 d33f 1310 85d7 8174 a7bf
00000370: 3703 f4fd 36f9 b0bf 4ea0 0ece c20f b7bf
00000380: 4c10 3982 6668 b0bf a004 c37b fd53 c6bf
00000390: c470 bd36 cfd7 aebf 4b93 d68e b879 99bf
000003a0: 8161 2354 03f8 d0bf a9b8 1baa f55d b0bf
000003b0: 4301 0f8f 0ae6 bb3f 3f08 8ae3 317d dbbf
000003c0: 8974 098f 8bb2 c6bf 3668 df8a 235c b1bf
000003d0: 29ff 1886 4e0e 9d3f feef b15f 3628 dbbf
000003e0: d4dd 10e3 76e2 e83f 5f97 1f37 588a b3bf
000003f0: f9c0 3ea5 dfad edbf 990c 8799 90fc e43f
00000400: b792 338a e126 e03f 0091 fda2 49a6 dbbf
00000410: a1e1 5b09 96bb c2bf 268c 5f56 355e eabf
00000420: 67d5 ae08 8b54 df3f f05f 730a 7824 abbf
00000430: 8773 38cc 0508 aebf 2b9e f311 8452 fcbf
00000440: c87a 549c 5dba ddbf 3585 2363 5b09 b5bf
00000450: 7349 890e c04e a9bf dc5e 7f33 50c4 c9bf
00000460: 1639 399a f857 b9bf ad0d c1d2 c02a bcbf
00000470: 30d5 40e0 c076 b6bf dc45 bad2 afdc cabf
00000480: 3076 87db f5a3 bbbf 689e 857e d045 b2bf
00000490: 7aab 2d31 8967 b9bf 79dd 875f 63d0 97bf
000004a0: 3ae9 f8d4 aaf4 abbf 1428 fa44 729d b1bf
-0.06701975826186095 -0.32165327521095827 -0.1119976048612636 -0.1610876754091524 -0.068591171076645 0.7135437654568302 0.3902934349898688 0.5339996442702111
-0.5029433640043154 -1.0074478654460242 -0.01966984701197963 1.1628130680381956 -0.11857159052443911 -0.09118782264314641 -0.07409210917454838 0.590172568359246
-1.218335463077923 -0.10442170437196464 -0.5660093075006725 -0.3749777833034767 -0.0803037214945114 -0.06546141839782077 -0.0729712820095522 0.06932375457472359
-0.6322318268187407 -0.023392111688341963 -0.07171254120715824 -0.17673386973789942 -0.15006914482631514 0.12001048755634026 -0.07916424078732677 -0.11845029455873247
0.16112537118825604 -0.1389575280373721 -0.116041243505538 0.2774914451575986 0.4028075376878814 0.32062541576883574 -0.08444751300561676 0.6161166874351287
-0.07827360718054532 -0.06518427436002723 -0.29023838821827486 -0.0669706815906672 -0.04060492383904325 -0.538705659710111 -0.2088035329037219 -0.09876583149885457
-0.04145667003874166 0.37580835672929036 -0.6687760887245482 -0.3314459949818851 -0.2182381692078192 -0.3565530949784015 -0.06482513739846228 -0.06647773368697374
-0.14103016125460496 -0.6379554128595823 1.1254300371500505 -0.7746999122046374 0.0933220346992224 -0.7349151869421402 -0.0990849041718984 -0.13558393574970679
-0.8773173210181621 -0.06853875971565056 -0.11849872838354679 -1.1248079110974791 -0.7653061495343033 0.2543638363159722 -0.20415220590537836 -0.05862434815335649
-0.5083951982178789 -0.305682544859793 -0.0971261574174215 -0.09928146161267662 -0.06581070033501386 0.14295144167892138 -0.48233966242603543 0.017634721516232906
-0.4040747130821619 0.41284547329085935 -0.028333724988761924 -0.20330893618608273 -0.4047565127338799 -0.12706718370800432 0.33025063086955636 -0.06179237825169461
-0.07102344401340471 0.2674519696700852 0.6070289155078608 -0.07695810207845288 -0.7440096310001951 -0.05049611449540936 -0.06505524495789282 -0.4564533823152517
-0.09806067104883699 0.7602444885773416 0.15506004573065355 -0.6771172082196562 -0.7761652281182955 -0.1807106301242254 -0.09624614794592662 -0.20936983327453498
-0.025007035645319645 -0.04243672254887814 -0.046109228680864436 0.5048824218147708 0.3097410085544993 -0.04581075435501716 -0.06630271625546134 -0.09008424311343896
-0.06409302405614986 -0.17443817656570548 -0.06024024527752794 -0.02487839099707693 -0.26513751236554844 -0.0639337101272043 0.1089789008392517 -0.4295162889540087
-0.17732376560426058 -0.06781217709013351 0.02837488835780203 -0.4243293699762488 0.7776445803528369 -0.07632972093378275 -0.9274748065418229 0.6558306692681014
0.50474621765587 -0.4320243922905007 -0.14634967286089043 -0.8240000426270668 0.48953510139411666 -0.053012610698431106 -0.05865495794225866 -1.770145483134807
-0.46449985758401313 -0.08217402620677634 -0.0494289415115813 -0.20130350603607539 -0.09899858250830493 -0.1100273623024381 -0.08774953341420111 -0.20985982694087013
-0.1079705868682701 -0.07137778366961245 -0.09923608256000974 -0.02325587530682813 -0.05460103845367077 -0.06880869087231672

layers.4.weight f8 [150, 150]
00000000: 2a05 aabd 4d25 b7bf f760 9b5b 5e5d 78bf
00000010: b029 9fa0 5b78 893f f61f 57b7 40d1 b03f
00000020: 83d5 cb30 cae3 a43f 7033 f88e bbcf dd3f
00000030: 51b5 f74a b7a1 d8bf 4e59 baab e3f3 d4bf
00000040: 43c9 faaa e994 aabf 2ffa 85ea bca5 c8bf
00000050: 7f00 4bb7 fbc9 cabf 348b 725a acf4 c2bf
00000060: 765a ae0a e3ee 923f 607a a409 8f2a c6bf
00000070: 2bd1 b4b2 a119 b9bf 220f 6361 3c8e c33f
00000080: db74 dced 35f8 cbbf ea5a e709 e149 d2bf
00000090: 7d4d 6a33 d1fd e0bf b375 9947 4f3a d1bf
000000a0: f750 4aae 113d 883f 27f3 ad39 d479 c1bf
000000b0: a60d 3762 6e49 b93f 586a 6fbb 294c d3bf
000000c0: a3ec c490 fb46 c7bf e454 5825 3022 5bbf
000000d0: 9a27 6f1d 6444 81bf 424a 3064 af41 b9bf
000000e0: 8d90 4183 278c d3bf eb3d 29d3 e305 e4bf
000000f0: 188c f260 e303 d03f 342a 111e b4f2 bcbf
00000100: 4c79 331e 1728 cebf 3e6e 2ba8 ec34 a23f
00000110: bbd9 9c9e e362 943f 0304 8e55 9f37 e5bf
00000120: 2e75 26ed 1c8a afbf 2a74 08d8 0bcb cebf
00000130: 417e 1651 4f64 90bf 04c4 8650 658f aa3f
00000140: 1931 f645 c4b7 a93f 76f2 f83a ecd2 bfbf
00000150: a6be 1d80 6f34 a43f b446 7f2a 5d77 bdbf
00000160: ceec b57b 9ba4 bbbf c85b fc23 8233 bfbf
00000170: fc4f 705b b309 b7bf 1022 314d be8a 753f
00000180: 24f2 c194 4d82 873f 3461 d8c8 6eb9 c8bf
00000190: 0b9b faa4 d74a b13f 1868 3d7a ec0c bfbf
000001a0: 03fe 1379 f657 94bf 0306 f960 5eca b7bf
000001b0: a644 a25f 42db c3bf 4f3a beb1 fa6c 853f
000001c0: 2b62 1cf9 95bf c03f fc0c 9ee7 41c9 a13f
000001d0: 71c4 c861 edae c83f 66a3 ea5f ed11 bfbf
000001e0: 49f5 0c0a 90ef a2bf f06f 6cef 1eb0 dfbf
000001f0: ab3a c4f7 8c68 babf 59e4 3599 3fd0 b93f
00000200: 9677 136e af07 eabf fbc0 27ff 3c3d b7bf
00000210: 628c 6854 0057 c2bf 271f f242 ab4e d6bf
00000220: 137d 576a 03e3 b6bf a0c6 1495 a312 d3bf
00000230: 3bcc 22d6 c5c7 d0bf 5417 c2ca dc56 bbbf
00000240: 4830 fba5 46df e7bf 69c3 6dc4 ebde d2bf
00000250: 93cd 38f1 4dd2 be3f bd3f 6612 7aa4 93bf
00000260: 3bcf 8678 1873 98bf 0661 d38a 170f c1bf
00000270: ac67 1ed6 f0ae cabf 7e23 2305 273e c4bf
00000280: 96c9 88ff 782a c4bf 3ae8 f984 f625 db3f
00000290: ec81 b0c1 dfb1 c0bf eb6e 139b d9cf bf3f
000002a0: e5ff d5ea 72b8 afbf 5d8b 9e77 7768 c2bf
000002b0: 95ff 89b1 ace8 893f ccbb 6365 5c33 b73f
000002c0: ebc6 d5e7 fd8f ad3f 52cf de96 be8a c4bf
000002d0: fd0d 176d a150 cdbf 7302 37d6 182e 8b3f
000002e0: 255b c1cd 8aa0 e7bf be56 9921 3540 9dbf
000002f0: d70c d747 9e9c bcbf 0d5f 35b4 d6fb dabf
00000300: 0bc8 0f6f 17d1 b6bf f7ae 4612 c508 cbbf
00000310: 9fd1 97d7 61a4 b83f f7f1 8328 d3d9 d3bf
00000320: ddd6 ca9b 3475 acbf 021d 1518 3f15 b5bf
00000330: 8597 eac5 db43 a83f 0b60 2c17 87ae b2bf
00000340: 446e dda3 ee97 be3f b67d e061 9e99 a0bf
00000350: 19e4 b7b0 9591 d5bf b0fc bc46 84d2 d3bf
00000360: e5b7 e2c7 7d66 ddbf 6314 b03b 222d b3bf
00000370: 6b04 ae2b 3420 b63f 5381 9137 1d8d 8fbf
00000380: b366 3305 37c0 8dbf 935d b023 4d15 a63f
00000390: 6b52 732d 2fa7 8abf 3bdd 3bd1 4c3d a8bf
000003a0: 78c7 7af5 d2a2 b2bf 7969 6790 2778 b4bf
000003b0: 89f5 a74b 445d d4bf 19a2 253f f638 833f
000003c0: 688e 8523 93e5 c3bf 76ea 86c6 8e94 99bf
000003d0: 8a0e 4e86 30ca bcbf af16 0a93 98b6 c3bf
000003e0: 4f8b e4c7 984f c73f 57eb b975 4516 a2bf
000003f0: 22b5 f2c0 7d00 b8bf 27f4 9497 49b7 b53f
00000400: 4291 3535 c59b d1bf c984 9da5 698a d4bf
00000410: 3d9c 5041 a8d0 aabf 61ae 6bc0 6ad8 b9bf
00000420: 3c0c dde4 57de b3bf b8fd 0d1f 29cf 95bf
00000430: 1777 7626 8363 b4bf de70 3ec6 b792 d7bf
00000440: 3be0 4d4d f7ef d9bf 58db 2812 6ba2 653f
00000450: c0db bbc3 c0fb c1bf b128 38e5 14ee a1bf
00000460: f3e0 82c0 a140 a5bf 6fef 5bf0 0ab5 bb3f
00000470: e7e0 5727 ba44 bebf 5865 e15a 28c6 a0bf
00000480: ec8d dc88 25c1 8b3f 6230 b4ba 21d9 a83f
00000490: 5251 92f0 d980 94bf fac9 f4bf 66c0 92bf
000004a0: 601f aa7e d361 b13f 7ed3 d026 7053 c7bf
000004b0: 70f5 dd06 c15d a03f 4650 4119 46fd 81bf
000004c0: 378e 8b3b 2f06 9dbf 86cb 0c43 7818 b03f
000004d0: de6c 6016 342a b13f 3b3a e699 9645 cdbf
000004e0: fbb9 2cfc 10e8 d6bf b63c 0610 b23b c6bf
000004f0: d2bb 851c ee11 65bf 395a dc91 4a18 d3bf
00000500: ced5 8155 beec b2bf b39e 5e22 6cc2 d5bf
00000510: 7657 9d32 ad41 b33f 2ea7 54fd 5ca0 58bf
00000520: f58d d162 a38d a13f 0bc2 4836 d099 abbf
00000530: fe37 0a0b cd3a bbbf 432a 0d72 67df c9bf
00000540: 31a1 7983 4d21 dbbf 7a53 c89d 2dff dfbf
00000550: 93bd e931 a1aa bebf 9461 fc11 8d19 65bf
00000560: 0c9f 36f6 8a26 b23f fda7 d404 2e49 cabf
00000570: 44c3 ffd5 4211 b53f 873a f0a7 ae7e d2bf
00000580: 248d 17b5 e0e3 bf3f f349 41e1 3a74 b2bf
00000590: 82b5 0cc2 462e c33f 8bc4 32de 2218 d8bf
000005a0: a029 6101 c232 c3bf c919 7154 cc2e c53f
000005b0: ffc7 4437 059c c5bf 69ef c1ae 679c c6bf
000005c0: 7b15 173a e35d 633f d658 f376 949e 963f
000005d0: a7ae 0768 4395 bdbf 3869 09cb 994b dabf
000005e0: c6af e501 97cb 753f 632f 5e1c cd78 cebf
000005f0: ca41 1525 54b0 aabf bca7 d0cd 18b5 993f
00000600: 885a 5b26 b12d abbf c086 1a92 a378 943f
00000610: 2661 a002 4fb4 a43f b677 ce7f 34ae b53f
00000620: 1554 4656 38da 73bf d424 9e74 8f21 b73f
00000630: 9127 67f0 9b2f b4bf 5c17 0ccf 37b7 423f
00000640: 6a9f 5f44 3a29 a7bf d2c4 02ed b70b d8bf
00000650: 6f22 3fbc 471d b6bf cd76 07ed 75c5 b63f
00000660: 642e 6420 54a9 c6bf 7346 e9e4 8bd2 bcbf
00000670: 8786 b7bc df1b b2bf facf 10fe df67 c4bf
00000680: 6988 2bc4 0d5d b9bf 9256 ddc8 6d3c c4bf
00000690: 3e27 9528 f96d a13f 43a7 e5e0 65d9 cfbf
000006a0: 49cb fcce 0a99 a93f c2f9 fc15 cae6 67bf
000006b0: 8bb8 832e 2e41 e4bf 134a a976 9aaf a3bf
000006c0: 89f5 9355 10fa 88bf 9f99 38bd 30a7 aabf
000006d0: 422a e36a 656b d9bf 16b1 74b3 2ec1 bfbf
000006e0: ffda f3e5 4972 cfbf 2a4f ad4e 43bc c63f
000006f0: 352e 922d 0d90 88bf 9fbc 86f8 b60a c0bf
00000700: c920 8c7d 7b6b b23f 91d1 3a58 6cf0 c43f
00000710: 9859 6f98 9afe c33f 63b1 b51c 49e0 babf
00000720: 5ecf 8be6 a252 e8bf 0290 779f 6fbd d8bf
00000730: 0a20 a16d a2f5 b7bf 1af7 dac6 1a2d 97bf
00000740: 5bb0 3b38 f3ff ca3f c5a7 c94b 7e0d a3bf
00000750: 4549 98b1 bfe1 843f 8edc f0b7 6fc3 a9bf
00000760: f8a5 976c a676 d5bf e72d c6bf 060b 66bf
00000770: c2f5 1d3a cfea b3bf 2df3 7fc1 1409 afbf
00000780: ea5a 03e8 1110 c8bf 3b43 388b 2c83 c53f
00000790: b8bf 52c9 ee0d e4bf 9839 5292 9b89 9cbf
000007a0: 555f c777 dbc6 c0bf 0f85 d9b1 8eb6 aabf
000007b0: bf1c d571 a26a a3bf e73c ec9d e68c ab3f
000007c0: b97b 84f0 6bf0 bebf 107e 0c61 87f4 b0bf
000007d0: 0465 677b a122 a03f 9b3a e127 07bc 9dbf
000007e0: 16fd e628 9dd8 b93f b988 7c23 8cc4 96bf
000007f0: af18 fda6 2ec1 b03f c8bb a654 a7e5 9d3f
-0.0904129589125843 -0.005948418221770383 0.012436595763479413 0.0656929442985755 0.0408003983083445 0.4658039947687973 -0.38487036057525353 -0.32738582392029947
-0.051917364236390394 -0.19255792094550503 -0.20928904008724555 -0.14809183517817248 0.018489406134529728 -0.17317378969979114 -0.09804735768267807 0.1527781940004554
-0.21851228823007926 -0.2857592198101161 -0.5309835437969209 -0.2691839408124352 0.011835229998986991 -0.136530426181616 0.09877672097996157 -0.3015236215993915
-0.18185371941385595 -0.0016561002897835181 -0.008431226871738851 -0.09865852542888212 -0.30542934244136505 -0.6257189869156127 0.25023731677555494 -0.11307836278971523
-0.2355984590021286 0.03556003144123253 0.019908482128096355 -0.663039843653792 -0.06160059351825918 -0.24057148025977543 -0.016007651638231705 0.05187527282703999
0.05023015359901901 -0.1243121761298854 0.03946255148809756 -0.11510259902504566 -0.1079804589298192 -0.12187970522459957 -0.08999176962271344 0.005259269109111134
0.011479002096387587 -0.19315895850082543 0.06754825380140177 -0.12129095062610451 -0.01986680139543574 -0.09293165080546122 -0.1551287619554717 0.010461767720497365
0.13084673560730783 0.03473859741554894 0.19283835672971208 -0.12136729804718768 -0.03698396799743848 -0.4951245630379608 -0.10315781640040693 0.1008338688897238
-0.813438143722794 -0.09077817181946905 -0.1432800686025955 -0.34855157411264986 -0.08940144869074045 -0.2980126338835394 -0.26219316398345754 -0.10679416608954045
-0.7460053674526614 -0.2948560159921301 0.12039649142461988 -0.01918211686421477 -0.023876554828986967 -0.13327307013128847 -0.208463768530064 -0.15814674139826573
-0.15754616238843927 0.4241920755954457 -0.13042828519338856 0.12426528965027799 -0.06195410839700325 -0.1438130697325403 0.01265082279974176 0.09062745547610901
0.057739195394686714 -0.1604841458007465 -0.22902314974463414 0.013271516835517283 -0.7383474367769379 -0.0285652448422613 -0.11176480535418719 -0.4216210136269048
-0.0891279836794469 -0.21120513336551713 0.09625827325346002 -0.31016997295935717 -0.05558170701753593 -0.08235544527007124 0.04739271918269509 -0.07297558131938346
0.11950580120667903 -0.03242201752459144 -0.33701078660630085 -0.30972391994505255 -0.45938057441787655 -0.07490743596288633 0.08642889086151377 -0.015405872591316571
-0.01452677712079562 0.04313126621871812 -0.0130141912217507 -0.047342682400933055 -0.07279699795870254 -0.0799584128903116 -0.3181925524548537 0.00938598995408406
-0.15544356569727147 -0.024980765215995203 -0.11246016768387271 -0.15400988750132202 0.18211660156620232 -0.03532616674507121 -0.09375749550482174 0.08482799483040591
-0.2751324672338066 -0.32094803975458014 -0.052373178456314375 -0.10095851133126522 -0.077611440062399 -0.021298067589212016 -0.079643437280961 -0.368329948041504
-0.4052713637279372 0.0026409236172883314 -0.1404953914386322 -0.035019543629532086 -0.041508726835162955 0.10823124282972939 -0.11823619328049838 -0.03276182278996015
0.013551991690809971 0.04853158382511037 -0.020022778805086468 -0.018312077966763575 0.06789895861049677 -0.18223382849978614 0.031965286339054155 -0.008783862729764402
-0.028343904504153108 0.06287337910616317 0.06705022379212575 -0.2286861659490159 -0.35791420580326844 -0.17369676382484095 -0.002572026311262723 -0.2983576225682643
-0.07392491900994644 -0.33999160152823577 0.07522089467724222 -0.001503077325944745 0.034283738911451346 -0.05390787756585177 -0.1063659812882349 -0.20213025158803263
-0.4239076408325842 -0.4999498406262358 -0.11979110210972115 -0.0025756602552855033 0.0709006167513701 -0.20535826907990887 0.08229463314615965 -0.28898207092508027
0.1245708887213835 -0.07208602904692167 0.14984974360542586 -0.376473156919993 -0.14998650615082187 0.1654906666100955 -0.1688238639704309 -0.1766481021221538
0.002364105036323392 0.022089309463660133 -0.11555882730288634 -0.41086430385407224 0.005321111557673624 -0.23806156048919566 -0.05212653114961403 0.025104892312959967
-0.053082977230293926 0.019991451065499488 0.04043814570485642 0.08468940849567627 -0.004846782747695695 0.09035584065545105 -0.07885145777905068 0.0005711576942253149
-0.045236416670205795 -0.3757152380522487 -0.08638428064217306 0.0889505103764023 -0.17704249936683703 -0.11258768404629808 -0.07073782307954889 -0.1594200125269934
-0.09907613791759363 -0.15809414203493027 0.03404215450662072 -0.24882195931723503 0.04999574448301886 -0.0029176661481919728 -0.6329565914618497 -0.038449122414608315
-0.01219570885813927 -0.05205681142642792 -0.3971799415418539 -0.1240414798855379 -0.2456753132643925 0.17762032834672797 -0.011993506386963929 -0.1253269876010323
0.07195255103227106 0.1635871344384552 0.15620739405740092 -0.10498482657357537 -0.7600874426702651 -0.3865622575087856 -0.09359183479784874 -0.022632997882047957
0.21093597646484138 -0.03721232104437847 0.010196206671967753 -0.05031918640491383 -0.3353668270561623 -0.0026908046549516287 -0.07780165833351929 -0.060616158123571
-0.18799041584744397 0.16806561277237528 -0.6267007762999048 -0.02786868172238996 -0.13106864307951108 -0.05217405243889505 -0.03792293204838292 0.053809363153158256
-0.1208560430718383 -0.06623121375422891 0.03151421195406992 -0.02903758221537576 0.1009615158900384 -0.02223414389221354 0.06544772698279887 0.029196371595101828
